experiments/dispersion_pinn.pth (torch, 940940 bytes, 35 tensors)

model.0.weight f4 [128, 1]
000000 8b 2a 52 bf cb 9a b0 3e ce de 7d bf 16 c4 99 be
       -0.82096165 0.34493098 -0.991681 -0.30032414
000010 57 93 72 3e 53 2f 68 3f 7e 91 80 3d 80 df 7b bf
       0.23689018 0.9069721 0.062777504 -0.9838791
000020 70 88 19 bf e4 d4 73 3e 62 88 73 bf 2c 9f 15 3f
       -0.5997381 0.2381168 -0.9512998 0.58446
000030 b6 f8 54 3e f9 92 35 bf da 7c 6e be b2 48 a6 3e
       0.20798 -0.7092739 -0.23289815 0.32477337
000040 ad 37 62 3f 8d 2c 59 bf 36 0f 7d bf 95 a6 4d bf
       0.88366205 -0.84833604 -0.98851335 -0.8033231
000050 c3 24 65 bf bd c2 fc 3e ad cd dc be 0f 79 6e bf
       -0.8950922 0.49367324 -0.43125668 -0.9315347
000060 5f 54 11 3f 15 79 d5 be 9f 36 5b 3e 75 04 5b 3f
       0.56769365 -0.4169394 0.21407555 0.85553676
000070 b4 9f 23 3f 6c 7c 90 3e 67 f1 99 3e f7 5c 31 3f
       0.6391556 0.28219926 0.30066988 0.6928248
000080 aa de 12 3f ed 66 7e 3e eb 42 9c 3e 3a de 01 3f
       0.5737101 0.2484395 0.30519804 0.50729716
000090 91 ea 04 3f fe a5 7c 3f c3 33 0e bf 52 15 fe 3c
       0.5192042 0.98690784 -0.5554773 0.031016026
0000a0 97 6c 04 3f e6 08 fe be d7 90 5e bf 2e ba 78 bf
       0.51728195 -0.49616164 -0.8693976 -0.9715909
0000b0 31 c3 ab be d0 9b 88 3d 05 de 01 bf ed c0 21 bf
       -0.33547357 0.06670344 -0.507294 -0.63185006
0000c0 76 db f3 be 11 0f 48 3f bb dc 2f 3f 64 4c f3 be
       -0.47628373 0.7814799 0.6869618 -0.4751922
0000d0 81 5a 01 be fa 6a a7 3e 2d a6 0a bf 82 b3 11 bf
       -0.12632181 0.32698804 -0.54159814 -0.5691453
0000e0 fc 58 fd be fb ed e9 3e 64 d2 77 3f 98 9a 69 bf
       -0.49481952 0.45689377 0.96805406 -0.91251516
0000f0 0c 7c 81 be dc f8 19 3f 13 27 48 bf a3 9b 4e 3e
       -0.25289953 0.60145354 -0.7818462 0.20176558
000100 9d e7 6d 3f ef 72 94 3e 83 86 c7 3d 1d 80 af be
       0.9293154 0.28993937 0.09742453 -0.3427743
000110 20 54 e1 be 67 7a 64 3f 26 c1 98 3e c0 3a 71 bf
       -0.44009495 0.8924927 0.2983486 -0.9423027
000120 bb c0 cc 3e e8 2c ce 3e 94 86 b0 be 51 3e 98 bd
       0.39990792 0.40268636 -0.34477675 -0.07433761
000130 1e c6 6b 3e 69 14 23 3e a6 e8 0a 3f 84 42 ea bd
       0.23024794 0.15925755 0.54261243 -0.11438468
000140 43 81 23 3f c6 24 18 bf 5c 50 40 bd be 99 ca 3e
       0.6386911 -0.5943111 -0.046951637 0.3957042
000150 88 5c 16 3f 65 94 05 bf 0f db 6e 3f c0 9d 35 3e
       0.5873494 -0.5217956 0.93303007 0.17735958
000160 6f d2 7b 3d bf 51 72 be 31 c7 0c 3f aa 34 50 3f
       0.061479982 -0.23663996 0.5499144 0.8133036
000170 35 03 2e 3f 71 45 31 3f 16 23 51 bf 24 d7 99 bd
       0.67973644 0.69246584 -0.8169416 -0.07511738
000180 4a 17 ef 3e 14 bf 28 bf 69 1a 77 3f 00 f3 57 3e
       0.46697456 -0.6591656 0.96524674 0.21088791
000190 fe fe 22 3f c4 13 5d 3f c3 d6 53 be 24 d6 cd 3d
       0.6367034 0.86358285 -0.20687394 0.1005061
0001a0 05 d2 1d 3f d0 be 55 bf b8 90 ae be 52 2d 48 bf
       0.6164859 -0.8349428 -0.34094787 -0.78194153
0001b0 48 96 69 3f a3 0c 31 bf 35 1f 6d bf c1 e6 a3 3d
       0.91244936 -0.6915991 -0.92625743 0.08002997
0001c0 56 28 23 bf 24 c4 b3 3e 18 e5 4f 3f ae ef e2 be
       -0.6373342 0.3511058 0.81208944 -0.44323486
0001d0 13 27 31 bf 8c 71 03 3f cd 87 3c be c6 98 3f be
       -0.6920025 0.51345134 -0.18411179 -0.18710622
0001e0 de 26 27 3e 00 f1 1d 3f b7 c4 90 3e 21 a3 97 be
       0.1632342 0.6169586 0.28275082 -0.29616645
0001f0 94 c7 81 3e 67 99 15 3f 24 85 a2 be 2f 6b 9a be
       0.2534758 0.584372 -0.31742203 -0.301599

model.0.bias f4 [128]
000000 7c c9 7f bf 77 c9 38 3e a8 ca d6 3e 54 af 87 3e
       -0.99916816 0.18045603 0.4195149 0.26500952
000010 e4 28 0c bf 9e ee 59 bf 8c f6 df bc 2d 09 7c bf
       -0.54749894 -0.85129726 -0.027339242 -0.984515
000020 99 ef 8c 3e cf 60 8c 3e 52 8e 1e bf 8f dd 8b be
       0.27526549 0.2741761 -0.61935914 -0.27317473
000030 7a 87 7e 3f 46 a2 74 3e 4c 2b 65 3f af 92 c1 3e
       0.9942547 0.23890027 0.8951919 0.37807223
000040 a0 d4 74 bf 02 9f 59 bf cc a6 8c 3e 42 2b 6f bd
       -0.9563694 -0.8500825 0.27471006 -0.058390863
000050 77 51 bc be 4c 5b 53 be a3 8e d6 be cf cd af 3e
       -0.36780903 -0.20640296 -0.41905698 0.34336707
000060 21 04 3f 3e 5f d6 03 3c 34 71 3c 3f ec 76 d8 3d
       0.18653919 0.0080467155 0.73610234 0.105695575
000070 b3 25 a0 3d 44 96 81 be 2f fc 68 3f 40 2b 2f bf
       0.078196906 -0.25309956 0.910098 -0.6842537
000080 e1 b4 58 be 2e 86 fb be 42 d0 48 3f 66 51 33 bf
       -0.2116275 -0.49125808 0.78442776 -0.7004608
000090 96 b7 61 bf 1e c1 b3 be 69 53 26 bf 0a 59 63 3f
       -0.88170755 -0.35108274 -0.64971024 0.8880774
0000a0 a0 5e d7 3e df a2 17 3f 68 11 5d bf af be 59 bf
       0.4206438 0.59232897 -0.86354685 -0.85056585
0000b0 6e 6a fe 3e 62 26 3f 3e 0b de 33 bf 7c 8c 2e 3f
       0.49690574 0.18666986 -0.70260686 0.6818311
0000c0 c3 2d e0 be 3b 12 2c be 0c 33 ea be 5b 39 7e be
       -0.43784913 -0.1680383 -0.4574207 -0.24826567
0000d0 bc ff df 3d e6 a4 3e 3f 06 f8 63 3f 19 63 0c 3f
       0.10937449 0.74470365 0.8905033 0.5483871
0000e0 ed f0 8b 3e 0a eb 38 3e 42 0c 3f bf 1d b2 01 bf
       0.2733225 0.1805841 -0.7462808 -0.50662404
0000f0 f6 15 05 3e e2 59 20 be 0a bd 61 3e fe 96 05 3f
       0.12996659 -0.15659288 0.22044769 0.5218352
000100 15 fd 4f 3f a5 2f 7c 3f e8 f9 a1 3e 2e 3f 0c 3f
       0.8124555 0.985102 0.31635976 0.54783905
000110 56 5f 41 be e6 cd 32 bf e6 b3 47 3f 2a ed 81 3e
       -0.18884024 -0.69845426 0.7800888 0.25376254
000120 6c c3 3a bf ac 20 64 3f dd 3a e2 3e 4a 66 c0 3e
       -0.7295444 0.89112353 0.44185534 0.3757804
000130 c5 eb 4b bf 07 82 96 3e 59 17 1e 3f 02 a0 38 3f
       -0.7965663 0.29396078 0.61754376 0.7211915
000140 23 b3 1a be 94 90 5d 3f 57 15 34 bf 35 e6 f9 bd
       -0.15107398 0.86548734 -0.7034506 -0.12202112
000150 42 e6 75 3e 7f 95 b6 be 6a f3 07 be 64 f2 91 be
       0.24013618 -0.3566093 -0.13276449 -0.28505242
000160 00 77 c1 3e 8d c9 2c bf 80 ac dd 3e 9e 0d 06 3f
       0.37786102 -0.6749504 0.4329567 0.5236453
000170 7f 2a 49 3f 3b 17 a6 be 14 e6 6c 3e 7b de 5a 3f
       0.7858047 -0.32439598 0.23134643 0.8549573
000180 83 95 21 3e 82 57 0c 3f a0 0a 4e bf d5 6a 29 bf
       0.1577969 0.54821026 -0.8048496 -0.6617864
000190 e7 0d 68 3f d7 a2 15 bf 3a f5 21 bf 63 6f df be
       0.90646213 -0.584516 -0.6326481 -0.4363967
0001a0 40 28 4a bc 5a 66 62 3f 05 93 1f bf fc a5 2b 3f
       -0.012338698 0.88437426 -0.6233371 0.6705015
0001b0 2d 00 47 bf 82 a8 a7 be ae fd e1 be c7 39 03 3f
       -0.77734643 -0.3274575 -0.44138855 0.51260036
0001c0 25 c7 73 3f 12 6f 02 3f 1a c7 e6 be d9 94 20 bf
       0.95225745 0.5095073 -0.45073777 -0.62727123
0001d0 dd d9 95 be 7b 03 5f 3f 03 f9 0f 3d 7b 14 0d bf
       -0.2926778 0.87114686 0.035149585 -0.55109376
0001e0 5b 0f 4a 3f 46 af 42 bd 3c ef 6e be 7f e7 30 3e
       0.7892968 -0.047530435 -0.23333448 0.17275809
0001f0 eb 1f 8c 3d 52 63 ee be 10 c0 40 3f 48 0b 09 be
       0.06842025 -0.4656015 0.75293064 -0.1338321

model.2.weight f4 [128, 128]
000000 62 ab 9e 3c 53 3e c1 ba bc 91 a7 bd f2 10 73 3d
       0.019368831 -0.0014743306 -0.081820935 0.059342332
000010 1d c3 94 3d 89 2d 8f 3d b7 41 87 3d 1d 5a 1c bd
       0.072637774 0.06991107 0.06604331 -0.038171876
000020 84 f3 59 3d 14 74 34 bd cf 69 b0 bb 83 45 32 bb
       0.05321075 -0.044056013 -0.005383707 -0.0027202077
000030 a0 65 a5 bd 31 26 e4 bc 9d c5 17 3d 10 c9 46 3c
       -0.08076024 -0.027850242 0.037053693 0.012132898
000040 f4 84 50 bd fe cf d9 bb 96 2e 59 3d cb 82 79 bd
       -0.050908044 -0.006647109 0.053022943 -0.06091575
000050 71 7d 94 bd 45 df 05 bd 60 19 a1 bd 07 28 a9 3c
       -0.072504885 -0.03268363 -0.07866168 0.02064897
000060 d8 bf 50 bc 98 aa 81 3d 98 b6 92 3d 34 53 0c bd
       -0.012741052 0.06331366 0.07163733 -0.034259036
000070 37 0c 5e bd 65 55 4c bd 12 65 dc 3c d6 b6 56 3c
       -0.054210868 -0.049886126 0.026903663 0.013105115
000080 6f 56 0d bd d4 8a 26 3d cd 5d 5c bd 2f 95 96 bd
       -0.034506258 0.04065974 -0.053800393 -0.07352673
000090 02 5c 0f 3d b8 42 99 bd 53 a1 df bc 28 c4 92 bc
       0.034999855 -0.07483429 -0.027298605 -0.0179158
0000a0 5c 73 1c bd 40 10 6f bd cf e7 a2 3d 3e 4f 83 3d
       -0.038195953 -0.058365107 0.0795437 0.064115986
0000b0 c4 16 ca bb 2d 8c c1 3d 8b 1d 36 3c 3f 11 91 bd
       -0.0061672647 0.094505645 0.011115442 -0.070833676
0000c0 e9 d4 2c 3d 2e 76 9d 3c cb d8 1d bd c9 c0 8d 3d
       0.042195234 0.019221392 -0.038536828 0.069215365
0000d0 10 75 18 3d 2f 5a 69 3c 59 04 d8 3c 54 ae 9e 3d
       0.037221014 0.014242693 0.02636926 0.07748094
0000e0 a5 a9 07 b8 0c 29 a5 bd 3a ba 60 3c 8f 48 ad 3b
       -3.2344502e-05 -0.0806447 0.013716275 0.0052881907
0000f0 38 fa ad 3c d7 b8 ad bd 9a a8 60 bd 34 87 4d bd
       0.021237478 -0.08482521 -0.05484829 -0.050177768
000100 a4 0f 7a 3c db 96 ba 3c d6 0f bd 3d 94 87 ad 3d
       0.015262518 0.022777012 0.09231536 0.08473125
000110 d9 fd 6b 3d 03 3f b8 3b 62 4b 03 bd 82 65 91 bd
       0.057615135 0.005622746 -0.032054313 -0.07099439
000120 da fb 54 bd e3 94 e2 3c cc 51 bc 3c eb 14 ca bc
       -0.051997997 0.027658885 0.022988223 -0.024668178
000130 bd 7a b9 3c 16 30 17 3d f7 7f f6 3c 0c 9a 9b 3d
       0.022641534 0.036911093 0.030090315 0.075977415
000140 c9 15 35 3d d7 60 8d 3d 35 b0 f3 3c dc d2 19 bd
       0.04421023 0.06903236 0.029747108 -0.037554607
000150 2b 6f a5 3d 60 76 c5 3c ee e2 c8 bc 0f 38 5b 3c
       0.08077844 0.024104297 -0.024522271 0.013380065
000160 ad 8a 8c bd 9e 86 ae bd e4 fd 33 bd a0 80 5d 3d
       -0.06862388 -0.0852177 -0.0439433 0.054077744
000170 ac 57 8c 3c 57 a0 58 3d 9c 2d 0f bd 80 4d 0c bc
       0.017131649 0.052887287 -0.034955606 -0.008563399
000180 84 cf 2a 3c e8 3f 37 3c c0 39 f4 bc 19 7d 00 bd
       0.010425452 0.01118467 -0.029812694 -0.031369302
000190 02 ce 86 3d ad a0 a7 bd ef b8 0f bc 78 63 a2 bd
       0.065822616 -0.08184943 -0.008772119 -0.079291284
0001a0 c5 ef 2b 3d 3d 77 cb bc 21 5f 41 bd 1e b7 a9 3d
       0.04197671 -0.02483713 -0.047209863 0.0828688
0001b0 64 ca 0c bd f7 55 a8 bd 0f 7b 04 bd 69 74 f5 bc
       -0.034372702 -0.082195215 -0.03234392 -0.029962735
0001c0 b1 c2 78 3d b6 e6 ba 3c 1d d6 67 3d d8 93 b3 bd
       0.060732547 0.02281509 0.05660068 -0.08768433
0001d0 43 a5 b4 bd 94 ff b2 3d 60 54 36 bd e8 f9 3d bd
       -0.08820584 0.08740154 -0.04451406 -0.046380907
0001e0 e3 f2 8c bd 34 88 02 bd 29 3c 4e bc d9 d6 c7 bc
       -0.068822645 -0.031868175 -0.0125875855 -0.02439444
0001f0 aa 01 ed bc 27 e6 5b bd 8e 8b 06 bd f0 76 6f bd
       -0.028931458 -0.053686287 -0.032847933 -0.058463037
000200 80 3d 9d 3d d6 47 aa bd 70 4c 6c bc 8c e4 b8 bc
       0.07677746 -0.08314483 -0.014422521 -0.022569917
000210 a5 a6 b6 3c d6 62 73 3d e0 d8 64 bd 57 67 db bc
       0.02229626 0.05942043 -0.05587089 -0.026782675
000220 d2 1c 67 bd 45 2b 9a bd d3 4a 31 bd 7d 17 c1 bb
       -0.05642397 -0.07527784 -0.04328425 -0.0058926926
000230 63 f5 e2 3c 3e 35 89 3b 59 18 aa 3d be e9 8f bc
       0.0277049 0.004187255 0.08305425 -0.017567512
000240 9e 8d d7 3c 1c aa af bd 82 21 2f bc 35 f9 d8 3c
       0.026312646 -0.08577368 -0.010689141 0.026486019
000250 44 d3 99 bd b3 f4 39 3d 47 a8 64 bd 6d c4 17 bd
       -0.07510999 0.04539938 -0.055824544 -0.03705256
000260 c0 39 b5 3d d0 96 76 3d ee e0 62 3d 78 7d 2b bd
       0.088489056 0.06020242 0.05539029 -0.041867703
000270 91 a9 0f 3c 4f 5e 04 3c 48 1a 4c bd 1b 20 ad bd
       0.008768455 0.008079126 -0.04982975 -0.08453389
000280 8d b2 88 bd 9f 61 8e bc 42 20 3a bd 05 c2 0a ba
       -0.06674681 -0.017380534 -0.04544092 -0.00052931934
000290 18 6f 13 3d 95 8d 67 bd e2 b2 75 3d c9 06 23 3d
       0.03599462 -0.056531508 0.05998505 0.039801393
0002a0 a4 ed 9c 3d f4 2b 3b 3d d3 5b 97 bd 3d 8f 6a 3c
       0.07662514 0.045696214 -0.07390561 0.014316377
0002b0 ee d1 3c 3d 3e 00 66 3d 70 d5 8d 3d ab 07 90 3c
       0.046098642 0.056152575 0.069254756 0.017581781
0002c0 5a 2b b6 b9 ab a7 da bc 87 80 9a 3d 29 37 9c 3d
       -0.00034746045 -0.026691278 0.07544046 0.076277085
0002d0 0d cd 91 bd c2 94 0f 3c 2e c9 a3 bc c2 cd 57 3d
       -0.071191885 0.008763494 -0.01999339 0.05268646
0002e0 5b aa f7 bc 1d 05 a2 bd d9 3e 08 bd 7a 2d 66 3d
       -0.030232599 -0.079111315 -0.03326306 0.056195714
0002f0 b6 62 fa 3b c8 89 ff 3c 68 61 6f bd 64 97 57 bd
       0.007641162 0.031193629 -0.058442503 -0.05263461
000300 05 d7 54 3d 1c 35 58 bd 53 5d 34 bd 90 90 b2 3d
       0.05196287 -0.052785024 -0.044034313 0.08718979
000310 8c a5 22 3d 4c 9a 82 3b 56 8c a1 bd 8d 31 82 3d
       0.03970866 0.003985679 -0.07888095 0.06357107
000320 92 b2 d8 bc b5 fd 0e bb 78 31 21 3c b8 d6 83 3d
       -0.026452336 -0.0021818702 0.009838454 0.06437439
000330 db 6c 41 bd ed 33 23 bd 03 5d be 3b d5 11 ac 3d
       -0.047222953 -0.039844442 0.0058094277 0.08401839
000340 48 f4 5e bd 90 01 76 3d 4b 57 73 bd f3 19 b6 3d
       -0.054432184 0.060060084 -0.05940942 0.08891668
000350 a5 21 94 3d 1a f1 67 bc 6e 7d ab bd d9 51 78 bc
       0.0723298 -0.014156604 -0.08373533 -0.015156233
000360 2e 39 68 3d df 9b b6 bd 88 6a 17 3d 7c 09 a6 bd
       0.056695156 -0.08916449 0.03696683 -0.08107278
000370 cb ea 20 bc f0 cc ca 3c 35 c9 03 3d 8a 29 5f 3d
       -0.009821604 0.024755925 0.032174308 0.054482974
000380 b6 8d 98 bd b0 cd eb 3c 42 59 86 3d 15 e9 40 3c
       -0.07448904 0.028784603 0.06559993 0.011774321
000390 6b e1 99 bd c1 ac ca bc 6e c7 47 bd 1b 77 2a 3d
       -0.07513698 -0.024740579 -0.048774175 0.041617494
0003a0 d0 ac a8 bd 62 22 24 bd 6d ed e8 3c ef 52 01 bc
       -0.08236086 -0.040071853 0.028433526 -0.007893308
0003b0 e5 68 9a bc 6b 72 95 3d 26 a6 b1 bd 2a ea 0c 3d
       -0.018848846 0.07297214 -0.086742684 0.034403004
0003c0 64 98 ac bd ff f1 9c bc 85 a6 22 bd 7a 49 be bc
       -0.08427504 -0.019158361 -0.039709587 -0.023228396
0003d0 05 af 87 bc a8 e6 27 3d 55 42 5b bd 33 50 a5 3d
       -0.016562948 0.040991455 -0.053530056 0.080719374
0003e0 11 45 2e 3d 5c 74 65 bd e7 93 97 3d 33 da 18 bd
       0.042546336 -0.056019172 0.07401257 -0.037317466
0003f0 0a 22 71 bd 2e e0 a9 bc 54 c3 9b 3d 91 51 81 3c
       -0.058870353 -0.02073678 0.07605615 0.015785964

model.2.bias f4 [128]
000000 25 db a5 bc 71 62 92 3d 54 49 3d bd 13 b5 1b 3d
       -0.020246098 0.071476825 -0.04621251 0.038014483
000010 54 53 ba bc 83 a3 da bb 94 6a 6f bd 60 6d 27 bd
       -0.022744812 -0.006672324 -0.05845125 -0.040875793
000020 ed 78 a3 3d 9e 08 1c 3d 00 75 38 3d 91 d7 7f bd
       0.07982049 0.038094155 0.045033455 -0.06246144
000030 37 de 0c bd e6 29 7d bd a0 35 d0 bc 3c 37 fe 3c
       -0.034391608 -0.061807536 -0.025416195 0.031032197
000040 5a 64 ad bd 75 75 88 3d 4e 0b a5 3d c2 bb dc 3b
       -0.08466406 0.06663028 0.08058797 0.0067362497
000050 01 ef 97 3c 79 1d 8a 3d 1e eb f6 bc 70 2d 0e 3d
       0.018546583 0.06743903 -0.03014141 0.0347113
000060 55 2c 7d bd 93 af 93 3d 28 ac 94 3d 7a c7 8e bd
       -0.061809856 0.072112225 0.07259399 -0.06971641
000070 66 e4 22 3d 93 da 7f bc 10 38 9d 3d 4e 2f 1f 3d
       0.0397686 -0.015616077 0.07676709 0.038863473
000080 97 e7 55 bd d7 10 00 3c bf 0d c4 bb 2c 5e 61 3d
       -0.052222814 0.007816515 -0.005983084 0.05502145
000090 e3 57 e0 3b 63 e6 45 3c b4 50 05 bd 64 d3 9e bd
       0.0068464144 0.012078854 -0.032547668 -0.07755163
0000a0 01 3a 63 bd e4 6c 24 bd 3d 52 0b 3c 15 11 06 3d
       -0.05547524 -0.04014291 0.008503494 0.032731134
0000b0 d3 76 89 bc 6d fc 90 bd fb 41 53 bd 7d d7 d0 bb
       -0.016780293 -0.070793964 -0.051576596 -0.0063733445
0000c0 a4 49 4a 3d 86 37 68 3d 32 26 70 3d 33 2b a8 3d
       0.049386635 0.056693576 0.058630176 0.082113646
0000d0 63 fb b8 bc ae 57 8d bd 15 40 b0 bd c9 76 b3 3d
       -0.022580808 -0.06901489 -0.08605973 0.08762891
0000e0 89 38 8a bd 41 82 93 3d 45 e4 fc 3c d2 e8 8c 3d
       -0.067490645 0.07202578 0.030870566 0.068803445
0000f0 29 8a a3 bc 58 0d 77 3d 17 05 81 bd b7 8a 51 bd
       -0.01996334 0.06031546 -0.06299799 -0.05115768
000100 c9 31 99 bc 33 3a 64 3c 2d ed 74 3c c0 a2 c9 3c
       -0.018700497 0.013929891 0.014949125 0.024613738
000110 a3 42 88 bd 42 0e 20 3d e6 0a db 3c 15 1a 8d bc
       -0.06653335 0.039076097 0.026738595 -0.017224351
000120 2c a6 51 3c b9 e6 62 bd a2 40 49 3d f9 73 88 bc
       0.012795966 -0.055395816 0.049133904 -0.016656863
000130 2e 08 a2 bd 7d 3a f8 3c e4 58 0c 3d fb 9d 9d 3d
       -0.079117164 0.030301327 0.03426446 0.07696148
000140 88 5d 00 bc fb 53 68 bd 74 5a 65 3d 94 aa 52 bd
       -0.0078348 -0.056720715 0.055994466 -0.051432207
000150 54 38 2c 3d 40 b3 97 3d bc 9b 59 3d 5b 34 8b bd
       0.042045906 0.07407236 0.053127035 -0.067970954
000160 56 04 1b 3b 19 07 9e 3d bc 83 26 3d 27 40 83 bd
       0.0023653707 0.077161975 0.040652975 -0.064087205
000170 29 81 37 bd 21 87 97 3d 77 bb 34 3c 78 ca 07 bc
       -0.04480091 0.07398821 0.011031023 -0.008288018
000180 f2 77 c5 bc 61 03 b5 bd 79 07 82 bc 21 ac 67 3d
       -0.024105046 -0.08838535 -0.015872704 0.05656064
000190 73 cc ac 3d ce c4 97 bd 47 21 a7 bd b2 37 04 bd
       0.08437433 -0.074105844 -0.08160644 -0.032279678
0001a0 30 2d 47 3d 8b 2b 82 3d ae 34 a3 3c 9c b0 b8 3d
       0.04862708 0.063559614 0.01992258 0.090180606
0001b0 12 8b 35 3b da 8e ab bd 34 4e 1c bd 0c e2 a2 bd
       0.00277013 -0.08376856 -0.038160518 -0.07953271
0001c0 9e e9 72 3d cf fa 33 3d e4 ee 2d 3d 37 5c ff 3c
       0.059304826 0.04394036 0.042464152 0.031171901
0001d0 a4 3a 8b bd 10 bd e6 3c 53 9c 04 bd 82 c0 10 bc
       -0.06798294 0.028166324 -0.032375645 -0.00883496
0001e0 79 32 6f 3d 8f 1d 84 bd 48 57 5c 3c f4 1e 4a 3c
       0.058397744 -0.0645095 0.013448544 0.012336481
0001f0 01 ab c9 3c 77 29 cc bb 70 79 4a 3b 7b 53 9f 3d
       0.024617674 -0.006230529 0.0030895136 0.077795945

model.4.weight f4 [128, 128]
000000 a2 e2 05 bd a3 bf ab bd b1 fd 66 3c 89 02 18 3d
       -0.032686837 -0.08386161 0.014098571 0.037111793
000010 78 05 13 3d e5 77 90 3d 0a 6d 1e 3d 6d 4d d5 3c
       0.035893887 0.07054118 0.038678207 0.026037896
000020 3f 9a 78 bd 12 cf 8b bd df 34 a5 3d 45 c7 a6 3d
       -0.060693976 -0.06826605 0.08066725 0.081434764
000030 1c 46 41 bd 9a 8c 2b bd 2f 82 aa bd 09 74 ed 3c
       -0.047186002 -0.041882135 -0.08325612 0.028985994
000040 67 82 be bc 21 12 49 bd 1f 56 56 bd 20 d2 1c 3d
       -0.02325554 -0.049089555 -0.052328225 0.03828633
000050 33 4f ac 3c 87 71 a1 bd 6c 8e 13 3d 7b d7 d0 bc
       0.021033859 -0.07882982 0.036024496 -0.025493374
000060 91 5a 43 bd 84 62 bb bc 1d 4b ad 3d 61 07 22 bd
       -0.047693793 -0.022874124 0.08461592 -0.03955782
000070 21 0c 32 3d 42 ca dc bc d9 ff a5 bc ee f3 a2 3d
       0.0434686 -0.026951913 -0.0202636 0.07956682
000080 5b 9b 03 3d ff 69 0c 3c 00 7a b8 bb 8a 27 0f bd
       0.03213058 0.008570193 -0.005629778 -0.034949817
000090 64 f5 80 3d e1 72 a8 bc 64 fb 09 3d 9b 03 c4 3b
       0.062968045 -0.020562591 0.03368701 0.005981875
0000a0 81 ba 7c 3d 08 c0 a2 bd af cc 3c bd c8 b7 0b bd
       0.0617013 -0.07946783 -0.04609364 -0.034110814
0000b0 fa fb 76 bd 8c 7a 5e bd fc cf 8e bd 0f 6e db ba
       -0.060298897 -0.05431609 -0.069732636 -0.0016741174
0000c0 17 e9 5d bd 0b 53 45 3d 17 8f 35 3d 8e d9 07 3d
       -0.05417737 0.0481749 0.044325914 0.03316646
0000d0 ba 62 9a bd 31 44 95 3d 72 6a 8f bd 9c 0e 86 3d
       -0.07538362 0.07288397 -0.07002725 0.06545755
0000e0 79 06 3c bd ad 98 14 bd 10 46 83 3d e7 ae 89 bc
       -0.04590461 -0.036278415 0.06409848 -0.016807033
0000f0 1a c3 3d 3b 1d 61 61 bd d3 8e 8d bd dc f9 63 bc
       0.00289554 -0.055024255 -0.06912007 -0.013914552
000100 c2 3e 39 bd a4 4b 14 3d cf 21 12 bb cd d5 4e 3d
       -0.045225866 0.03620495 -0.0022297984 0.050496865
000110 71 84 98 3c d7 e5 09 bd f9 ad 62 bd 9f d0 e1 3c
       0.01861784 -0.033666458 -0.055341695 0.027565299
000120 4b 0c 7b 3d 04 9f d5 3c c2 ed de ba 6b 84 8e bd
       0.06129102 0.026076801 -0.0017008113 -0.069588505
000130 9d f5 55 3d 2b 5a b5 3d 16 e8 30 3d 48 49 c6 3c
       0.05223619 0.08855089 0.043190084 0.024204865
000140 a0 46 92 bd 23 fb 8f bd fa b6 aa bd fd 40 8e bd
       -0.07142377 -0.070303224 -0.08335681 -0.06945989
000150 49 54 ae bd b5 e5 a4 3d 66 de b2 3d e2 96 bb bd
       -0.0851217 0.08051626 0.087338254 -0.09159638
000160 a2 45 9a bd 3b 2f 8e bd 84 a7 08 bd a6 42 3e 3c
       -0.07532813 -0.06942602 -0.03336288 0.01161257
000170 3d 8c 72 bd e9 9d 9e 3d 8d d2 9e 3d 94 a4 65 bc
       -0.059215773 0.07744963 0.07755003 -0.014016289
000180 80 35 0e 3d d9 c6 24 3d 45 06 0c bd 14 a9 1e 3d
       0.03471899 0.0402287 -0.034185667 0.038735464
000190 c2 7d 89 bb 13 24 14 3d 92 e2 3e bd f9 b5 25 3c
       -0.0041958997 0.036167216 -0.046602793 0.010114186
0001a0 b9 de 90 bc 93 c9 2c bd 39 1d 4e bd ff 20 37 bd
       -0.017684327 -0.042184424 -0.050320838 -0.044709202
0001b0 b2 9e 97 bd 52 b1 b0 3d d0 5b 14 bc 99 15 e3 bc
       -0.074033156 0.08627571 -0.009055093 -0.02772026
0001c0 9c e0 66 bc 0e 7b 2b bd a6 c0 5b bd 49 b0 0d 3d
       -0.014091637 -0.0418654 -0.05365052 0.034591947
0001d0 fd fd 85 bd 78 ef 93 3d 61 ca e3 3b c7 02 52 3d
       -0.06542585 0.072234094 0.0069516157 0.05127218
0001e0 f1 ea 85 bd 51 12 1f bd 51 80 2a bd 3f 8c db bb
       -0.06538952 -0.038835827 -0.04162628 -0.0067000682
0001f0 46 21 9b 3d 4c 15 9f 3c 19 6c 92 bd 85 f4 24 3c
       0.07574706 0.019419335 -0.07149524 0.010068064
000200 d4 6a b0 bd 29 6d 20 bd 46 e2 b3 bd 2f db e9 bb
       -0.08614126 -0.039166603 -0.087833926 -0.0071367244
000210 e0 c4 81 bd fa 86 2d bd 41 f4 30 3d 69 3a 95 3c
       -0.06336379 -0.04236505 0.04320169 0.018216329
000220 4f d0 a4 3d b8 56 0b 3d 4b 8a 39 bc 0c eb 9d bd
       0.08047544 0.03401825 -0.0113244755 -0.07710847
000230 2b 1c 4d bd cf 9d d7 3c 8a 63 88 3d 7f 07 20 3c
       -0.05007569 0.026320366 0.066596106 0.009767412
000240 75 2d 8c bd ef fb 10 3d 68 dc a1 3c 79 cd 16 bc
       -0.06844608 0.035396513 0.019758418 -0.009204262
000250 4c aa 49 bd 47 fb 7f bd 5d 99 b4 3c f5 7b 8e 3b
       -0.049234673 -0.062495496 0.022045786 0.004348273
000260 cd 2d a8 bd bd d9 9e 3c b5 5f ad bd f6 1b 4e bd
       -0.08211861 0.019390935 -0.0846552 -0.050319634
000270 d6 77 80 bd f5 8e 9c 3d df 1e b3 3d 36 f3 72 bd
       -0.06272857 0.076444544 0.087461226 -0.059313975
000280 44 00 4a 3d 9f 6d 67 bd 48 0d d5 3c 47 de a6 3c
       0.04931666 -0.056501027 0.02600731 0.020369662
000290 d2 7d 42 bd 16 0d 9e 3d ed b1 6b bd 86 ac 97 bc
       -0.047483273 0.0771734 -0.05754273 -0.018514883
0002a0 8f 73 a5 bd 40 ce 66 bb 1c fd 6b 3d c2 8c 97 bd
       -0.08078682 -0.003521815 0.05761443 -0.07399894
0002b0 61 da b5 bc 33 87 b2 3d 79 73 5f 3d 7f 42 1a 3d
       -0.022198858 0.087171935 0.054553483 0.037661072
0002c0 87 01 9e 3d 16 bd 93 3d 83 58 8c 3d 93 76 80 3d
       0.07715135 0.072138 0.0685282 0.06272616
0002d0 51 fb 89 bd ea 31 9c 3c 41 6d 0a 3d 83 e5 80 3d
       -0.06737388 0.01906677 0.0337956 0.06293776
0002e0 fb 9b ba 3d 1a 0f 98 3d b6 e4 55 3a 1b 63 27 bd
       0.09111782 0.074247554 0.0008159386 -0.040866
0002f0 8a f4 22 3c 34 e8 8c 3c 37 dc 06 3c bf 4e 8f 3d
       0.009945998 0.017200567 0.008231214 0.069974415
000300 7b d8 b0 3b 09 dd c0 3c 37 47 6f bd 9f 7b 79 ba
       0.0053969002 0.023542898 -0.058417525 -0.0009517017
000310 0a 0c 1c 3d 6a dd 8a bd 84 63 b5 bc b9 a2 81 3d
       0.03809742 -0.06780513 -0.02214218 0.06329865
000320 fd e0 07 bd 11 9e 79 3d d9 1b 08 3d 0d 4a 90 bd
       -0.03317355 0.06094176 0.033229683 -0.07045374
000330 42 73 e7 3b f7 1b e1 3c 2e b6 a1 3c d3 5a 70 bd
       0.0070633003 0.027479155 0.01974019 -0.058680367
000340 e1 78 e2 3c 78 b1 78 bd 8d 94 c4 bb b3 46 14 3c
       0.02764553 -0.060716122 -0.005999154 0.009050059
000350 c3 1b 97 bc 0e c3 80 bd e5 cb 86 3d 40 13 86 3d
       -0.018445855 -0.06287204 0.065818585 0.065466404
000360 8e 23 af 3d b7 37 9b 3d 59 8d 79 bd 4c 6e c0 3c
       0.085517034 0.07578986 -0.060925815 0.023490094
000370 a5 f7 a9 bb 41 ca 27 3c af 2f 8b 3c c8 2b 85 bb
       -0.005186992 0.010241092 0.01699051 -0.004064057
000380 b4 16 ae 3d 57 67 86 3d c0 45 d9 bc cf 28 7a 3d
       0.08500424 0.06562679 -0.026522517 0.061074074
000390 d2 d4 73 3d c3 c6 58 bc b5 be ce 3c 5b 79 79 bd
       0.059529133 -0.013230982 0.02523742 -0.06090675
0003a0 03 5c 70 3c 22 1b 73 3b 45 1c 85 bd 0f aa 24 bd
       0.014670375 0.003709503 -0.064995326 -0.040201243
0003b0 a6 6b 61 3d b4 37 e5 bc 89 18 9f bd 96 96 89 3c
       0.055034302 -0.027980663 -0.077683516 0.016795438
0003c0 80 bc b8 bd b3 4c 99 3b ef eb 8c 3d d9 0d ca bc
       -0.090203285 0.0046783327 0.06880938 -0.024664806
0003d0 3e f3 85 bd 76 6f 2e bd cf 47 7b bd d2 5a 3d bd
       -0.065405354 -0.042586766 -0.06134778 -0.04622919
0003e0 b5 6c 98 3d 7f 10 36 3d f0 8a a6 bc 72 25 39 bd
       0.07442609 0.044449326 -0.020329922 -0.045201726
0003f0 08 c6 86 3b 5c e9 37 3c 48 30 87 3d ad 29 4a 3d
       0.0041129626 0.011225071 0.06601006 0.04935615

model.4.bias f4 [128]
000000 05 33 20 3d 30 cb a5 3d 97 b6 bc bc 95 4a 80 3d
       0.039111156 0.080953956 -0.023036284 0.062642254
000010 ce 28 71 3d 40 4c bc 3c 5b 13 03 3d c9 3b 31 bd
       0.058876805 0.022985578 0.03200088 -0.043269906
000020 7f 7b e8 3b 93 57 3c 3d 10 c1 98 3d da 5d c3 bc
       0.0070948 0.045981955 0.07458699 -0.023848463
000030 8c 36 2f bd fc 99 3b 3d 57 5b a8 bc d4 65 a2 3d
       -0.04277663 0.045801148 -0.020551367 0.079295784
000040 5a 6b 09 bd a4 7b b5 3d e4 38 e7 bc cc eb d2 bc
       -0.033549644 0.08861473 -0.02822537 -0.025747202
000050 33 cb 83 bd 5a 34 35 bd 88 9a 23 3d 39 f2 51 bc
       -0.064352416 -0.04423938 0.039942294 -0.012814098
000060 8e 4e ad 3d 09 de 90 3d 0c ed 39 bd a1 c1 72 bd
       0.08462249 0.070736 -0.04539208 -0.05926669
000070 63 55 39 3d 5d fd aa bd 36 64 48 bc 1a 9a 88 bc
       0.045247447 -0.083491065 -0.012230923 -0.016675044
000080 b2 d3 12 bd 9d 82 80 3d 54 fe 5e bc ea 90 bc bd
       -0.03584642 0.062749125 -0.013610441 -0.09207328
000090 79 d6 b6 3c de c2 a2 bd 84 b3 1d 3d 68 e6 70 bc
       0.022319065 -0.07947324 0.038501278 -0.014703371
0000a0 29 1d 59 bd 23 ac 8d bd 4b 28 bd 3b dd 5e 8d 3d
       -0.053006325 -0.06917598 0.0057726256 0.06902859
0000b0 3c 0c 93 bd 3a 09 1d 3d ee f6 89 39 2e 76 a1 3d
       -0.07180068 0.038338877 0.00026314653 0.07883869
0000c0 b0 1a ab 3b 86 4f bb bb f9 7a 67 bd 1f a1 79 3d
       0.0052216873 -0.005716267 -0.05651376 0.060944673
0000d0 a8 b8 a6 bd f7 07 29 3d a4 f8 05 3c e7 37 31 bd
       -0.08140689 0.04126736 0.008176956 -0.043266203
0000e0 12 b0 b5 bd 83 d0 d3 bb 84 f1 8a 3d 71 14 44 3d
       -0.08871473 -0.0064640655 0.06784347 0.047871057
0000f0 f6 db 16 3d 7a fd 1e bd fa 63 9a 3c 73 09 1d 3d
       0.036830865 -0.038815953 0.0188465 0.03833909
000100 05 c7 a6 3d 56 2e 88 bd 77 f0 f1 3a 36 54 9d bd
       0.08143429 -0.06649463 0.0018458505 -0.076820776
000110 e4 58 a0 bd 87 95 25 bd b3 fc 8e 3d d1 ca b9 bd
       -0.078294545 -0.040425804 0.06981792 -0.09071887
000120 b4 23 10 bd b4 06 88 bd 90 78 a4 bc b4 e9 b0 bd
       -0.0351903 -0.066419035 -0.02007702 -0.08638325
000130 d1 60 a8 bc 9b 36 ab bd e7 34 b4 3c 6c 25 8f bd
       -0.020553978 -0.083600245 0.021997882 -0.069895595
000140 d5 f9 51 3d ab 44 0f 3d 4a 99 17 bc c4 83 af 3d
       0.05126365 0.034977596 -0.009252856 0.08570054
000150 27 07 a1 bd 88 34 0a bc 57 78 45 3b 82 3e 31 bd
       -0.07862692 -0.008435376 0.0030131543 -0.043272503
000160 f1 5b 0f 3d 79 2e 0a bd 82 f3 84 3d 28 6f 4e 3d
       0.03499979 -0.033735726 0.06491758 0.050398976
000170 fd f6 4b 3d bf 19 98 bd bd 00 fd 3c 49 da c0 3d
       0.049796093 -0.07426786 0.030884141 0.094166346
000180 11 05 a4 3d e8 18 a0 bd d6 36 a9 bd d9 c1 28 bd
       0.08008779 -0.078172505 -0.08262412 -0.041200493
000190 89 2e 86 3d 76 71 99 bd 2a 56 83 3b d2 a3 54 3d
       0.065518446 -0.07492344 0.0040080743 0.051914044
0001a0 e4 3d 6d bc 86 b8 34 3b 79 b9 80 bc 1a 7e 52 3d
       -0.014480088 0.0027575805 -0.01571344 0.05138979
0001b0 a5 79 7a bb f1 93 ce 3c 97 35 c0 3b ae 7c 9b bd
       -0.0038219478 0.025217028 0.0058657634 -0.0759214
0001c0 80 cc 9b 3c 9e e6 34 3c e0 d9 94 3d 68 89 9a 3c
       0.019018412 0.011041312 0.07268119 0.018864349
0001d0 04 7f 80 bd d6 6a 5e 3d e0 83 4b 3d c0 29 b2 3d
       -0.06274226 0.054301105 0.049686313 0.086993694
0001e0 b6 a3 be 3d ca 8a f6 3b f2 58 39 3d 9a 0c 53 bc
       0.09308569 0.007523869 0.04525084 -0.012881422
0001f0 7b 7e 96 3c 54 d7 7a 3d 52 4b 82 3d b0 62 a5 3d
       0.018370857 0.06124051 0.063620225 0.08075464

model.6.weight f4 [128, 128]
000000 92 16 97 bd 21 14 74 bd 1c 13 02 3d 83 66 0a 3d
       -0.07377352 -0.05958951 0.031756505 0.03378917
000010 07 c3 03 3c 95 27 7e bc db 08 94 bb d6 df 61 3d
       0.008042104 -0.015512367 -0.004517657 0.055145107
000020 20 79 04 3c 34 56 07 3d 88 23 8c 3b dd c5 25 3b
       0.008085519 0.033041194 0.0042766966 0.0025294938
000030 36 34 60 bd 9b 2a 8c bd 16 b1 97 bd 92 0d 2a 3d
       -0.054737292 -0.06844064 -0.07406823 0.041516848
000040 18 ba 61 3a 19 11 a7 bd 3d e0 b7 bc 6b 59 6d bc
       0.0008610799 -0.08157558 -0.022445792 -0.014486651
000050 f1 af 20 3d 23 95 ed bc 30 c5 81 3c fc 6a 42 3d
       0.03923029 -0.029001778 0.015841097 0.04746531
000060 a3 c4 34 3d e0 49 ad 3d 06 77 b9 3d e1 e2 16 3d
       0.04413284 0.08461356 0.09055905 0.036837462
000070 e0 ba 8f 3d 6e 56 8d 3d 41 3d b8 3c 64 83 58 3d
       0.070180655 0.06901251 0.022490146 0.05285968
000080 e7 78 a2 3d 65 5c df 3c 24 f4 79 bd c5 9a ab bd
       0.079332165 0.027265737 -0.061023846 -0.08379129
000090 17 53 82 3d 79 03 87 3d c2 dc 78 bd 66 d7 89 bd
       0.063635044 0.06592459 -0.060757406 -0.06730537
0000a0 2a e6 18 bd a9 c5 8e bd 50 9f 2b bd 81 57 95 bc
       -0.037328877 -0.069712944 -0.04189998 -0.018230202
0000b0 57 00 6c 3d 42 37 de 3c e2 9d b6 bd 81 2e 44 3d
       0.05761751 0.027125958 -0.089168325 0.047895912
0000c0 2a 10 4a 3d b2 f3 3b 3d 64 7e 47 3d 31 ec b4 bc
       0.04933182 0.045886703 0.04870452 -0.022085281
0000d0 29 a7 d3 3b 35 55 9c 3d 98 a7 57 3d f5 07 ce 3c
       0.006459136 0.076334395 0.052650064 0.025150279
0000e0 4f ff 69 bd f6 3d 41 3d 95 b4 41 bd 0e 05 90 3d
       -0.057128247 0.04717823 -0.047291357 0.07032214
0000f0 62 71 3f bd 1e fc 22 3d a9 3e 52 3d b0 4d 44 bd
       -0.04673899 0.03979122 0.05132929 -0.04792565
000100 12 d1 ab 3d b7 7d 94 3d 9f 0b 0f bd e4 bd 05 bd
       0.08389486 0.07250541 -0.034923192 -0.032651797
000110 61 30 cf bc 44 93 9a 3d 32 ca 2e 3d 03 59 08 bd
       -0.025291624 0.0754762 0.042673297 -0.033288013
000120 da c3 e0 3c b6 99 9e bd c6 83 a7 bd bb fe 9a bd
       0.02743714 -0.07744162 -0.08179431 -0.07568117
000130 44 4d 1f 3d 75 c9 12 3d 18 6f e1 bc f6 ac 1c bc
       0.038892046 0.035836656 -0.027518794 -0.0095627215
000140 c7 06 e0 bc 0f fe e8 3a 13 91 b1 bb 93 f0 97 bd
       -0.027346982 0.0017775911 -0.0054189055 -0.07418933
000150 a5 6c 6a 3d c4 b5 8f 3d 06 1c aa 3c 9f c7 bd bd
       0.057232518 0.07017091 0.020765316 -0.0926659
000160 59 17 80 3c 42 a9 64 3d f5 1b 84 3c 30 d4 8a 3d
       0.015636133 0.05582548 0.016126612 0.06778753
000170 31 6e 2a 3c 00 7c c4 bd dd 53 4a 3d e4 ec 88 3d
       0.010402248 -0.095939636 0.049396385 0.06685808
000180 5e 57 a5 3d ba 67 7c bd ae f0 50 3d f7 69 27 3d
       0.080733046 -0.06162236 0.05101078 0.04087254
000190 f8 cf 84 bd 24 1e 9f bd 08 6c 43 bd 3a 61 99 3c
       -0.064849794 -0.07769421 -0.04771045 0.018723119
0001a0 d3 07 21 3b 69 a4 4b 3d 97 7d b2 bd 25 32 8a bc
       0.0024571314 0.04971734 -0.087153606 -0.016869614
0001b0 84 a4 a0 bd 24 ca 3d 3d 2b b2 80 3d 23 4a 9c 3c
       -0.07843879 0.046335354 0.06283983 0.01907832
0001c0 b9 09 88 bd 75 30 2c bd 37 47 19 3c fd b1 ae bd
       -0.066424794 -0.0420384 0.009355358 -0.08530042
0001d0 ad 3c ab 3c e3 42 68 3d 29 75 b0 bd ca 12 46 3d
       0.020902956 0.056704413 -0.086160965 0.048357762
0001e0 a3 18 b4 3d da fc a0 bd 3e 80 07 bd fa c1 d5 bb
       0.087937616 -0.078607276 -0.033081286 -0.006523368
0001f0 4b fb a0 bd 00 79 1f bd 61 8b ff bc f5 d9 a7 bd
       -0.0786043 -0.038933754 -0.03119439 -0.08195869
000200 89 d5 45 3d 22 90 aa 3d 64 4a ba 3d 79 1e a0 3d
       0.048299346 0.083282724 0.0909622 0.07818312
000210 30 c3 b9 3d c1 d0 52 bd 10 52 5e bd b4 37 88 bd
       0.09070432 -0.051468614 -0.05427748 -0.066512495
000220 1a f0 96 3c 81 4d 30 bd bb f2 de 3c 39 1b 21 bd
       0.018425036 -0.043042663 0.027215352 -0.039332602
000230 09 ed 95 bd 08 02 bd 3b 9b fc 7b bd 5a 3e 0d 3d
       -0.073206015 0.0057680644 -0.0615202 0.03448329
000240 3b 34 dd 3c 31 64 36 3d a1 e0 4c bd f7 24 bd 3d
       0.027002444 0.044529144 -0.05001891 0.09235566
000250 63 4f 18 bd a0 2c 9c 3c a7 c5 b2 bc fb 02 4b bc
       -0.037185084 0.019064248 -0.021822764 -0.012390847
000260 55 e8 48 3c a7 ae 21 3d 82 07 bb 3b 10 ae e6 3b
       0.0122624235 0.039473202 0.005707682 0.007039793
000270 f1 32 14 bd cf cf 24 bd 60 c5 85 3d 0f ea 48 3a
       -0.036181394 -0.040237244 0.06531787 0.0007664272
000280 61 86 92 bc 49 fc 67 3d a6 f8 b2 bd 6a da c8 bc
       -0.017886342 0.056637082 -0.08738832 -0.02451821
000290 40 83 81 bd 87 6f 06 bd 66 22 49 3c ef 0e 83 3d
       -0.06323862 -0.032821205 0.012276268 0.06399333
0002a0 d1 35 6d bd 13 22 7d bd 99 c4 3d 3d dd 22 80 bc
       -0.05791265 -0.061800074 0.04633007 -0.015641624
0002b0 8b 85 ad 3d 21 76 91 3d dc 7e 02 b9 b2 8c ed bc
       0.08472737 0.071026094 -0.00012445025 -0.028997753
0002c0 df 4b 05 3d e6 25 22 39 24 da bc 3b 84 a8 b3 3d
       0.03254306 0.00015463642 0.005763309 0.08772376
0002d0 0c f5 a1 bd d6 3b 78 bd 93 ec 10 bd ba 50 1f bd
       -0.07908067 -0.06060394 -0.035381865 -0.038895346
0002e0 c4 53 ae bc 56 ee 06 bd ad ce 95 3c 0b 3e 81 3d
       -0.021280177 -0.03294214 0.018287027 0.06310662
0002f0 08 fc 46 bd af 88 59 3c 50 74 07 3c e1 4e a0 3d
       -0.0485802 0.013277217 0.008267477 0.07827545
000300 a5 5d 57 3b b7 4e c4 bd a4 9e ad 3d b3 b6 a5 3c
       0.0032862213 -0.09585326 0.08477524 0.02022872
000310 94 f5 71 bd 6c 6a 82 bd 4e b1 f5 bc 85 5e 21 bd
       -0.059072092 -0.063679546 -0.029991772 -0.03939678
000320 e2 1c 8c 3d 89 51 87 bd 85 6c 85 3b eb 6c 10 bd
       0.068414465 -0.066073485 0.0040717744 -0.035260122
000330 a4 2b 86 3d 57 40 8c 3d 1b 40 2a bd a4 69 65 bc
       0.065512925 0.06848209 -0.041565042 -0.0140022375
000340 4c c3 50 bc 0e c3 38 3d cc 93 9e bd 67 d9 89 bc
       -0.012741875 0.045107894 -0.07743034 -0.016827298
000350 2e 8e 4f 3a bd ca 0c bc 91 d1 7a bc 6d bd 13 3c
       0.000791761 -0.008593258 -0.015308754 0.009017331
000360 a9 15 a1 bc a4 55 94 3d 11 c2 a6 bd c9 86 4f 3b
       -0.019663649 0.07242897 -0.08142484 0.0031666032
000370 13 c4 b4 39 50 a6 38 bd 4e 07 86 bd 66 66 2c bd
       0.00034478362 -0.045080483 -0.06544362 -0.042089842
000380 38 bf 89 3c 82 7c b4 bc 6a fd ca 3c b4 29 d6 3c
       0.016814813 -0.022032026 0.02477904 0.026142932
000390 7c d9 0b 3d 79 f7 70 3c 1c d4 0e 3c ee 7b a5 3d
       0.034142956 0.01470744 0.008717563 0.08080278
0003a0 82 d2 4b 3d df 66 3f 3b b4 24 45 bd 00 e2 24 bd
       0.049761303 0.0029205603 -0.048130706 -0.040254593
0003b0 8f 3e 82 bd db 4c 61 3d 21 c6 57 3d d7 f9 32 bd
       -0.06359588 0.055004936 0.052679185 -0.043695297
0003c0 46 ca 13 bd 25 54 a0 bd 2e ec d7 bc 74 f1 98 3d
       -0.036081575 -0.07828549 -0.026357736 0.074679285
0003d0 ba e6 93 bd 75 ea 10 3d 8d a2 a3 3d f4 1f 7c bc
       -0.07221742 0.035379846 0.079899885 -0.015388478
0003e0 b9 6d 38 3d 26 99 b3 bd 88 46 8b bd 45 f2 f8 bc
       0.045026515 -0.08769445 -0.06800562 -0.03038896
0003f0 4f 1a 81 bd 86 91 ec 39 ee eb da bc 5a 49 14 bc
       -0.06303846 0.0004512185 -0.026723828 -0.0090506915

model.6.bias f4 [128]
000000 4f 64 4b 3d e3 d8 81 bd 0f 86 97 bd 0b f1 01 3c
       0.04965621 -0.06340196 -0.073986165 0.007931004
000010 f9 d0 86 bd a0 fd a1 bd a9 0a ae 3d 1e 51 df bb
       -0.06582827 -0.07909703 0.08498127 -0.00681509
000020 65 9a ab bd 02 86 9c 3c 25 31 88 3d fe af 6c bd
       -0.08379058 0.019106869 0.066499986 -0.057785027
000030 e8 6a 23 3b 04 08 29 3d 39 a1 a7 bd b0 5f 94 3d
       0.0024935547 0.04126741 -0.08185048 0.072448134
000040 ac 6e db 3b 2d 7d 96 3c 6f d4 d1 bb 8c 4b d2 3c
       0.0066965427 0.018370235 -0.006403498 0.02567079
000050 e7 8b e5 3c f0 fb c1 3c 1c 51 bb 3c 1d a8 6c bc
       0.028020812 0.023679703 0.022865824 -0.014444378
000060 2e ad b7 bd 52 93 5e 3d ab 61 4e bc dc ba 1d bd
       -0.08968578 0.054339714 -0.012596528 -0.03850828
000070 9c 8e 6f 3d f7 48 85 bc 16 b7 9d bd 66 d4 2b ba
       0.058485612 -0.016270144 -0.077009365 -0.0006554782
000080 4d 6a 58 3d cd 76 57 bd 7d ad 95 3a a7 9c 9f 3d
       0.05283575 -0.05260353 0.0011419501 0.07793551
000090 60 b8 af bd 0d 96 62 bd 05 7b a3 3d bf fe 5e 3d
       -0.085800886 -0.05531888 0.079824485 0.054442164
0000a0 15 5f 88 bd 52 90 8f 3d 8f 0a a4 3d 24 05 4d bd
       -0.066587605 0.07009949 0.080098264 -0.05005373
0000b0 d9 25 5c bc 0c 9f 55 bd 3b 73 a7 bd 0b 72 6b 3d
       -0.013436758 -0.052153632 -0.08176275 0.057481807
0000c0 e6 8e 68 3d 17 7e 93 3d 5c 69 51 3a 80 1c 57 3d
       0.056776904 0.07201784 0.0007988417 0.052517414
0000d0 71 0d 76 3d 7a 02 6e 3b 12 be 1a 3c da 44 7b 3d
       0.060071412 0.0036317394 0.00944473 0.06134496
0000e0 da 5a 96 bd ee 2c f2 bc 07 9f 95 bd 25 cd bb bd
       -0.07341547 -0.02956244 -0.07305723 -0.091699876
0000f0 37 1b be 3d d8 05 95 bd d5 a2 6b 3d 37 01 92 38
       0.092825346 -0.07276505 0.057528336 6.962049e-05
000100 16 a8 9b 3d af d5 82 bd 6e 4f 4e bd 1f 7c f2 3b
       0.07600419 -0.06388413 -0.05036872 0.0074000503
000110 34 4d a7 bd d9 0c 89 3c 71 bb c1 bc 0f 96 9e bd
       -0.08169022 0.016729759 -0.02364895 -0.07743465
000120 3a 8d ab bd d7 e8 2f ba 5f 67 a3 bd a7 5b 66 3d
       -0.08376546 -0.0006710416 -0.07978701 0.05623975
000130 a8 a8 63 bd b9 27 48 bd cc f9 b9 3d 96 cc b4 3d
       -0.055580765 -0.048866007 0.09080848 0.08828084
000140 c3 f6 38 3d c8 7c a3 b9 28 1b 59 bd 3e 45 84 bd
       0.045157205 -0.00031182752 -0.053004414 -0.064585194
000150 18 cb b9 bd 22 42 ba 3d 37 59 2d bd 56 2a 33 3d
       -0.0907194 0.09094645 -0.04232141 0.043741547
000160 1c cc 82 bc 32 e7 90 bd 62 d7 b4 bd 90 d6 9b 3d
       -0.015966468 -0.07075347 -0.088301435 0.07609284
000170 d2 76 4a 3d 8d 59 3e 3d b9 db a2 3d 15 7a b8 3d
       0.049429722 0.04647212 0.07952065 0.0900766
000180 e7 af 53 bd 81 01 98 3d a8 c2 70 3d fa 48 5d bd
       -0.051681425 0.07422162 0.05877939 -0.054024674
000190 40 c7 a6 3d 15 fe be bd 7c 2e 45 bc 75 e7 84 bc
       0.08143473 -0.09325806 -0.0120350085 -0.016223649
0001a0 00 37 53 bd 74 b9 72 bc fa 72 90 bc cd 23 38 bd
       -0.051566124 -0.014814723 -0.01763295 -0.044956017
0001b0 b7 54 a9 bd 55 ba 97 bd d8 a2 be 3c 69 cc 99 bd
       -0.08268111 -0.07408587 0.02327101 -0.07509691
0001c0 6a 59 71 bd a7 3d 23 3d 7c c0 a1 bc 13 c5 9d bd
       -0.058923163 0.039853718 -0.019745104 -0.077036045
0001d0 cb f7 07 3d df a8 44 bd f1 d2 3b bd 61 88 09 3d
       0.0331953 -0.04801261 -0.045855466 0.033577327
0001e0 ac d1 83 3d e8 38 09 bd 51 1e 08 bd fd 0e 4b 3a
       0.06436476 -0.033501536 -0.033232037 0.0007746069
0001f0 b9 ac 4b 3d 2e 24 b4 3d d7 2e 31 bc 29 30 90 3d
       0.049725268 0.08795963 -0.01081439 0.07040436

model.8.weight f4 [128, 128]
000000 dc 46 48 3c ba 20 3e bd 09 b1 b1 bb eb af 6e bd
       0.012223925 -0.04641793 -0.0054227156 -0.058273237
000010 7a c2 b6 bc 6b 17 10 bc 3f 83 0f 3d c0 d4 66 3d
       -0.02230953 -0.008794646 0.035037275 0.056355238
000020 d5 36 ab bd 5f 60 b3 bd b9 73 42 bd 87 ed 6a 3d
       -0.08360068 -0.08758616 -0.047473643 0.05735543
000030 e4 eb 73 3d ae cd 69 bd ef 6c 77 3d 80 1a 58 3d
       0.059551135 -0.057080917 0.06040662 0.052759647
000040 7d dc 95 bd 67 11 85 bd aa 39 6b 3c 87 8c a1 bd
       -0.073174454 -0.0649746 0.01435701 -0.078881316
000050 95 08 86 bb 45 b6 b3 3d 4c 94 a3 bd 3f f4 80 bd
       -0.0040903785 0.087749995 -0.0798727 -0.06296586
000060 4c 00 d4 3b 2a f6 6e 3d a2 e8 43 bd 48 4b 50 3d
       0.006469762 0.05834023 -0.047829278 0.050853044
000070 33 2e b8 bc bb d9 55 bc 56 19 a2 3d f1 fc 46 3d
       -0.022482967 -0.013052399 0.07914989 0.048581067
000080 72 fd 02 3d 66 6e d6 bc dc b3 92 3d 90 c1 28 3d
       0.031979986 -0.026175689 0.07163212 0.04120022
000090 6b ee 99 bd f6 73 8e bd 04 37 d4 bc a3 e0 87 bd
       -0.07516178 -0.069557115 -0.02590514 -0.06634643
0000a0 9f 76 6b bd 1d 08 41 bb c0 e7 9e 3d 34 6f a7 3d
       -0.057486173 -0.0029454299 0.077590466 0.08175507
0000b0 f6 e1 fa 3c f9 4e 1a bc 99 5a c4 3d 65 30 a3 bd
       0.030625325 -0.009418243 0.09587593 -0.07968215
0000c0 ea 96 23 bd 93 77 14 bd e3 bb 72 bd 6f 18 92 3d
       -0.039938845 -0.036246847 -0.059261214 0.071335666
0000d0 a9 72 c6 bd f6 ad 81 bd 66 f6 e7 3c 58 4c 0c 3d
       -0.096898384 -0.063320085 0.028315734 0.034252495
0000e0 8b 78 b0 3d 8f 4b 3a 3d 5d 5c b7 3d df 51 45 3d
       0.08616742 0.045482215 0.08953164 0.04817378
0000f0 d0 5c 10 bb 34 a6 86 3d c2 a4 73 3d b9 aa 98 bd
       -0.0022027977 0.065746695 0.059483297 -0.07454438
000100 f8 56 3e 3d 82 c6 53 bc b2 d1 3a bc 78 6f 0c bd
       0.04646966 -0.012925746 -0.011402534 -0.034285992
000110 73 d2 5e 3d c8 e8 19 bd 7a a7 6c 3d 4e 6c 17 bd
       0.05439992 -0.037575513 0.057776906 -0.03696852
000120 2d 08 b0 bd 5e 87 24 3d 6d aa cb 3d ab f9 6b bd
       -0.085953094 0.04016816 0.099446155 -0.05761115
000130 27 8f 8d bd d1 e7 a1 bd a4 d4 3f 3d cd 5c 98 3c
       -0.0691207 -0.079055436 0.04683365 0.018598938
000140 96 bd 9c 3b 2d 49 ca bb 45 e5 a0 bd 2a 5b 91 bd
       0.0047833426 -0.006173274 -0.0785623 -0.07097466
000150 c8 48 a7 bb 44 cb 5c 3d 35 e7 af 3c 08 e9 25 bd
       -0.0051051117 0.053904787 0.021472553 -0.04050544
000160 b6 13 59 3d 10 9a fb bc 62 04 21 bc d5 47 29 3d
       0.052997313 -0.030713111 -0.009827705 0.04132827
000170 40 16 93 bd b3 84 90 3d 27 0a 7c bb 67 29 98 bd
       -0.07181978 0.0705656 -0.00384582 -0.07429772
000180 34 a2 2d bd af 79 b8 bd 05 d4 fa 3b 1c 82 5f 3c
       -0.042391017 -0.09007584 0.007654669 0.01364186
000190 b6 fb 2a 3d 90 eb 0e 3b a9 fa e8 3c 34 71 4c 3d
       0.041743957 0.0021807887 0.028439837 0.049912646
0001a0 74 af a1 3d ec d9 6e bd 35 70 87 bd 18 fe 6a bc
       0.07894793 -0.058313295 -0.06613199 -0.014342807
0001b0 82 71 96 3c 65 5a fd bc 1f 28 4b bc fa 4b 94 3d
       0.018364672 -0.030926893 -0.012399702 0.07241054
0001c0 39 67 03 3d 2f 6e 05 3d 91 c3 e8 3b 49 66 85 bd
       0.032080863 0.032575782 0.0071033915 -0.0651365
0001d0 1e e2 ce ba 66 53 60 3d d0 ee 81 bd 3c 62 5e bc
       -0.0015783941 0.054767035 -0.06344378 -0.013573226
0001e0 70 a5 85 3d e0 a9 91 bd f1 1d a5 3d 1f 8c 4c 3c
       0.06525695 -0.07112479 0.080623515 0.012484579
0001f0 01 bb a8 3c b0 78 7b bd 3c ff b4 3d 65 51 de 3c
       0.020596983 -0.061394393 0.088377446 0.027138421
000200 f0 65 a2 bd 1d 99 b1 3c 78 f0 80 3d 54 a9 a1 3d
       -0.07929599 0.021679455 0.06295866 0.07893625
000210 5b 95 55 bd f6 04 86 3c ed 2a 8f 3d 47 3b 99 bc
       -0.05214439 0.016359787 0.06990609 -0.018705023
000220 19 c3 62 3d bd f3 45 bd 2c bc d8 bc 33 77 f4 3c
       0.05536184 -0.04832815 -0.026456915 0.029841995
000230 f4 2b a2 3d ff 24 8e bd d5 93 c9 3d a7 1f b6 bd
       0.0791854 -0.0694065 0.0984265 -0.08892756
000240 f3 d5 ab bd 62 f5 3b bd c5 de 7d bd 86 46 39 bd
       -0.08390417 -0.045888312 -0.061980028 -0.045233272
000250 31 2d 90 bd ca 58 38 bd e5 cb ce 3c 0f 42 8f bd
       -0.070398696 -0.04500655 0.025243709 -0.069950216
000260 ea 26 d4 3c 30 55 3a bd 85 2c b4 bd fd da ab bd
       0.025897462 -0.045491397 -0.08797554 -0.08391378
000270 d2 53 60 bd 98 92 16 3c 7d f4 b9 3d 2c ce 67 3d
       -0.054767437 0.009190224 0.090798356 0.056593105
000280 bd 7f b6 3c d0 b8 23 bc 0b cc 36 3b 50 62 08 3c
       0.022277707 -0.009992793 0.0027892615 0.008324221
000290 a6 a0 33 3d 5d 9f 0c bd 8c 03 6c bc f9 b9 b8 bc
       0.04385438 -0.03433167 -0.0144051425 -0.022549616
0002a0 f8 a9 40 bd 67 6f ca bc 37 4b 8d 3d b2 b1 2a 3a
       -0.047037095 -0.024711324 0.06899112 0.0006511464
0002b0 d7 a1 9e 3d 08 be 72 3d bf b4 16 bd ef af 81 3d
       0.07745712 0.05926326 -0.036793467 0.06332385
0002c0 8a b3 8d bd 07 78 47 3d 3e 5c 01 bb e3 83 54 3d
       -0.0691901 0.04869845 -0.0019738819 0.05188359
0002d0 a2 8b ab bc 0b 4f 98 3d eb 74 b7 bd 12 90 3c 3d
       -0.020940606 0.07436951 -0.08957847 0.046035834
0002e0 1d 12 ed 3c bc 83 a3 bc 9f e8 51 3d be 9b b0 bc
       0.028939301 -0.019960277 0.051247235 -0.021558639
0002f0 3f b7 39 bd c5 d0 e7 3b 0b b5 6f 3d a7 8f 24 3d
       -0.045340773 0.007074448 0.058522265 0.04017606
000300 38 d8 33 bb 1c 5a 61 3d b1 9b c5 bb df 0a 7c bd
       -0.002744211 0.055017576 -0.0060305228 -0.061533805
000310 13 9c 65 bd d7 0e 99 bd bc 0f de 3c ca 3d a2 3d
       -0.056057047 -0.074735336 0.027107112 0.079219416
000320 7f f0 28 3d 7d 0b 84 bc 71 cc 6c 3d df 6b af 3d
       0.04124498 -0.01611876 0.057812158 0.08565497
000330 d3 ae 99 bd 1a 2d 9c bd 15 bd a3 bd dc 1b b4 bc
       -0.07504048 -0.0762579 -0.07995049 -0.02198594
000340 b7 3c 5f 3d 3d 65 7b bc df 08 83 3d 92 07 97 bd
       0.05450126 -0.015343961 0.063981764 -0.07374491
000350 6f f1 59 3d d3 2a cf 3c a2 c7 80 bd b4 f6 91 bd
       0.053208765 0.025288975 -0.06288077 -0.07127133
000360 84 dc 16 bc 16 51 05 bd da 26 99 bd 30 61 91 bd
       -0.009207848 -0.032548033 -0.074781135 -0.07098615
000370 a9 d3 02 bb 41 07 93 bc 33 26 8c bd c4 11 7d bd
       -0.0019962585 -0.017947795 -0.068432234 -0.06178452
000380 0b 1d 41 3d 5a 77 94 3d 1b f3 be bd fb 1b 27 3d
       0.04714684 0.07249327 -0.093237124 0.04079817
000390 93 70 9c 3d 48 b1 bf 3d 95 97 4c 3d ae 64 52 bd
       0.07638659 0.093599856 0.049949247 -0.051365547
0003a0 01 ef 55 3c bb 97 99 3d ff 92 a7 bb 18 47 9d 3b
       0.013057471 0.074996434 -0.005113959 0.004799735
0003b0 0f 2a a6 bd fc 5c 66 3d cb 98 82 3d 25 bd 34 3d
       -0.08113491 0.05624102 0.06376799 0.044125695
0003c0 78 b9 8b bd 00 05 56 3c 24 9f 64 bc fb cc b1 bd
       -0.06822485 0.0130627155 -0.013953958 -0.08681675
0003d0 1b d7 8f 3d d8 54 b0 3c 5e ba 0f 3d 23 c4 b2 bd
       0.0702345 0.021524832 0.035089843 -0.08728816
0003e0 35 8e cf 3b 39 a0 e4 3c 53 d6 70 3d 05 f6 94 bd
       0.006334091 0.027908431 0.058798146 -0.07273487
0003f0 68 b2 89 bd ea 88 9b bd a9 3b be 3d dd 9c dc ba
       -0.067234814 -0.07594474 0.09288723 -0.0016831417

model.8.bias f4 [128]
000000 e1 97 b8 bc 36 d6 f1 ba cf b2 a8 3d 83 cf ba 3d
       -0.022533359 -0.0018450681 0.0823723 0.09121611
000010 80 67 84 3d 40 a1 89 bd b0 0e 99 3d f2 53 02 3d
       0.064650536 -0.06720209 0.074735045 0.031818338
000020 d6 35 d9 bc fd 99 c0 3c 58 d7 59 bd df 4b 54 3d
       -0.026514929 0.023510927 -0.053183883 0.05183017
000030 fc 12 0c bd 5f 22 74 3d 96 2a 59 bd 80 e0 ad bd
       -0.034197792 0.05960309 -0.05301913 -0.084900856
000040 a3 cc 3b 3d b0 8c 6e 3d 5c eb 8d bd b5 8d 88 3d
       0.045849454 0.05823964 -0.06929657 0.066676535
000050 ae 8f be 3c 76 bc 91 bd 67 19 91 3d da 83 b3 bd
       0.023261871 -0.07116024 0.07084923 -0.08765383
000060 8f 72 84 bd 5b 47 5b bd 7c f5 3e 3d 4e b3 3a 3c
       -0.06467163 -0.053534847 0.04662083 0.011395289
000070 f6 e2 df 3c 50 04 7f bd fa 0b b9 bd e0 a1 9d bd
       0.027329903 -0.062259972 -0.090354875 -0.07696891
000080 d5 39 61 3b a2 f7 96 bd d2 da 74 3d 6c ae 7f 3d
       0.0034366746 -0.07371451 0.059778996 0.0624222
000090 31 f9 28 3d ee 50 a7 3d 4b 7d 43 bb 04 24 8b 3d
       0.041253272 0.08169733 -0.002982932 0.06793979
0000a0 97 52 1b 3d ab dd 19 3d cf 83 2b 3d d2 1b 87 b9
       0.03792056 0.037564915 0.04187375 -0.00025769934
0000b0 9f 17 5e bd eb f6 3e 3d ab e5 8d bc 5b 60 98 bd
       -0.054221746 0.046622198 -0.017321428 -0.07440253
0000c0 66 7d 19 3d ce a4 af bc 13 9b b1 bd e1 c4 99 bd
       0.037473105 -0.02144089 -0.08672156 -0.07508255
0000d0 b9 45 5d 3d f0 f2 0e 3d d6 e5 20 bc 2f 0e 08 bd
       0.05402157 0.034899652 -0.009820422 -0.03321665
0000e0 ef 4c 9f bc e6 71 4e 3d 1a 6e 7f bd f4 4a 2c 3d
       -0.019445864 0.05040159 -0.06236086 0.04206367
0000f0 cb 49 2f bd 1b 41 c1 3c 7e 90 aa 3d 8b 12 8f 3d
       -0.042794984 0.023590615 0.08328341 0.06985959
000100 ef cc fe 3c 62 fc 3a bd c4 c7 48 bc 7d 29 bc bc
       0.03110358 -0.045650847 -0.012254659 -0.022969002
000110 7d 79 79 3d 68 73 88 3d f8 d5 fb bc d8 12 ab bd
       0.060906876 0.06662637 -0.030741677 -0.083532035
000120 36 ec 61 3d 15 bc 9f 3d 6f 38 40 3d c5 e3 9f 3c
       0.05515691 0.07799546 0.04692882 0.019517789
000130 b3 a5 1a bd 3b ae d4 bc 26 c5 1f 3c 05 61 ba bc
       -0.03775568 -0.025961986 0.009751594 -0.02275134
000140 8a 04 38 3d a3 9a 29 3d a2 eb 7f 3d 18 00 4b 3d
       0.044926204 0.04140724 0.062480576 0.049560636
000150 15 0e 95 bd 62 f7 ab 3a dd 66 9e bd 2e ba d8 bb
       -0.072780766 0.001311999 -0.07734463 -0.006613991
000160 2f 69 3d 3c 69 f1 67 bd 64 ab e6 3c 6b 7b d8 3c
       0.011560722 -0.05662671 0.028157897 0.026426038
000170 c7 96 5a bd fe 84 ae bd c1 a4 bb 3d 3e 9a 03 bd
       -0.05336645 -0.0852146 0.09162284 -0.03212952
000180 87 9d ea 3c 16 87 7f ba bd 4d 58 bd 86 5d 21 bd
       0.028639568 -0.00097476074 -0.052808512 -0.03939583
000190 78 03 27 3d 49 da 5c bd e4 d4 69 bd 51 1d 72 bd
       0.040774792 -0.05391911 -0.057087794 -0.05910999
0001a0 47 c4 6b bd a8 24 c3 bd 01 09 c2 bd dd 71 4d 3b
       -0.05756023 -0.09528476 -0.094743736 0.0031348385
0001b0 50 f8 6b bc 03 f5 99 3d c5 2b a5 bd a5 2c 5f bd
       -0.014402464 0.075174354 -0.08064989 -0.054485936
0001c0 40 a0 97 bc 45 55 72 bd 0c 5a 81 3c 5a 5e 48 bc
       -0.01850903 -0.05916335 0.015790008 -0.012229526
0001d0 1f 40 b5 3d 3f d1 8a bd 66 2f 67 bd de e0 c1 bd
       0.08850121 -0.06778192 -0.056441687 -0.09466718
0001e0 d0 2e 43 3d 0d b8 8c 3d 61 c4 75 bc 69 37 aa bd
       0.047652066 0.068710424 -0.015000434 -0.0831135
0001f0 e5 b5 91 bc d8 64 92 3d e2 c8 f9 3c f4 92 62 bb
       -0.01778693 0.07148141 0.030491296 -0.0034572454
