experiments/dispersion_pinn.pth (torch, 940940 bytes, 35 tensors)

model.0.weight f4 [128, 1]
00000000: 8a27 c7be 4693 c0be 9a94 02bf 2069 76bd
00000010: 156f b9be b92e de3d bc31 28bf b2d2 943e
00000020: 75fb cf3d a98b f4be 77fa fcbe a451 0ebf
00000030: f75d 1abf a669 a13e 542d babd 057f 0e3e
00000040: 6250 66bf 7068 d63d 4dac 4e3e 2157 1a3f
00000050: 21bb 62be 433c 08be ac1d ad3e e84f f83e
00000060: bdf4 4abc 32be 623e 12d5 443d 80ff 74be
00000070: 3c3f 3bbf b1c6 ab3e ad85 093e 3944 14bf
00000080: 3d91 ebbe 4b93 1fbf 2195 4cbe 8dea 753f
00000090: b4ee 873e 1d54 2abf f58f 333f cdda 01bf
000000a0: f029 0abf 07f2 013e bdc7 3fbf 290f 70bf
000000b0: 3586 9bbe e0c5 d9bd 9539 34bf 9c8f cc3e
000000c0: 2882 8dbe eb35 c7be 9873 7c3f 6f76 533f
000000d0: a1d0 053e 471e 6cbf 64f9 57bd 964a dd3e
000000e0: 473a 03be df95 59bf 9494 1cbe 1407 57bf
000000f0: 5af7 c53e 7206 06bf 3ecc 45bf 19cb 213f
00000100: e432 2a3d 8239 e1be 6123 8abe 9f13 ed3e
00000110: a401 363f e39e 52be 25ec 92be b84f 1c3f
00000120: a15d 2abe a13e 42be 0c26 093e de31 21bf
00000130: ce2f 7a3f 8f9f 393f 0903 9d3e b7ee 2bbf
00000140: 4738 3fbf 913b 4bbf c96e 4ebe 0360 76bf
00000150: bd93 36bf eecd 21bf 048f 56bf ad34 0dbf
00000160: 652e 3d3f 20f8 323f b14e b3be 4fd9 51bf
00000170: 796e 383f 8f78 22bf 633b dfbe bb32 4abf
00000180: e82f e03e 7000 723f d969 71bf 65b0 34bf
00000190: fa92 023f 6b76 1c3f c523 753e 1db7 e2be
000001a0: 261f 4d3f 2159 9bbe 19c4 01bf 97fb 9cbe
000001b0: 7d79 c33e 7c52 29bf ccee 773f c7cb 11bf
000001c0: 60c6 3b3f 60d1 0cbf ca96 b93d 47a6 1dbf
000001d0: 6579 9a3e 5ddf 573f 87db c73e 0731 073f
000001e0: fa90 5ebf 5a48 74bf 1685 5a3f 7cfd 443f
000001f0: ace4 0cbe 7be9 86bd f055 2abf 55cf 143f
-0.38897353 -0.3761236 -0.51008 -0.06015885 -0.3621756 0.108487554 -0.6570089 0.29066998
0.101553835 -0.47762802 -0.4940984 -0.55593324 -0.6029963 0.31525916 -0.09090677 0.13915642
-0.89966404 0.104691386 0.20182915 0.602892 -0.22141697 -0.13304238 0.338117 0.48498464
-0.012387452 0.22142866 0.048054762 -0.2392559 -0.73143363 0.33550027 0.134299 -0.579166
-0.46009246 -0.62334126 -0.19978763 0.9606102 0.26549304 -0.66534597 0.70141536 -0.5072449
-0.5397024 0.12689982 -0.7491415 -0.9377313 -0.3037583 -0.10633445 -0.70400363 0.39953315
-0.27638364 -0.38908324 0.9861388 0.8260259 0.13067867 -0.922337 -0.05272807 0.43220967
-0.128152 -0.8499431 -0.15291053 -0.83995175 0.38665277 -0.52353585 -0.77264774 0.6320053
0.04155244 -0.43989187 -0.26980117 0.46304032 0.71096253 -0.20568423 -0.2869579 0.6105914
-0.16637279 -0.18969204 0.1339342 -0.62966716 0.97729194 0.7250909 0.30666378 -0.67161125
-0.7469525 -0.79387766 -0.20159449 -0.9624025 -0.7131918 -0.6320485 -0.83811975 -0.551585
0.7389892 0.6990986 -0.35020974 -0.8197221 0.7204357 -0.6346521 -0.43599996 -0.7898366
0.4378655 0.9453192 -0.94302136 -0.70581657 0.5100552 0.6111819 0.23939426 -0.4428033
0.80125654 -0.30341437 -0.50689846 -0.30660698 0.38178626 -0.66141486 0.9684875 -0.56951565
0.7334957 -0.5500698 0.09061964 -0.61581844 0.30170742 0.843252 0.39034674 0.52809185
-0.86939967 -0.954229 0.85359323 0.76949286 -0.13759106 -0.065875016 -0.6653738 0.58128864

model.0.bias f4 [128]
00000000: e2ea 36bf 254a 093f 6ffe e1be faa1 cbbe
00000010: 078b acbe ba26 a0be 1a05 40bf 20e0 373f
00000020: 1433 5b3e 7f56 53bf ab8e 903e 9e48 fdbe
00000030: a62d 1fbf 3658 48bf 7275 7f3e 0a94 243d
00000040: 7d4a 413f dad6 423f 1721 5e3f af75 24bd
00000050: dcda 7ebf fb72 583f 7b90 753e 834a bb3e
00000060: 1120 953e 647b be3e 94d6 673f b92e 5fbd
00000070: df21 403f ffc1 a1be bfcf f6be 59fc 7d3f
00000080: df74 6bbf a8c1 36bd 5016 673f aec3 00be
00000090: e461 babe 0362 3ebf 2c33 3c3f c7b9 003e
000000a0: c1f4 313f 3dce 913e 4444 c93e b447 ddbe
000000b0: f217 d5be ac27 ca3d de5a 5b3f 167e 43bf
000000c0: 787b 083f 48ba 183e 10ae 2d3f de16 c4be
000000d0: 4379 d5be 138a 243f 85da 3abf 60d0 633f
000000e0: f191 a9be d0dc 07bd 7671 463f ed65 7b3f
000000f0: a251 743f cdd9 2a3f a550 15bf 6830 863d
00000100: e5c3 573e 5940 473f 5403 533f b162 6fbe
00000110: 6135 233f 4d0d 163e 9324 313e c647 4d3f
00000120: f298 1a3f af12 dcbe 6f64 733f 4a5c 9fbe
00000130: a6be ea3c 3f0d 633f 8009 f2be 8ec3 57be
00000140: 131c 76bd 8928 3c3f 23fa 36be 8795 643f
00000150: 3d9e 69be abd5 7b3e 5797 10bf ecaa a9be
00000160: 3077 683f 3840 df3e fb5c 263f 1c54 24bf
00000170: d4b1 3d3f 8265 5e3f dc4e 3ebe f72a 633e
00000180: b284 0b3e cb7e 533e 97aa 373f bf9f 46bf
00000190: bdba 5ebf e6d2 783f 02b1 97bd e210 f73e
000001a0: 6419 7cbf 149a e23e a77d 26bf b703 643f
000001b0: a059 07bf a628 793f d3e7 713f 4265 e0be
000001c0: 4231 2e3f ab56 0a3f b24b c83e b3c4 06bf
000001d0: 1bcb 35bf 7781 623f 870e 703f 17d3 5fbf
000001e0: fb4b 42bf ded8 933e a9a9 f93d e1e4 cf3d
000001f0: ff3a 383f 262e 63be 084a 683f 6896 75bf
-0.7145215 0.5362876 -0.4413943 -0.39772016 -0.3369982 -0.31279546 -0.75007784 0.7182636
0.21406204 -0.8255386 0.28233847 -0.49469465 -0.6217903 -0.782596 0.24947146 0.040180244
0.75504285 0.7610909 0.8676924 -0.040151294 -0.995527 0.84550446 0.23980896 0.36580285
0.29126027 0.37203515 0.90561795 -0.054487918 0.75051683 -0.3159332 -0.48205373 0.99213177
-0.91975206 -0.04461828 0.9026842 -0.12574646 -0.3640281 -0.74368304 0.7351558 0.12570868
0.6951409 0.2847766 0.39309895 -0.43218768 -0.4161983 0.09870848 0.8568553 -0.76364267
0.533134 0.1491481 0.67843723 -0.38298696 -0.41694078 0.64273185 -0.72989684 0.8898983
-0.33119157 -0.033169568 0.7751688 0.982024 0.9543706 0.6673859 -0.5832618 0.065522015
0.21070822 0.7783256 0.82426953 -0.23377492 0.63753325 0.14653511 0.17299108 0.8018764
0.60389626 -0.42983004 0.95075125 -0.31125098 0.028655361 0.88692087 -0.47272873 -0.21070692
-0.060085367 0.7349935 -0.17868857 0.8929066 -0.2281427 0.24593227 -0.56480926 -0.33138216
0.90806866 0.43603683 0.64985627 -0.6419084 0.7409947 0.8687364 -0.1858477 0.22184359
0.13624838 0.20653836 0.71744674 -0.77587503 -0.8700369 0.97196805 -0.074068084 0.48255068
-0.98476243 0.44258177 -0.6503548 0.8906817 -0.5287113 0.9732765 0.9449436 -0.43827254
0.6804391 0.54038495 0.3912025 -0.5264389 -0.7101304 0.884788 0.93772167 -0.8743147
-0.75897187 0.28876394 0.12190563 0.10151077 0.7196502 -0.22185573 0.9073796 -0.95932627

model.2.weight f4 [128, 128]
00000000: 09f3 623d bf93 3d3d d4c1 653d 6fa2 a8bd
00000010: 0d74 313d 087a 573d fa81 bd3c eea7 c5bc
00000020: bcfe 863d 749c 1bbc 605e 35bd bf96 533d
00000030: 7dfd 74bb 4907 b8bd 2f45 973d 2398 dbbc
00000040: 4209 4ebc 2465 8cbc 68a0 91bd 271b 903d
00000050: 85ce 113d c5aa 9e3d 02d1 3f3d a179 f43c
00000060: 0a30 a4bd b636 d8bc 89dd 603d 33c3 7d3d
00000070: ca62 f9bb ae99 a63d 5bbe 9abd 8794 fc3b
00000080: a86b 54bd c759 113d a01b aa3d 78ca 483d
00000090: e498 10bd b09b 9b3d 1ec5 7ebd 9eeb 9cbd
000000a0: 4980 f43c 90e9 febb d191 7d3c 5571 06bd
000000b0: abd9 4c3d a484 203c 388c 59bd a5b9 3abd
000000c0: 5271 6f3d 930d e0bc f71c a13d db57 923d
000000d0: e336 ab3d 14fc 433d 8426 103d bd8f 27bd
000000e0: ccb2 cf3c 12fa 21bd 1142 0f3d 7696 383d
000000f0: 7965 d2bc 6154 e1bc 14ba afbd 6917 1f3d
00000100: cc5e 9fbd a24b 4a3d 9a12 893d 0632 903d
00000110: 9eb2 a8bd 52a3 20bc f255 abbc 1496 f7b9
00000120: 7653 95bc 5d24 523d cfe8 863d 4255 afbb
00000130: a429 b1bd d906 6abd a4f0 d53b 9846 e13b
00000140: defb b53c 3e96 53bc e094 603d 3ad2 7fbd
00000150: c4dc 38bd 9dc8 d33c 635e 443c 4543 563d
00000160: 0ace 5d3d 7082 103d 9f4d 1a3d a16f 883d
00000170: 238b 4dbb 1bc9 08bd 0aaf 61ba ca4a 9b3d
00000180: 7dba 03bd 11f3 6ebd c184 313d 570e 95bd
00000190: 8631 5c3c 12f2 f03c 33cf 4abd 86b4 a7bd
000001a0: e03d 8bbd 6223 b0bc 53f9 ec3c 1658 5a3d
000001b0: 49af 403d 365e 4fbd 24a6 923b 3aa1 3c3d
000001c0: 8e18 0fbd 1437 143d 4ea5 853d 85b3 8dbd
000001d0: 5f3b 61bd 59e6 e3bc 8954 49bd 690a 18bd
000001e0: e44f 3f3d a711 33bd a3f6 30bd 1e06 ecbc
000001f0: 9458 193d d967 50bc cda2 203d d9ff 60bd
00000200: ff93 793d fa7c f8b9 3a0d fd3c b7fc 32bd
00000210: c53f 543d e442 153d a4a4 3abd 4471 733c
00000220: 5832 8cbd 721d 99bd 5521 053d 27f7 793d
00000230: 5b7c 5c3d 2398 9cbb 4b6b 393d ac5e 263d
00000240: 5952 cfbc af26 273d 344d ccbc 3169 173d
00000250: 3f5c b9bd 84d0 0fbc 60ab 72bd 21dc 80bb
00000260: 3d80 b53d 3f9a 2ebd 496d a33c 35aa b3bd
00000270: 9477 ff3a 7454 4d3d 773f c83c b56e 2a3d
00000280: b168 d43c 4c10 e7bc a54b 62bd b576 333d
00000290: 73e2 89bd 955c 333d 795a 17bd e8dc abbd
000002a0: 1384 db3b 2a86 013d 61fe a03d 6735 6dbc
000002b0: 704d 5e3d ac0c 92bd 2b4e 91bc 5b36 393d
000002c0: b48e b2ba 15fd 563d fa40 2dbb 1050 c43c
000002d0: 5b14 29bd 23a2 b1bd 8e83 da3c f2e0 3dbd
000002e0: 60be a03a bf31 eb3b 0d98 143d fe4e 793c
000002f0: 2ca6 e23c bc1f 83bd 6dfd b93c c5d8 8ebd
00000300: 3482 063c 3a23 1fbd 121c 9f3d acfa ab3d
00000310: 6148 54bd 19bc b5bd ced1 f43c 5185 283d
00000320: f957 aebd a21f c53c c055 97bd f86f 56bd
00000330: 9d7b 54bd 693a 813c 728c b93c 232c a5bd
00000340: d6b3 3bbd ba6a 993d fbf3 a13d 6804 debc
00000350: 52fc 093d 7825 953d 0806 61bd a01a 56bd
00000360: e424 463c bd87 e33c b3c0 0fbd ac06 7239
00000370: 49d9 44bd 902f 573d 3941 7f3d c624 4c3d
00000380: 2443 9fbd c357 55bd e357 acbd aa99 fb3c
00000390: 4787 adbc 1e88 ebbc 2226 153c 0a5d 9fbb
000003a0: 9cb4 a53b 64ad ef3c 4e64 4b3d 0d1d 3abd
000003b0: d9dd 9abb 9006 85bd 4aa9 69bb 3e3b aebd
000003c0: 3450 c23b 8de8 973d 0bb9 5dbd 22be 9dbd
000003d0: 3b76 dcbb e59f 05bd e876 143b e170 76bd
000003e0: ce5a 4f3d eca4 023d 9d4b a33d 011b 04bd
000003f0: fcf0 a83d 5eb6 093b 73c2 94bc b267 bc3a
0.055407558 0.04628348 0.056093052 -0.08234107 0.043323565 0.052606612 0.023133267 -0.024127927
0.065915555 -0.009497751 -0.044279456 0.051657435 -0.0037382536 -0.089857645 0.073862426 -0.026805943
-0.012575449 -0.017138071 -0.07110673 0.07036429 0.035597343 0.077474155 0.046830185 0.029843153
-0.08016975 -0.026393276 0.054898772 0.061953735 -0.0076106535 0.08134781 -0.07555839 0.0077081355
-0.05186048 0.03548601 0.0830605 0.049021214 -0.035302058 0.075980544 -0.062199704 -0.07662128
0.029846327 -0.0077793077 0.01547666 -0.032822926 0.05001227 0.009797249 -0.05311224 -0.0455872
0.05845768 -0.027350223 0.07866853 0.07145663 0.08360078 0.047847822 0.03519298 -0.040908564
0.025353812 -0.039545126 0.034975115 0.045065366 -0.025683152 -0.027506055 -0.085804135 0.038840685
-0.07781753 0.049388535 0.06693001 0.07040791 -0.082371935 -0.009804564 -0.020915005 -0.00047223328
-0.018228274 0.05130421 0.065873735 -0.0053507397 -0.086505204 -0.057135437 0.0065289307 0.0068748705
0.022214826 -0.0129142385 0.05482948 -0.062456347 -0.045132414 0.025852496 0.011985394 0.052310247
0.054151572 0.035280645 0.03767168 0.066619165 -0.003136345 -0.033394914 -0.00086091517 0.07582624
-0.03216027 -0.058337275 0.043339495 -0.07278126 0.013439542 0.029412303 -0.049514007 -0.08188729
-0.06798911 -0.021501247 0.02892748 0.05330666 0.047042165 -0.050626956 0.004475372 0.046052195
-0.034935527 0.03618534 0.0652567 -0.06919006 -0.05498826 -0.0278198 -0.049152885 -0.037119303
0.04670705 -0.043718006 -0.04320396 -0.02881151 0.03743799 -0.012720072 0.03921776 -0.054931495
0.060932156 -0.0004739536 0.030890096 -0.04369804 0.051818628 0.036440745 -0.04556717 0.014858548
-0.0684554 -0.074763194 0.03250249 0.06102672 0.053829532 -0.0047788783 0.04526834 0.04061763
-0.025307821 0.040808376 -0.024939157 0.036965553 -0.09050798 -0.008777741 -0.059245467 -0.0039324914
0.0886235 -0.04262757 0.019949572 -0.08772699 0.0019490593 0.05012937 0.024444325 0.041609485
0.025928827 -0.028206013 -0.05524792 0.04381438 -0.06732645 0.043789465 -0.036951516 -0.08391744
0.006699094 0.03162209 0.07861019 -0.014478064 0.05427307 -0.07131323 -0.017737469 0.045217853
-0.0013622851 0.05248745 -0.0026436434 0.023963958 -0.041279178 -0.08673503 0.026674058 -0.046357103
0.0012263767 0.007177561 0.03627782 0.015216587 0.027667128 -0.06402537 0.02270385 -0.06974939
0.008209754 -0.038851954 0.07769026 0.08397421 -0.05182684 -0.088737674 0.029885199 0.041142765
-0.08512873 0.024062935 -0.073894024 -0.052352875 -0.0518757 0.015774922 0.022649977 -0.08065059
-0.0458258 0.074910596 0.07907864 -0.02710171 0.033687897 0.07282537 -0.054937392 -0.052271485
0.012093756 0.027774686 -0.03509588 0.00023081404 -0.04805878 0.052535594 0.06231806 0.049839757
-0.07776478 -0.05208565 -0.084152006 0.030712921 -0.02118267 -0.02875143 0.00910333 -0.004863386
0.0050569307 0.029257484 0.049656205 -0.04543786 -0.0047261533 -0.06495392 -0.0035653883 -0.08507393
0.005929971 0.074174024 -0.05413155 -0.077022806 -0.0067279614 -0.03262319 0.0022653881 -0.060166243
0.050623707 0.031895563 0.079734065 -0.032252315 0.08249089 0.002101324 -0.018159127 0.0014374165

model.2.bias f4 [128]
00000000: 8992 113d ecdf 873d 0b49 4a3c 00d6 513d
00000010: 1e40 293d e797 adbd b50c abbd 43ae fa3c
00000020: 5941 543d 40b9 04bd 1f96 85bd 00d8 83bd
00000030: 9d3e f23b 11a3 26bd 8eaa 93bd 921f 5cbd
00000040: 27a1 83bd e7e1 fdbb 2672 143d 5be4 703d
00000050: 760a 333d 7a66 873d 0f04 963d c291 f4ba
00000060: 0933 1c3d ee7a 89bd 6574 863c 8069 99bd
00000070: 7ee7 2c3d 4c00 903d 5123 45bc 63d7 543d
00000080: cf29 0c3d 38d2 ee3c 462a 88bd 87bc 9cbc
00000090: c66f 80bd 595e 6b3d 9121 0d3d eddc 7e3d
000000a0: a8e5 d33c 0990 113d 10fc 1f3d 5059 c43c
000000b0: 3241 62bd ddc2 033d 010f b2bb c669 4bbd
000000c0: be54 26bd 0e45 883d 4a20 713d ae59 243d
000000d0: 5644 b43d 225b ee3b 6366 febc bd55 493c
000000e0: feb7 973d aec6 823d a07b aabd 1e54 8abb
000000f0: 16cf 3bbc 69bd 60bd eb88 10bc 0885 b93c
00000100: 32a4 81bd ab8f 2cbc da4a 07bc 47db 0a3d
00000110: 25fb 80bd 1dfe 86bd 4824 2fbd 5d1d 853c
00000120: fad7 373c e546 9d3d 85ee 8abd 2794 6e3d
00000130: 0ee9 04bd ea07 1c3d 06be a93d 6c85 2dbd
00000140: eff3 72bd 43e5 8a3d 0309 93bd d6e8 f7bc
00000150: 12a9 f93b 4c0c 973d 3c60 b73d 513c 8d3d
00000160: 4532 253c a74b 073d 8184 323d 6efc d4bb
00000170: 6a8d a23d aa87 9cbd e2af 433d e84d 67bc
00000180: 62d2 5c3d 76d4 d1bc 106a 55bc 227f 28bd
00000190: 2f07 473d 30a7 1b3c 42b2 98bd 8a7d ff3c
000001a0: 7b1f 3f3d 4780 7f3d 9f6d 203d 71f9 77bd
000001b0: 7da2 0fbd 1d9d 863d 5a71 ce3c ced3 143d
000001c0: f7ff 833d 9e3f abbd 6ba8 8dbc 862e 323d
000001d0: af94 c1bc 9713 08bd fc36 8ebb 3e6b 9b3d
000001e0: ca4e 25bd e79b 98bd bea2 003c f67d e7bc
000001f0: 101c 2b3d 2406 003d e89b 5b39 be9e 2c3d
0.035540137 0.066345066 0.012346516 0.051229477 0.041320913 -0.08476239 -0.08352033 0.030600673
0.051820133 -0.03240323 -0.06522774 -0.06437683 0.007392718 -0.040682856 -0.07210265 -0.053741045
-0.06427222 -0.007747877 0.036241673 0.058811527 0.04371115 0.06611343 0.07324993 -0.0018659162
0.03813461 -0.067129 0.016412923 -0.07490826 0.042212956 0.070313066 -0.012032346 0.05196322
0.03421956 0.029152974 -0.06648688 -0.019132866 -0.06271319 0.057463024 0.03445584 0.06222241
0.025866345 0.035537753 0.039058745 0.023968369 -0.055237956 0.032168258 -0.0054339175 -0.04966142
-0.04060816 0.06653796 0.058868684 0.040124588 0.088020965 0.0072740475 -0.031054681 0.012288508
0.074081406 0.063855514 -0.08324361 -0.0042214533 -0.011462947 -0.054868136 -0.008821706 0.022646442
-0.06330146 -0.0105323 -0.008257592 0.033900525 -0.06297902 -0.06591437 -0.04275921 0.016249353
0.011220926 0.07679538 -0.06783775 0.058246758 -0.03244882 0.038093485 0.08288197 -0.04236357
-0.059314664 0.067820095 -0.07179453 -0.030262392 0.0076190317 0.07375392 0.08953902 0.0689627
0.010082786 0.033031132 0.043583397 -0.0064998185 0.07937129 -0.07643063 0.047775157 -0.014117695
0.053911574 -0.025614005 -0.013025776 -0.04113687 0.048590835 0.00950031 -0.07455875 0.031187791
0.04666088 0.062378194 0.039167043 -0.06054062 -0.03506707 0.06572936 0.025200535 0.036334805
0.06445306 -0.083617434 -0.017292222 0.0435014 -0.023630468 -0.033221807 -0.0043400507 0.07588814
-0.040358342 -0.07451611 0.007851301 -0.028258305 0.04177481 0.031255856 0.00020943547 0.042143576

model.4.weight f4 [128, 128]
00000000: 04c9 83bd a207 8abd 306f b53c bf3d 7cbd
00000010: 0d45 783d 2ede 0d3d 5ea7 37bd d65b a23d
00000020: 5b0a b93d b137 b13d bbd6 1cbd e099 b1bd
00000030: 0e5f a8bd 3306 693d fb48 583d 48a1 a4bd
00000040: 32c6 fc3c 575f 733d 7b49 9c3d e76d aa3c
00000050: 92dc 8b3c 6826 813c 02b7 983a 9117 463d
00000060: 7a74 9c3c 357f e73c 40d2 893b dcae b63c
00000070: 0afe c93c 1769 ae3d 08e4 aebd 9a72 873d
00000080: cfa6 6dbc a63b 5fbd 4731 51bd 81cb 343d
00000090: 23f5 59bd dde0 85bd c21d 343d 07ba 5ebd
000000a0: 7da7 00bd 8dab 10bc 3307 743d 29ba 8ebc
000000b0: d65c 623d c822 833d 201d a23c b8b8 2b3d
000000c0: afa5 9c3c be65 143d f14d 77bd 9fd4 98bd
000000d0: 6574 053d 6327 813b 06d6 afbd ee5c 903c
000000e0: 5693 1f3d 82d3 3bbd c15d 6a3d 261a 85bd
000000f0: 5e0f 2c3d 6bea 8e3d e569 9f3d 5bc6 acbd
00000100: f666 78bd 5f22 123c 2cf5 a83d 7c46 91bd
00000110: 7efa 823d 2779 e83c c070 623d c15e 77bd
00000120: 8df2 e33b ccb4 7e3a 7529 863c e193 823d
00000130: efde 94bc 5905 80bd d01b b2bd 9c7c 9b3d
00000140: 78fb 933d d43f 573d 5a14 9cbb a029 f13c
00000150: afd0 9cbd 8ddc 8dbd 5d9a a23d 7be5 873d
00000160: bc27 a1bd ff9d 8dbd d43a 9bbd 708e a93d
00000170: 4e96 3abd d14b 61bd 257b bc3c 07b1 693d
00000180: 648c c73b f281 de3b 3561 adbd 042d 93bd
00000190: bae7 2f3d b2a9 983d 3f09 853d 50fc 603d
000001a0: ddb9 96bb ea80 363c 4a13 0db9 ecc1 35bc
000001b0: 692c 5cbd 09f6 98bc 0d4e e53b f69c a33d
000001c0: 466c 8f3c 7925 f0bc 59e2 1f3d 1358 8f3d
000001d0: 0bd0 5b3d 30f3 93bd e366 8ebd 43ac 253d
000001e0: df60 3ebd 7383 f93c 160c 5cbd 45be b63c
000001f0: a616 263d e209 dabc 33eb 8c3d 9709 f7bc
00000200: 0ae2 e7bc 1887 8a3d 65d7 c0bc acf5 75bd
00000210: cd9b 7c3d 7b7d 46bc a96b 873d f0a3 993d
00000220: 7f86 83bc addc 5b3d 472e 85bd 0643 3dbb
00000230: a477 76bb f4b8 afbd 6a4b 5bbd b771 9e3d
00000240: 11c6 0b3d c879 adbd 68fb 88bd 6873 43bd
00000250: 061c 843d 1c0f d93c 99b7 c5b9 590a 40bd
00000260: 45a4 383d 09e5 47bd b4d4 95bd d1cf aebd
00000270: 47ac 8e3d 2cd5 5ebd 854a 793d 0bb9 963d
00000280: 021c 57bc 32da 203d 24cc 48bd 21c7 563d
00000290: eceb a03c 64a2 993d d498 8d3d 6705 6abc
000002a0: 4109 ce3c d7e1 543c 2010 96bc 3bb9 753d
000002b0: 2aed b2bd ca84 f83c a904 98bd 9f4b 4f3c
000002c0: 83be 6a3d ab3b 9c3d 7a9f 38bd 9f06 c9bc
000002d0: 23a0 85bc 85de 4c3d 3df3 e7bc 8a7f 643d
000002e0: 8cb0 c5bc f654 48bd 2822 2fbd 796c 97bd
000002f0: 170f a63d 1dbf 9e3c db59 dc3b b1e2 f6bc
00000300: c08c 57bd 1a76 163d cf09 48bc cec7 f7bc
00000310: cff2 943d eba2 77bd c4e1 993c 0755 31bd
00000320: 6335 0c3d b604 1c3d a7d4 f93c 2fa8 07bd
00000330: 3c4b 5bbd b6c3 883d e3fb a23d 1080 1ebd
00000340: 82e4 cc3c 31a1 76bd 7184 1e3d 666b 043c
00000350: 0440 bcbc d289 96bd af9f 81bd 6cf1 bc3b
00000360: a729 a0bd d9e9 97bd 220d ba3b 0c4b 8dbd
00000370: 64d8 973d 1998 c0bc c2f4 f3bb 7cdc 04bd
00000380: 6a9b acbc 8272 953d d6e7 7b3b 4819 043c
00000390: 4f79 0dbd 08de 5dbd b007 883c 743a 44bd
000003a0: 0b17 063d e530 76bd 757e 0dbc 7333 98bb
000003b0: 595f 9d3b 3820 7b3d 2a32 3fbd 03a5 4b3d
000003c0: a049 9e3d 5a3e e3bc 54b1 0fbb a299 95bc
000003d0: 48c5 90bd aa77 013a 1d6a 64bd a36f 4d3c
000003e0: 23c7 983c 8875 8a3d dfb8 843d 4d3c 18bd
000003f0: 56bc 913d 4324 b0bb dc3b aa3b c22b 2cbd
-0.06434825 -0.06739737 0.022147745 -0.061582323 0.060612727 0.034635715 -0.04483735 0.079276726
0.09035178 0.086532004 -0.03829072 -0.086719275 -0.08221255 0.056890678 0.052803975 -0.080385745
0.030856226 0.059417095 0.07631203 0.020804359 0.01707295 0.015765384 0.001165122 0.04836232
0.01909851 0.0282589 0.004205972 0.022300176 0.024657268 0.08516138 -0.08539587 0.066136554
-0.014505102 -0.054500245 -0.051072385 0.04413939 -0.053212296 -0.0653703 0.04397369 -0.05437663
-0.03140973 -0.008829963 0.05957718 -0.017422752 0.055264316 0.06403118 0.019789279 0.04192421
0.019121973 0.03622984 -0.060377065 -0.07462429 0.032581706 0.003941463 -0.085857436 0.017622437
0.03895887 -0.045856006 0.057218317 -0.06499128 0.042006843 0.069783054 0.0778387 -0.08436271
-0.060645066 0.0089193275 0.08249888 -0.07093522 0.06395434 0.028378082 0.055283308 -0.0603931
0.0069564045 0.0009716272 0.01637719 0.06375862 -0.01817271 -0.0625102 -0.08696711 0.07592127
0.07225698 0.052551106 -0.0047631683 0.029438794 -0.07656991 -0.06926832 0.07939599 0.06635567
-0.07868907 -0.06914901 -0.0757958 0.08279121 -0.045553498 -0.055003945 0.023007939 0.057053592
0.006089734 0.006790393 -0.084658064 -0.071863204 0.0429456 0.07454242 0.06495904 0.054928124
-0.0045997933 0.011139134 -0.00013453994 -0.011093598 -0.05375329 -0.018672006 0.00699783 0.07988922
0.017507683 -0.029314743 0.03903422 0.06999221 0.053665202 -0.07224119 -0.06953218 0.040447485
-0.046479102 0.030458188 -0.053722464 0.022307524 0.040548943 -0.02661604 0.06880798 -0.03015594
-0.028306026 0.06764048 -0.023540208 -0.060048744 0.06167202 -0.012114878 0.066123314 0.07501972
-0.016055344 0.05367725 -0.06502967 -0.002887906 -0.0037607932 -0.08580199 -0.053538717 0.07736533
0.034124438 -0.084704936 -0.06688577 -0.04771748 0.064506575 0.026496463 -0.0003771156 -0.04688487
0.045078535 -0.04880241 -0.073159605 -0.085357316 0.06966453 -0.054402515 0.060862083 0.07359513
-0.013129236 0.039270587 -0.04902281 0.052435998 0.019643746 0.07501677 0.06913915 -0.014283515
0.025150897 0.012993298 -0.018318236 0.059991103 -0.08736642 0.030336756 -0.07422764 0.012652307
0.057310592 0.07628568 -0.045073964 -0.02453929 -0.01631171 0.0500169 -0.028314227 0.055785693
-0.024132036 -0.04890915 -0.042757183 -0.073937364 0.08108347 0.01937824 0.006724579 -0.030137392
-0.052624464 0.036733724 -0.01220937 -0.030246641 0.072728746 -0.060458105 0.018784411 -0.04329398
0.0342306 0.03809043 0.030496908 -0.033119377 -0.053538546 0.06677954 0.079582 -0.03869635
0.025011305 -0.060212318 0.038700525 0.008082246 -0.022979744 -0.07350506 -0.06329285 0.0057660844
-0.078204446 -0.0741765 0.005677835 -0.0689908 0.0741432 -0.023510026 -0.007444949 -0.032436833
-0.021070201 0.07297231 0.0038437746 0.008062668 -0.034539517 -0.054166824 0.016605228 -0.047907308
0.03273682 -0.060105223 -0.008636107 -0.004644805 0.004802626 0.061310023 -0.0466787 0.049717914
0.077288866 -0.027739692 -0.0021925764 -0.018261734 -0.070688784 0.0004938791 -0.05576526 0.012538823
0.018649643 0.067606986 0.06480574 -0.037166882 0.07116 -0.0053754165 0.005195124 -0.04203392

model.4.bias f4 [128]
00000000: c99e 06bc e3b7 88bd 7050 8d3d 85ca 8ebd
00000010: 4391 d23c 5648 7abd 972d 10bd 981c 283d
00000020: 305e 0d3c 420f af3d 16a7 91bd 679b 103d
00000030: 3931 95bc 75d4 90bb d95f b3bd 2bed 1abd
00000040: b6f8 6ebd 1dd3 52bd c9df 593d 3f0a 853b
00000050: 1810 88bd b784 d1b9 0ddd 9cbd e5cf 8c3d
00000060: d1af 16bd 8284 e83c cee8 e1bb 0d99 e8bc
00000070: 3a86 3f3d c097 2a3d 2c45 01bb d92b 86bd
00000080: a7a9 aebd 8315 19bd 18ab b43d 7dfd 613d
00000090: c958 83bc 8a82 673d 8c18 02bd 514b 3fbd
000000a0: 4e4b 5dbd 133a 073b b94e 823d 6116 04bd
000000b0: 3847 8b3d d9d8 acba ddac c53c 3ef2 8d3d
000000c0: a20e 8cbd e6ff e93c 3cc4 4dbd 8a79 36bc
000000d0: 6f6f 8abd 1c07 7fbd c7bc 97bd 408c 17bd
000000e0: 1425 ae3d 0d4f 513d 6ee8 6b3c 3177 513d
000000f0: 4b8b 8e3d fb82 40bd 6721 923d 5f7e b2bd
00000100: f8b2 143d d07d 5ebd 4d98 40bd e03c b43b
00000110: f2ad 583d 4211 88bc ed23 ad3c dfb9 183b
00000120: 1ec4 8f3d 031e 6ebd 407a e53c a20d 0e3c
00000130: 98d9 0ebc e01c 2c3d 0699 a93d a6d9 073c
00000140: c9dc 21bd 41f6 8c3d b0f8 8f3a 7632 60bd
00000150: 3741 33bd 0a08 73bc a822 903d 9978 9dbd
00000160: 09d1 6cbd 6c11 2a3d 7bd7 4bbd fa1b 9abd
00000170: 92ba 5e3d 5e18 2d3d 778d 3cbd ba90 573d
00000180: c514 533d 00f2 88bd 30a5 0fbd 9e2c 103d
00000190: 4cd9 673d e7a2 6a3d df89 8e3c 1067 3b3d
000001a0: fc9c 7cbd f860 29bd de32 b23c 2a31 0c3b
000001b0: 4c6b 9ebd 127a 06bd f309 843c 3044 f13c
000001c0: bf2b 6bbd 7824 733d fe5f adbd 0a2a 3fbd
000001d0: 6e8e 0f3d a526 a53c 0ef9 8dbd 4268 4f3d
000001e0: 2a61 b03d 9e39 553d 56cd a03c 166f a43d
000001f0: ef4f e23b a94a 973d 23fa a13d 6c64 463d
-0.008216568 -0.066756986 0.06900108 -0.06972221 0.025704032 -0.06110414 -0.035199728 0.041042894
0.008628413 0.08547832 -0.07111947 0.035304453 -0.018211948 -0.004419858 -0.08758516 -0.037823837
-0.058342658 -0.051470865 0.053191934 0.0040600593 -0.06643695 -0.00039962467 -0.076593496 0.0687559
-0.036788765 0.028383497 -0.0068942076 -0.028393293 0.046758868 0.041648626 -0.0019725068 -0.06551332
-0.08528452 -0.03737403 0.08821696 0.055173386 -0.016033547 0.056520976 -0.03176169 -0.046702687
-0.054026894 0.002063398 0.063626714 -0.032247905 0.06800693 -0.0013187184 0.02413028 0.0693097
-0.068387285 0.028564405 -0.05023597 -0.011137376 -0.067595355 -0.06226264 -0.07409053 -0.036998987
0.08503166 0.05110078 0.014398677 0.05113906 0.06960162 -0.046999913 0.07135277 -0.087155096
0.03630349 -0.054319203 -0.047020245 0.005500421 0.052900262 -0.016609792 0.021135295 0.0023304147
0.07019828 -0.05813409 0.028012395 0.0086702425 -0.008718871 0.042019725 0.0828114 0.0082916375
-0.039517198 0.06882907 0.0010984149 -0.054735623 -0.043763366 -0.01483346 0.0703786 -0.07689018
-0.05781654 0.04152052 -0.049766045 -0.07524867 0.054377146 0.042259566 -0.04603335 0.052628256
0.05153348 -0.06686783 -0.035069644 0.0351988 0.056603715 0.057284262 0.017399726 0.045752585
-0.06167315 -0.041352242 0.021752771 0.0021391609 -0.07735309 -0.03283126 0.016118025 0.02945146
-0.057414766 0.05936095 -0.08465575 -0.04667095 0.03504794 0.020160029 -0.06932269 0.050636537
0.086122826 0.0520569 0.019629162 0.080290005 0.0069065015 0.07387287 0.07909038 0.048435614

model.6.weight f4 [128, 128]
00000000: 3b08 80bd 5a94 323c 112b 2ebd 903d 98bd
00000010: 2b14 42bd e744 ad3d da71 9b3d d12d a6bc
00000020: d2a3 c93c 1948 37bd 1297 b8bc d040 35bd
00000030: eb0d 0d3d 4d73 a5ba d6e1 803c 47f7 febc
00000040: f462 b83c e140 a4bc 5c55 c03c 2d79 513d
00000050: 7103 803c c482 e33c 54c4 6bbd 198d 913c
00000060: 32f3 1ebd bd37 a13d f109 07bd a44c 0ebc
00000070: 786c 6dbc a962 303b 348e 413c cb27 703d
00000080: 90d7 72bc 3907 9ebd 4cdc 62bd f22e 5c3d
00000090: adb4 343d 584e 92bd 983b a8bc 2d71 6a3d
000000a0: a95b 8abd 64f5 5bbd bdb8 a73d cc76 0a3d
000000b0: 094b cebc 36da 083c 884b 063d b28d fc3b
000000c0: 7e99 b23d 7113 b73c 22bb 403d 9783 1cbd
000000d0: 7c96 853d b646 fdbc 22ff a03d 359b 98bc
000000e0: cb62 2b3d 6e3b 803d 5ace 8e3d 1877 a33c
000000f0: a69a 923d b311 133d 0158 0abc f51c 80bd
00000100: cf14 8b3d c7bc 28bd d573 f63c 04e4 713d
00000110: 13d6 b9ba 101d 963d c35e a13d 50b9 1f3b
00000120: 1715 3ebd 32ea 8d3d fa9d 4dbd d473 e7bc
00000130: 34e5 723d f9b4 89bd 5059 3f3d b56d 4dbd
00000140: 0844 5bbd 1d5b 0a3d 6f7e 27bc ad42 9fbd
00000150: 14fe 973c d648 c83c fa8f 64ba e371 a23d
00000160: 6e71 69bd 8b3c b8bc fc4d 663d a34e 45bd
00000170: 08c0 ccbc 2fd1 a0bd 0ed9 03bc 6e77 383d
00000180: c2bb ae3c 985f 873c 3139 8dbd 6f10 643d
00000190: e9e1 473d e486 ed3c bac9 f33c 42d4 85bd
000001a0: 6e89 a3bd 2c08 143c 83fe 9a3d 2089 e1bb
000001b0: af21 723d aa03 423d 78fc 883d f04c 7e3c
000001c0: 0b53 893c 7aa3 193d a943 a1bd a7d1 26bd
000001d0: 291c abbd 7f06 bc3b dd03 a43d 8712 ca3c
000001e0: 1b75 dfbc 605b df3c 37c5 96bd da4e 943d
000001f0: 4c3b 7ebd 30eb 8ebd 1d83 3c3c 6b45 02bd
00000200: d35f b23c 153e 863d 0af2 25bd 393c d13a
00000210: 2ae5 873d 62ed 46bd 9701 69bd d870 a0bd
00000220: 37fa 10bd 8c9c 10bc e196 053c c5a1 533c
00000230: 514b 4b3d 85bd 9cbc e4d1 a3bd e131 b33d
00000240: f1f8 9e3d a153 b03c 14c4 f0ba ca12 0a3d
00000250: 65a8 5c3d 72e3 debc f86a 8a3d 8678 873b
00000260: 3fdc 35bc 39d6 533d 0b4d 44bc 3a3d b2bc
00000270: 4a75 5abd d46a 87bd c33a 683d ec95 04bd
00000280: 4cc8 a83d 8dad 8dbc f720 3dbd be81 b0bd
00000290: 19a1 85bc bd9a db3c 4fcc 05bd f028 2fbc
000002a0: 1a35 85bd 51ec 79bd 98f4 b0bd 5d16 c6bc
000002b0: 6db9 98bd f3e3 8c3c f4ae 4ebd 4a73 143d
000002c0: 712e 11bd a62f 3c3b b714 98bd 051d 2d3d
000002d0: 222b b13d 1a75 91bc e1f5 01bd caf0 32bd
000002e0: 2d30 a6bd 6302 98bd 5568 0c3d 5eb3 f53c
000002f0: e707 733d 092b 203d 9ec6 943d 34e0 d63b
00000300: f064 7d3c 1841 acbc 9d37 a2bd 5b0b 0fbd
00000310: c744 363d bacc fdbc 66ed 783d da02 b33d
00000320: af43 9a3d 0860 ab3b ab96 88bc deea 0bbd
00000330: 9669 acbd c059 92bd 060e 35bc d163 99bd
00000340: eb8a a33d 2df6 efbc dd8a 80bd 0321 87bc
00000350: 9084 3ebc af89 a83c 6cde 6bbd 2214 48bd
00000360: 687d afbd 89b9 5c3d 8021 c6bc bfb1 463d
00000370: 384f 85bc cb46 8b3d a4b8 0dbd 5bba 813d
00000380: bf4a 04bd a47c 143c 2d2d 3fbb baba 2cbd
00000390: e7ae a8bd 4f63 5abd f923 78bc c1c2 4cbd
000003a0: 0ded 27bd a57b f7bc d629 a3bd f7c4 d2bb
000003b0: 73c7 02bd 9778 7cbd 3a0b dabc dd77 f4bc
000003c0: f3b2 503d 0410 95bc e701 0d3d a878 f33c
000003d0: e3a6 293b 37cd dfbc 0d84 023d 16ef 633d
000003e0: 798f 333c 424c 46bd 6712 a6bd d811 a03d
000003f0: bf38 0d3c 6728 963d 7b90 1ebd 3383 793d
-0.0625157 0.010899628 -0.04252154 -0.07433617 -0.047382515 0.08460408 0.07590075 -0.020285519
0.024614248 -0.044746492 -0.022532973 -0.044251263 0.0344371 -0.0012622863 0.015732687 -0.03112377
0.022508122 -0.020050468 0.023478203 0.051140953 0.015626641 0.027772315 -0.05756028 0.017767476
-0.038806148 0.07871959 -0.032968465 -0.008685265 -0.014491193 0.0026914275 0.011813689 0.0586317
-0.014821902 -0.07716221 -0.055385873 0.053755708 0.04411762 -0.07143849 -0.020536229 0.05723684
-0.06755764 -0.05370082 0.08189533 0.0338047 -0.025182264 0.008352807 0.032786876 0.007707321
0.087206826 0.022348138 0.047053464 -0.03821143 0.06522843 -0.030917507 0.07861163 -0.018628696
0.041842263 0.06261335 0.06972952 0.01995425 0.07158403 0.03590555 -0.008443833 -0.06255523
0.06791078 -0.041195657 0.03008453 0.059055343 -0.0014178179 0.07329762 0.078794025 0.002437193
-0.04640683 0.06929435 -0.050199486 -0.028253473 0.059300616 -0.06723971 0.046716034 -0.050153453
-0.053531677 0.0337783 -0.010223015 -0.07776389 0.018553771 0.024448793 -0.0008718964 0.079318784
-0.05699294 -0.022489807 0.056226715 -0.048170697 -0.024993911 -0.078523986 -0.008047355 0.045035772
0.021329764 0.016525075 -0.06895674 0.055679735 0.04879943 0.028994985 0.029759277 -0.065346256
-0.07985197 0.009035151 0.075680755 -0.0068828017 0.059114154 0.047366776 0.066887796 0.015521273
0.01676323 0.03750942 -0.07874233 -0.040727284 -0.083549805 0.005738079 0.08008549 0.024667038
-0.02727752 0.02726525 -0.073618345 0.07241602 -0.06206827 -0.06978452 0.011505869 -0.031804483
0.021774208 0.0655481 -0.04051403 0.0015963382 0.066355065 -0.04856623 -0.05688628 -0.07834023
-0.035394873 -0.008826386 0.008153648 0.012916987 0.049632374 -0.019133339 -0.07999018 0.08749748
0.077623256 0.021524252 -0.0018368983 0.033709325 0.05387153 -0.027208064 0.06758684 0.0041342406
-0.011099874 0.05171797 -0.011981259 -0.02175771 -0.05333451 -0.06612173 0.056696665 -0.03236954
0.082413286 -0.01729467 -0.046174016 -0.08618496 -0.016312169 0.026807183 -0.032665547 -0.010690913
-0.06504269 -0.061016385 -0.086404026 -0.024180586 -0.07457242 0.017198538 -0.050459817 0.03624276
-0.03544468 0.0028714924 -0.07425826 0.042264003 0.08650805 -0.017756034 -0.03172863 -0.043686666
-0.081146576 -0.0742233 0.034279186 0.029992756 0.059333708 0.03910354 0.07264446 0.006557489
0.01546596 -0.021027133 -0.07920764 -0.03492294 0.044499185 -0.03098141 0.060773276 0.08740778
0.07532441 0.0052299537 -0.016673407 -0.034159534 -0.084185764 -0.07146025 -0.011050707 -0.074897416
0.07985481 -0.02929219 -0.06276486 -0.016495233 -0.011628285 0.020573465 -0.057585165 -0.048847325
-0.08568841 0.053887878 -0.024185896 0.048509356 -0.016273126 0.06800612 -0.034599915 0.063343726
-0.032297846 0.00906292 -0.0029171214 -0.042170264 -0.08236485 -0.053317364 -0.015145295 -0.04999042
-0.040997554 -0.030210325 -0.07966964 -0.0064321714 -0.03192849 -0.06163844 -0.026616681 -0.029842312
0.05095191 -0.018196113 0.034425642 0.02972062 0.0025886826 -0.027319534 0.031864215 0.055647932
0.0109594995 -0.04841257 -0.08108979 0.078159034 0.008619486 0.07331925 -0.038712006 0.060916137

model.6.bias f4 [128]
00000000: 9171 18bd 6684 083d ab88 843d c4c8 913d
00000010: d3e2 bb3d aa2d 02bd e71d 343d cdb2 02ba
00000020: f49b 383d d4ef 6c3d 6099 863d 4939 a53d
00000030: bb9d 11bc 29a8 303c 2b74 93bd c61d 9dbd
00000040: 5ca8 9dbd 3ced 403d e23d 31bd 0918 e53b
00000050: 5860 873d 0a6a c93c 0183 7abd 6bb2 eabb
00000060: 236d a43d 3aac 9d3d 39c5 e2bc 6e6f b5bd
00000070: 8416 62bc 2146 86bd e5e1 30bd c867 a3bd
00000080: a6a3 c73b 7e6a 5fbb 6fe5 cebc f588 063d
00000090: 7731 44bc 595c 54bd f332 a5bd fe0e e3bc
000000a0: a157 913d f56a 3e3d b93e d93b e9fa 00bd
000000b0: e0bb 22bc 643c 873a 342f f3bc 5191 893d
000000c0: 3fab 573d ade9 9cbd badc 49bb f32e 49bd
000000d0: b622 36bd 74d9 e3bc eb48 253d 79b6 10bb
000000e0: 197e 25bd ebfd 96bd b54f a33d ae5a 793c
000000f0: 730e acbd add3 6b3d 6418 733d 047a d93c
00000100: 2c72 aabd 71a3 a4bd 49b6 91bd d48c 343d
00000110: dd5e a0bd 81e3 5e3b 6020 493d e2f9 6dbc
00000120: 0248 2abd c258 003d 3486 abbd 25eb 1dbd
00000130: a52c 99bd aad1 44bd f0d7 2fbb 5958 4fbc
00000140: 0b7f 86bd de82 a6bd 0ea9 923d 9e50 87bd
00000150: 0277 e83c d3bb 81bd eabd 7a3d 8dd7 03bd
00000160: a77e 613d 7978 993d 8ac0 9cbc 2498 02bd
00000170: 243e 1bbb c0b7 283d 3be8 bbbc e225 81bc
00000180: e2ab 9a3d 9af0 be3c 9c68 f8bc be77 f5ba
00000190: a762 ff3b c3ba 10bd b50b 92bd 3b7f 94bb
000001a0: 6db9 183c 8bdb b0bc 3b53 dd3c e029 51bd
000001b0: bf2b 2bbd 707e b43b 2414 ae3d fb90 953c
000001c0: d93a 373d 57c1 6dbd 99c2 c03c 42c5 81bd
000001d0: 3f11 af3d 48a3 443d 72e1 a1bd 66e9 5a3d
000001e0: 5195 933c 7c49 073d 5acc b3bd bcaf 4b3d
000001f0: 0c44 1cbc f171 1f3d 04d7 d9bc 0049 2c3d
-0.03721768 0.03332939 0.0647138 0.07118371 0.09174123 -0.03178183 0.04397383 -0.000498575
0.045070603 0.057845905 0.06572223 0.08067567 -0.0088877035 0.01078228 -0.07199892 -0.076716945
-0.076981276 0.047101244 -0.043271907 0.0069913906 0.06610173 0.024586696 -0.06116009 -0.0071623824
0.08028629 0.07698865 -0.027681934 -0.08859144 -0.013799313 -0.06556345 -0.04318418 -0.07978779
0.0060925065 -0.0034090574 -0.025255887 0.032845456 -0.011974684 -0.051845882 -0.080663584 -0.02771711
0.07096792 0.04648872 0.0066297916 -0.031489287 -0.009932488 0.001031768 -0.029685594 0.0671717
0.052653547 -0.076617576 -0.003080173 -0.04911704 -0.044466697 -0.02781365 0.040352743 -0.0022081418
-0.04040346 -0.0737265 0.07974187 0.015219374 -0.084011935 0.057574917 0.059349433 0.02654744
-0.08322558 -0.080389865 -0.07114846 0.044079617 -0.07830594 0.0034010115 0.04910314 -0.014524909
-0.04157258 0.031334646 -0.083752066 -0.03855433 -0.074792184 -0.048051514 -0.002683159 -0.012655341
-0.065672 -0.0813043 0.07161151 -0.066071734 0.02837706 -0.06334653 0.061216272 -0.032187987
0.055052426 0.074936815 -0.019134779 -0.031883374 -0.0023688162 0.041190863 -0.022937885 -0.015765134
0.07552315 0.023308087 -0.03032332 -0.0018727703 0.0077937427 -0.03533436 -0.07131139 -0.0045317686
0.009321553 -0.021589061 0.027017226 -0.051065326 -0.041789766 0.0055082366 0.08499935 0.018257609
0.044733856 -0.05804571 0.023530291 -0.06336452 0.08548211 0.04800728 -0.079043284 0.053445242
0.018015536 0.033029065 -0.08779211 0.04972814 -0.009537708 0.038927022 -0.026591785 0.042061806

model.8.weight f4 [128, 128]
00000000: d5fb 2dbd ead7 d13c 8a40 503d 00cd f93b
00000010: d3d4 093d 279f 543d cabc df3b 844a acbd
00000020: f99b 13bd 434d 6cbd 8657 633d fc8b 003d
00000030: 6dbb 7b3c ee11 003c a553 6dbd c6f5 8ebd
00000040: af44 5cbd 52dd 983d 535a d8bc ecdd 73bd
00000050: 7ee6 85bd e482 9e3d 1db8 54bd 0ab9 6abd
00000060: 9f01 ab3c 8c9b 6d3c 9eeb e23a 7edc 6b3d
00000070: 65c9 9a3c 870c 68bc 2569 a5bd de1b 233d
00000080: 1a49 afbd d4fd 8cbd d080 833d 0c41 83bd
00000090: c334 b23d 2671 9c3d 06e6 613d 113f 4e3d
000000a0: e8a4 2ebd 4963 13bd dacf 56bd d605 b4bc
000000b0: 021e 92bd 9882 743c 5ace fd3c 00ca a9bc
000000c0: 1b60 003d 3e22 9c3d 0cf6 9fbd 575d 213d
000000d0: ab51 b43d 68ca 87bd 487e 81bc abe7 d23a
000000e0: b70a 72bd 1915 5dbd 190d 163d f1c5 593d
000000f0: 68a2 6bbd b83b 1d3d 6298 67bb d3c1 8c3d
00000100: c44d ea3c 5b3a 0a3d 4ae5 953c a345 31bd
00000110: a6ea 32bb 6361 78bd 9c57 823d 46e6 49bc
00000120: ec44 3cbd bd79 173d 332f 9c3c 49f7 5a3d
00000130: b3dd 8dbc f45f 2e3d f6d5 153c 59ef 59bc
00000140: 7c2c 68bc b348 62bc 39b8 2bbd 20a8 cabc
00000150: 07be b43d adf1 253c f6e3 99bc 7240 a53c
00000160: bfb0 413d 7800 a9bd 410a 273d e26b 043c
00000170: 05ee b53d 11b7 6a3d d5c2 843d 6919 3f3d
00000180: edc2 3a3c 7f96 6abd 3564 093d c51e 85bd
00000190: 85e9 98bd a152 a83d 2771 363d 039e 9abd
000001a0: 020d 88bd 9c87 033d f09f 893d d1fc a73d
000001b0: fa01 34bd 2ef9 aebc f7f3 92bb 5654 b4bd
000001c0: 3ebb 643d 972d 24bd 476c 7fbc 59b4 b8bc
000001d0: 603d 59bc 8372 d03c 311f 7a3d 72f7 1e3d
000001e0: d347 52bd 5746 233c c80a 93bc 3655 9cbd
000001f0: 3d4e 963b c12d 9ebc 5cc1 8abb a838 50bd
00000200: c0d9 00bb 9ff4 b23d 8f00 a83d 857f 953d
00000210: aab4 b2bd cb44 1ebd bb26 093d 771c debc
00000220: 31f6 853d b2d0 59bb c22b 87bd e423 903d
00000230: 8278 01bd b968 ce3b 9069 8b3d 8d80 adbc
00000240: 0865 923d 3fdf 2b3d abff a8bd 0b5e 92bd
00000250: 4b77 b23c 183c e8bc 2300 acbd 56a7 16bd
00000260: 8c50 4abc bfd7 82bd a867 debc 3243 7fbc
00000270: ac54 143d b26b 2cbd 4938 8dbd 2f1a fa3b
00000280: 9120 ec3b cc5d 8c3d 2ff2 ad3d 703d 473d
00000290: 30d4 8f3d e39d ab3c ab6a af3d 3122 aabd
000002a0: 85b2 2f3d 5196 373d fd99 1a3d 283c 13bd
000002b0: 2b35 6d3c 11c1 a73d 20a0 613d fc72 dcbc
000002c0: b89d 1d3d 004e 1ebd e46c 8bbc ebb1 a53d
000002d0: 60b7 80bc 6136 413d be81 cf3c 26ac 98bc
000002e0: 72b1 523d 59b3 9a3d e3cd a23d 2411 5b3a
000002f0: ee16 153d a49b 653d 9e90 253d 0bbe 0cbd
00000300: 5a7d 79bd c742 6d3d dfe0 a0bc 3a4a 043c
00000310: ee20 ed3b 8193 33bd ddfc a73c f4a5 7c3d
00000320: 4d69 843d 2f73 a7bd 907b 46bd 2579 133d
00000330: 326b 63bd abe6 c53b 783b 85bd d2c0 2cbc
00000340: 8b93 89bd ca56 b0bc 332d 8cbd ceee dbbc
00000350: 57fd 0e3d 0f82 08bc 34a1 233b fe3e 9fbd
00000360: 8fa6 ef3a a2a9 3cbd c35b 98bd 6b97 8bbc
00000370: 95bc 66bd cab6 adbb 8eae 2e3d e9e9 aa3d
00000380: 4513 94bd fad2 12bd 9e85 97bd e391 483d
00000390: 6c97 a5bd 307e b63d 358e a4bd 45ec 56bd
000003a0: b1c7 9c3c e1aa 25bd d81e a53d e160 abbd
000003b0: 2837 73bd 11ff 99bd 2ba2 f13c 3325 993d
000003c0: 38ff 243c 9217 253d 20c4 8fbc 8ee7 ab3b
000003d0: 273f e03c 73ed 58bb 164b 4dbd 5e1e 9b3a
000003e0: f1e7 56bc 0156 14bd 7b58 053d 71c2 aa3d
000003f0: 8df0 7ebd b371 b03d 411d 4dbd 09bf adbd
-0.042476494 0.025615651 0.0508428 0.007623315 0.03365023 0.051909592 0.0068279253 -0.0841265
-0.03603742 -0.05769087 0.05550339 0.0313835 0.01536451 0.007816775 -0.057941098 -0.06980471
-0.05377644 0.074640885 -0.026410257 -0.059537813 -0.065381035 0.07739809 -0.051933397 -0.057305373
0.020874796 0.014502417 0.0017312651 0.057583325 0.01889486 -0.014163143 -0.08076695 0.039821498
-0.08558865 -0.068843514 0.064210534 -0.06408891 0.0870147 0.07638769 0.055151008 0.050353114
-0.042637736 -0.035983358 -0.052444316 -0.021975439 -0.0713463 0.014923714 0.030982185 -0.020726204
0.031341653 0.07623719 -0.078106016 0.039395656 0.088046394 -0.06630403 -0.015807286 0.0016090771
-0.05909225 -0.0539752 0.036633585 0.053167287 -0.05752793 0.03838703 -0.003533863 0.068729065
0.028601535 0.03374706 0.01829781 -0.0432793 -0.0027300506 -0.06063975 0.063643664 -0.012322968
-0.045964167 0.036981333 0.019065475 0.053458486 -0.017317628 0.042571977 0.009145251 -0.013301694
-0.014170762 -0.013811278 -0.041923735 -0.024738371 0.08825307 0.010128421 -0.018785458 0.020172331
0.0472877 -0.082520425 0.040781263 0.008082362 0.08883289 0.057303492 0.06482474 0.046655092
0.011399013 -0.05727243 0.03354283 -0.065000094 -0.07466415 0.08218885 0.044541504 -0.075496696
-0.06643106 0.03211175 0.06719959 0.08202518 -0.043947197 -0.021359053 -0.0044846493 -0.08805148
0.05584263 -0.04008254 -0.01558978 -0.022546934 -0.013259262 0.025445228 0.061064903 0.0388102
-0.05133803 0.009965501 -0.017949477 -0.0763344 0.0045869634 -0.019308927 -0.004234476 -0.05083528
-0.001966104 0.08738064 0.082032315 0.07299713 -0.08725865 -0.038639825 0.033484202 -0.027113182
0.06541098 -0.0033235964 -0.06600143 0.070380956 -0.031609066 0.006299105 0.06807244 -0.021179462
0.071481764 0.04196095 -0.0825189 -0.071468435 0.021785399 -0.028348967 -0.083984636 -0.036780678
-0.012348305 -0.063888066 -0.027149037 -0.015579985 0.036213562 -0.042094894 -0.06895501 0.007632516
0.0072060307 0.06853828 0.084934585 0.048642576 0.070228934 0.02094931 0.08565267 -0.08307303
0.04289486 0.044821087 0.03774451 -0.03594604 0.014478008 0.08191121 0.055084348 -0.026910298
0.03848049 -0.038648605 -0.017019697 0.08090576 -0.01571244 0.047171 0.02533042 -0.018636774
0.051438756 0.07553739 0.07949426 0.0008356741 0.03639882 0.056056634 0.04042112 -0.034360927
-0.06091056 0.057925012 -0.019638477 0.008074338 0.0072365915 -0.043841843 0.020506317 0.061681703
0.06465397 -0.081762664 -0.048457682 0.036004204 -0.05552215 0.0060394607 -0.065054834 -0.010544019
-0.06717595 -0.02152576 -0.068445586 -0.02684727 0.034909572 -0.00833179 0.002496791 -0.07775687
0.0018283891 -0.046060212 -0.07439377 -0.017039975 -0.05633219 -0.005301331 0.042646937 0.08345396
-0.07230238 -0.035845734 -0.07398532 0.048967253 -0.08085522 0.08910787 -0.08034936 -0.052471418
0.019138189 -0.040446166 0.080625236 -0.083680876 -0.059378773 -0.07519353 0.029496273 0.07477798
0.0100706145 0.04030568 -0.017549574 0.0052461093 0.027373863 -0.0033100515 -0.050120436 0.0011834612
-0.013116823 -0.036214832 0.032555085 0.08337868 -0.062241126 0.086154364 -0.050076727 -0.08483703

model.8.bias f4 [128]
00000000: 732e 453d 2b74 a8bd a6cc a1bc f898 a43d
00000010: 382d ec3c 8ca4 04bc de4e 58bd 2932 5cbd
00000020: 03cd be3c dd36 91bd ae40 49bd eaa1 05bc
00000030: 2004 82bd 05f6 b43d 800c ddbc f9e3 dcbc
00000040: 7a67 433d 6819 b2bd e128 acba 85f7 68bd
00000050: 88a0 47bd 4f82 adbb 672f bcbc 5cfc cc3c
00000060: c756 9f3d 0a50 bc3c a7b1 543d 8d93 9dbc
00000070: ece5 a9bd c2fe 4bbd 094d 6f3d 3d86 883d
00000080: 6108 f4bc c119 92bd e51f 8cbd 7367 f83c
00000090: b9ee 273d 0189 4a3d 1345 dd3c f356 a7bd
000000a0: a907 ad3d dffc 8dbd 6eaa 633d 624e 16bd
000000b0: 1013 7bbd b424 b33d aa5c 15bd 2bb8 8abd
000000c0: 01bb aebd d619 183d 2c07 fd3c 891d 853d
000000d0: ea9b 4c3b 4208 633c 8907 3c3d ab8d 8fbc
000000e0: 11d9 893d 44ef 61bd 1c89 703a fff4 a13d
000000f0: 82be a03d 8783 88bd 8938 073d 8397 a33c
00000100: 34bf af3d 42f7 55bd ab72 f7bc a58b 9d3c
00000110: aa5a c2bb 0260 db3c 4ba4 923d 84bf e93c
00000120: 78d0 7b3d 345e 0c3d 2a4c a33d be7b 143b
00000130: c7da 1bbd 882e 813c 06f8 a03d 6d64 8a3d
00000140: 9c3c a7bd 6075 1b39 f787 ab3d 35ee 81bb
00000150: e2c7 9e3d fad6 853d 286f 943d 9edf 813b
00000160: fcc5 ae3d 1f68 3fbd f94b 813d c2cc 6c3c
00000170: 401d 96bd 5db5 833d e095 0a3d bfcb f93c
00000180: 4c19 1b3d b84a 413d b154 3b3d c30d b93d
00000190: a9a5 71bb cc2c 36bd e08f a6bd be08 303d
000001a0: 8828 f3bc a701 d63c e8a1 913d eccf a83c
000001b0: 14da ba3c 3362 b4bd f8e0 29bd 9f3b c33c
000001c0: ce42 893d 6a9d 193d 29dd 03bd c2a5 923d
000001d0: d5a0 2abd 7137 6d3d fe96 323d 949a 27bc
000001e0: a02c 473d 7f7b 89bc 6a4a 40bc a267 68bb
000001f0: 6130 113c 8674 a4bc e9ba 4a3d 336e 33bd
0.04814 -0.08225282 -0.019750904 0.08036989 0.028830156 -0.008095872 -0.05280959 -0.053758774
0.023291117 -0.070905425 -0.04913395 -0.008156279 -0.06348443 0.08835987 -0.0269835 -0.026964175
0.047706105 -0.08696252 -0.0013134741 -0.056876678 -0.04873708 -0.005295075 -0.022971822 0.025022678
0.07780223 0.022987384 0.051927235 -0.019235397 -0.08295807 -0.049803503 0.058423076 0.06666229
-0.029789152 -0.071338184 -0.06842021 0.030322766 0.040999148 0.049447063 0.027010476 -0.08170881
0.08448727 -0.06932997 0.055582456 -0.036695845 -0.061297476 0.08747235 -0.036465324 -0.067734085
-0.08531762 0.037134014 0.030887209 0.06499774 0.0031220862 0.013856949 0.045905624 -0.017523607
0.06730855 -0.055159822 0.00091757043 0.079080574 0.078488365 -0.06665712 0.0330129 0.019969707
0.08581391 -0.052237757 -0.030206045 0.019231627 -0.005931218 0.026779179 0.07160243 0.028533705
0.06147811 0.034269527 0.079735115 0.0022656764 -0.03805044 0.015769258 0.07859807 0.06757436
-0.08165857 0.00014825677 0.083755426 -0.003965164 0.07752968 0.06535144 0.07247764 0.003963425
0.08533856 -0.046730157 0.06313319 0.014453115 -0.07329798 0.06431077 0.03383434 0.030492662
0.03786592 0.047190398 0.045735065 0.09035828 -0.0036872423 -0.044476315 -0.08132911 0.042977087
-0.029682413 0.026123835 0.07110959 0.020606957 0.022809066 -0.088077925 -0.041474313 0.02383214
0.06702195 0.037503637 -0.032193337 0.07160522 -0.041657288 0.0579142 0.04360103 -0.010229725
0.048626542 -0.01678252 -0.011736492 -0.003546216 0.008861632 -0.020075094 0.049494658 -0.043806266
