experiments/dispersion_pinn.pth (torch, 940940 bytes, 35 tensors)

model.0.weight f4 [128, 1]
000000 13 d1 47 bf a1 1f 72 bf a3 3f 17 3f 1d d6 b5 bc
       -0.78053397 -0.9457951 0.59081477 -0.022196824
000010 d4 b9 73 bf fd fe 71 3f c9 4e 87 be f3 6c 33 3f
       -0.95205426 0.94529706 -0.26427296 0.7008812
000020 93 63 33 bd 2f c7 68 bf de a1 0b bf ba 9d 8e 3e
       -0.043796133 -0.9092893 -0.54543865 0.2785471
000030 a0 ce b4 be 26 68 47 3f 6a b6 e1 bd 54 ac 06 bf
       -0.35313892 0.7789329 -0.11021121 -0.526067
000040 bc a4 1e 3f 01 ec 84 3d 94 8c fc be 5b bc 56 be
       0.61970115 0.06490327 -0.49326003 -0.2097029
000050 bf ae 5a be 58 e2 38 3f 58 33 c8 3e c4 01 50 3f
       -0.21355723 0.72220373 0.39101672 0.81252694
000060 02 f2 33 3f 12 80 0f be 07 fb 17 3e a9 b0 46 3f
       0.7029115 -0.14013699 0.14841853 0.7761331
000070 26 98 34 3d a8 ab 15 bf 9e 56 40 3f 47 ab a5 bd
       0.044090413 -0.5846505 0.7513217 -0.08089309
000080 83 3e 69 3f 5d c5 1e 3e 04 29 48 bf a5 52 3c 3e
       0.9111101 0.15504976 -0.78187585 0.18390901
000090 1b be bf bc 7f 02 e9 3d d7 8b 19 bf 27 7e b7 be
       -0.023406079 0.11377429 -0.59979004 -0.35838434
0000a0 40 0d 3c 3e 01 1e 46 3e b2 56 55 3f af 2a f1 be
       0.1836443 0.19347383 0.8333541 -0.47102877
0000b0 cc e5 9d 3e bc 4a 56 3f 33 e4 0c bf 56 37 38 3e
       0.30839384 0.83707786 -0.55035704 0.17989859
0000c0 f7 37 fd be 36 04 7f 3f cc 74 2f bf 14 f0 65 be
       -0.4945676 0.996158 -0.6853759 -0.22454864
0000d0 0c ad 81 be 4f aa 31 bf 2a 8e e3 3e ce db b8 bd
       -0.25327337 -0.69400495 0.444444 -0.090262994
0000e0 24 0a 2d 3f d0 94 4d 3f aa 66 10 bf 17 70 28 bd
       0.675936 0.80305195 -0.5640665 -0.041122522
0000f0 08 7b 1d 3d dd 2b 4c 3d 3a 4a 6e bf 62 cc 3d be
       0.03844741 0.04984652 -0.9308201 -0.18534997
000100 3a 1f 3e 3f ff 39 c6 be 14 3b a0 3e 90 bf 1b 3f
       0.742664 -0.38716123 0.31295073 0.60839176
000110 07 80 3e 3f dc 28 21 3f 62 9f 37 bf 50 95 57 be
       0.74414104 0.6295297 -0.71727574 -0.21053052
000120 e4 94 79 bf 22 74 81 3e 53 ce c4 be 49 7e 5b 3f
       -0.97492814 0.25283915 -0.38438663 0.8573957
000130 75 88 b6 3e db 36 29 3f 13 62 8a be ea 02 b3 3e
       0.35650983 0.6609933 -0.2702795 0.3496316
000140 90 6b 07 3f a1 87 e4 be 9b 41 cc 3e 9f e2 1b 3f
       0.528985 -0.44634727 0.39893803 0.6089267
000150 5a ae 9e 3e 2a d6 74 3c 66 6b 73 bf 30 0c 24 be
       0.30992395 0.014943639 -0.9508575 -0.16020274
000160 80 6b e1 3d af 22 0a bf b4 d2 c0 3e eb 3d 62 bf
       0.11006832 -0.5395917 0.37660754 -0.8837573
000170 a9 5e a4 be 82 48 15 bf 7d 56 de be 6d c2 03 bf
       -0.3210347 -0.58313763 -0.4342536 -0.51468545
000180 e3 9b af be d5 94 eb 3e 8b ef 51 3f 4a 5b 81 3d
       -0.3429862 0.46011987 0.8200614 0.0631624
000190 f6 97 72 bd 31 3a 35 3f f2 72 f3 3d 2d c4 a1 bc
       -0.059226952 0.7079192 0.118871585 -0.019746864
0001a0 b0 54 d3 be 42 7a 4b bf 6d 97 cb bc 69 0b 05 bf
       -0.4127555 -0.79483426 -0.024852479 -0.51970536
0001b0 49 0a a5 3e b3 ec fd 3e 09 fe eb 3d f8 e7 32 3d
       0.3223441 0.4959465 0.11523063 0.043678254
0001c0 fc 28 22 be 2a 55 d7 bd a3 82 43 bd 14 c9 2a 3e
       -0.15835947 -0.10514291 -0.047732007 0.16678268
0001d0 5f 48 25 3f ea 85 39 3e 18 2b 47 3f f1 c5 46 3f
       0.64563555 0.1811749 0.7780013 0.77645785
0001e0 aa 92 8b be fc ee f4 3e 64 c4 14 3f ca d1 70 3f
       -0.27260333 0.4783858 0.5811217 0.9407011
0001f0 f2 a7 c5 3e fa 50 e0 3e 61 e6 a5 be 8c a7 5e bf
       0.38604695 0.4381178 -0.32402328 -0.86974406

model.0.bias f4 [128]
000000 03 21 45 3f 9a 95 55 3f 85 46 3c 3f 22 b5 5b be
       0.77003497 0.834314 0.73545104 -0.21455815
000010 59 be 7c bf 65 01 9b bc 06 7d 4c 3f a1 7d 33 bf
       -0.9872795 -0.018921563 0.7987827 -0.7011357
000020 56 9b 18 3f 61 b9 01 3f 8f 8f 7b bf b6 5d 5c 3f
       0.59612024 0.5067349 -0.9826593 0.8608049
000030 34 aa 39 3f e2 67 86 be 0f 4f df 3e c5 5f c5 3e
       0.72525334 -0.2625113 0.43615004 0.3854963
000040 c6 e2 9f 3e d7 75 26 3f 75 c2 be be df fa 0e 3d
       0.31227702 0.6502356 -0.37257734 0.034907218
000050 6a 32 4f 3e 9b a0 64 bf c6 68 15 3f de b3 2b be
       0.20234075 -0.89307564 0.58362997 -0.16767833
000060 72 0e f1 3e 4a 2d cd be 59 ac fe 3e a0 ff 4e 3f
       0.47081333 -0.40073615 0.49740866 0.808588
000070 70 7e db be 1d 8d 12 3f 73 23 0b 3f 6f 90 fe 3e
       -0.42869902 0.5724657 0.54350966 0.4971957
000080 67 a8 df 3e 83 1e 89 be b5 37 51 3e f3 0f 0c 3e
       0.43683168 -0.2678109 0.20431407 0.13677959
000090 84 50 13 3f 06 ff 19 bf 98 bb 6a bf 02 53 8f 3e
       0.5754473 -0.6015476 -0.91692495 0.27993017
0000a0 8c 9e 9e 3e 9d 2d 1a 3f 7b b8 6e be 9f 27 20 bf
       0.30980337 0.6022585 -0.23312561 -0.62560457
0000b0 0c e9 76 3f 1b 7f d4 be ac 2a b5 3e ee 64 4f 3e
       0.9644935 -0.41503224 0.3538412 0.20253345
0000c0 2f d4 a9 3e 8a eb cb 3e fc e0 1e bf cb 08 1b 3e
       0.33169696 0.3982814 -0.6206205 0.15140073
0000d0 ef c9 1a 3f 08 2f 92 3d a6 4a af be 97 8d 93 3e
       0.60464376 0.07137877 -0.3423664 0.28818962
0000e0 37 fd 66 bf 02 b8 4e bf b8 75 9d bd 00 fb 35 3f
       -0.90230125 -0.80749524 -0.07688469 0.7108612
0000f0 3b 36 c0 3d e3 f2 0f bf 69 aa 02 3e e7 87 67 bf
       0.09385344 -0.5622999 0.12760319 -0.90441746
000100 14 da 28 bf 29 64 07 3f 56 44 3e 3f b6 92 99 3e
       -0.6595776 0.5288721 0.7432302 0.29994744
000110 31 5d 3f bf a5 6e 04 bf 84 75 43 bf ff b5 59 3f
       -0.74751574 -0.5173133 -0.7635119 0.8504333
000120 b2 8c 8e be 23 a9 51 3e 16 95 dd be 7d 1f 25 3f
       -0.27841717 0.20474677 -0.43277806 0.6450117
000130 b5 01 76 3f 8f 44 d9 3d d9 87 5e 3e dd 89 ed bd
       0.96096355 0.1060878 0.2173151 -0.11598561
000140 d2 fe 74 be e0 a0 33 3e 48 10 05 3f 4c 6d 58 bf
       -0.23925331 0.17541838 0.5197797 -0.84541774
000150 3c f3 ab be 59 4d fa be c8 e9 c3 3e 04 0c 1b 3f
       -0.3358401 -0.48887137 0.38264298 0.6056521
000160 4a 77 47 bf be a8 59 bf 91 c2 44 3f f1 32 05 bf
       -0.77916396 -0.85023105 0.76859385 -0.52030855
000170 d7 0f a1 be f1 c7 f2 be bf 9c 7c 3f 29 7f 27 bf
       -0.31457397 -0.47418168 0.98676676 -0.65428406
000180 3a 6a cc be 57 82 21 3f 6e a8 06 bf 54 e9 55 3f
       -0.39924794 0.6308951 -0.52600753 0.83559155
000190 66 cf 39 bf 0f 5c a0 be 70 13 4c be 29 d6 17 3f
       -0.7258209 -0.31320235 -0.1992929 0.5931116
0001a0 b2 bd be 3e 96 20 cf be 4f 38 e1 be e7 81 3f 3f
       0.372541 -0.4045455 -0.43988273 0.7480759
0001b0 cf 86 16 be f6 21 9c 3d 02 3f ca 3d 3e d1 db 3e
       -0.14699863 0.07623665 0.09875299 0.42933077
0001c0 26 4c 0d 3f bd 70 6b be db ec 70 be 90 59 9e 3e
       0.5519432 -0.22992225 -0.23527853 0.30927706
0001d0 47 bb 72 3f 5b 6c 72 ba 3b 12 33 3f 89 e3 74 bd
       0.9481701 -0.00092477136 0.6994969 -0.059787307
0001e0 11 82 66 3f 3f 76 21 3f f0 29 8e be 1e 43 97 bd
       0.90042216 0.63071054 -0.2776637 -0.073858485
0001f0 b5 c2 67 3f 10 15 61 3f 47 d6 1e 3f f7 11 4b bf
       0.90531474 0.87922764 0.6204571 -0.7932429

model.2.weight f4 [128, 128]
000000 5b 72 96 bd 33 b4 0f 3d 7d f8 94 3d be 8f 71 3b
       -0.0734603 0.03508396 0.07273958 0.0036859359
000010 9f fc 0c 3d 9c 57 91 3d a8 07 cb 37 78 aa 89 bc
       0.034420606 0.07096788 2.4203051e-05 -0.016804919
000020 50 a0 84 3d e0 bb 98 bd 2b e7 13 3c 78 1e 2a bd
       0.0647589 -0.07457709 0.009027283 -0.041532964
000030 b8 c7 3b bd 6a 24 f0 bb 1e 97 07 bd 4a 5f 0d bd
       -0.045844764 -0.0073285596 -0.0331031 -0.034514703
000040 06 5d 31 3c 55 72 2e 3d 8f 6f f3 bc 75 84 43 bd
       0.010825401 0.042589504 -0.029716281 -0.047733743
000050 ed 9c af bb 9a 90 da 3c 31 17 8f 3d d0 c4 3e 3d
       -0.005359283 0.02668028 0.06986845 0.046574414
000060 dc 3a a8 bd fd 12 b2 3d 83 af 34 bd 38 73 ac 3c
       -0.082143515 0.08695028 -0.044112694 0.021051034
000070 49 2d 90 bb 45 df 4b bd 07 11 62 bc 7a e7 e3 bc
       -0.0043999297 -0.049773473 -0.013798005 -0.027820338
000080 e0 9e a5 3d ea 5b 0b 3d d2 0a 3e 3c db 13 ad 3c
       0.080869436 0.034023203 0.011599259 0.021127632
000090 34 0c 2c bd 26 b1 ee bc 2b 02 f0 bc 38 f1 4a 3d
       -0.042003825 -0.029137205 -0.029297909 0.04954645
0000a0 fc 2f 7b bc eb 62 ab 3d 2f 66 9b 3b dd 5d a0 bd
       -0.015331265 0.083684765 0.004742406 -0.07830403
0000b0 53 fe 8c bd 96 02 86 bd e6 2d ad bd aa 20 bc b9
       -0.06884446 -0.06543462 -0.0845602 -0.0003588249
0000c0 00 10 bc ba e6 fa 3a bd e6 c9 c6 3c 30 fb 3a 3c
       -0.001434803 -0.04564943 0.024266195 0.011412427
0000d0 3f b3 30 bd 0c 6f ca 3c 40 84 40 3d 53 06 0d 3d
       -0.043139692 0.024711154 0.047001123 0.03442986
0000e0 fb 4e f1 3b ee b3 6d bd e5 31 8c 3d 7b 75 00 3d
       0.0073641515 -0.058032922 0.06845454 0.031362038
0000f0 ae 43 1f 3c b7 0a 21 3d 46 e5 56 bd b1 29 b4 bd
       0.009720726 0.03931686 -0.052464746 -0.087970145
000100 e7 60 0d bd 2b a9 8c bd f9 59 97 bd b2 3e 2b bd
       -0.03451624 -0.06868204 -0.07390208 -0.041807838
000110 3d 95 37 3d 76 fe 6c bd 07 6c 3a bd 4d ff d7 3c
       0.04482006 -0.05785986 -0.04551318 0.026366854
000120 6a e0 8f 3c dd aa 05 3d 09 49 5b 3c 77 e5 51 3d
       0.017563064 0.03263365 0.013384112 0.051244225
000130 1e eb 89 bd 01 0f 9e bd 64 10 a7 bd 4e e8 1e bc
       -0.06734298 -0.077177055 -0.08157423 -0.00969894
000140 57 1b a6 3d f0 93 b0 3d 29 95 3c 3d 98 33 56 3d
       0.081106834 0.08621967 0.046040688 0.052295297
000150 c5 67 a2 3d 53 f6 ab 3d ac 13 86 bc c8 57 a9 3c
       0.07929949 0.08396592 -0.016366802 0.02067174
000160 0a 86 2c bc b9 08 87 bd f0 86 dd bb 72 a3 af bd
       -0.010530004 -0.065934606 -0.0067604706 -0.085760966
000170 64 fe 04 3c a1 86 ee 3c e5 5e 9a bc 0e f9 92 bd
       0.008117292 0.02911693 -0.018844077 -0.0717641
000180 e0 12 9d bd 61 49 a4 3d d1 fa 86 bd 60 97 a8 ba
       -0.07669616 0.080218084 -0.06590808 -0.0012862496
000190 0a c9 ae 3d 6c c0 20 3d cd d6 82 bb 76 b5 0c 3c
       0.08534439 0.039246008 -0.0039928914 0.0085881855
0001a0 8d 0a ac 3d e2 6b ad 3d 96 27 9d 3d 05 58 2c 3d
       0.0840045 0.08467843 0.07673566 0.04207613
0001b0 4d 10 a0 3d 2a 0a e8 bc 40 de ac bd b9 90 4e bd
       0.07815609 -0.02832516 -0.08440828 -0.050430987
0001c0 1a 5e b7 3a ec 70 93 3d a7 94 92 3d 4d 00 5f bc
       0.0013989836 0.071992725 0.071572594 -0.013610912
0001d0 f8 b9 cb 3c 45 7f 8d 3d c0 a5 37 bd b3 29 36 3c
       0.02486895 0.0690904 -0.044835806 0.01111834
0001e0 8a e8 f0 bc 7a 34 2b 3c 2d 0f 05 bd 13 0c e2 3c
       -0.029407758 0.010449523 -0.032485176 0.027593648
0001f0 1e bc 23 3d 23 09 dd bc 1b fe 02 3d 31 0c b5 bd
       0.039974324 -0.026981896 0.031980615 -0.08840216
000200 5d 13 7f 3d 52 08 ad bd ff b1 73 bc 5b d1 38 3d
       0.062274326 -0.084488526 -0.014873981 0.045121532
000210 f1 53 98 bd f4 33 87 bd 19 12 e7 3c a0 a1 73 bd
       -0.074378856 -0.06601706 0.028206872 -0.05948031
000220 30 0c 99 bb 12 83 9d 3c 64 00 53 3d f8 af 6e 3d
       -0.0046706423 0.019227538 0.051514044 0.058273286
000230 f1 13 74 3d 34 46 85 3d 58 a1 9a bd b8 68 8d 3c
       0.05958933 0.06507531 -0.07550305 0.017261848
000240 78 08 e0 3c 7b 49 2a 3d ea fc a8 3c bd 2e da 3c
       0.027347788 0.041573983 0.020628411 0.026633615
000250 a8 bf 2b bd c9 0f 98 3c ea 0c 90 3c 59 92 b3 3d
       -0.041930825 0.018562214 0.017584283 0.08768148
000260 25 a6 09 3c 91 f4 8f 3d 49 85 5c bd 20 bc 93 bd
       0.008401428 0.07029069 -0.053838048 -0.07213616
000270 a0 88 2d 3d f8 d6 c1 3c 4e c7 76 bd 12 d3 51 3d
       0.042366624 0.023662075 -0.060248666 0.051226683
000280 b3 af 5d bd f9 e9 b5 bc 91 ca de bc 75 4b 35 bd
       -0.054122638 -0.022206293 -0.0271962 -0.044261415
000290 ad 9d 7e 3d 6f 62 5c 3d 31 ad fb bc 07 11 9e bb
       0.06216209 0.05380481 -0.030722233 -0.004823807
0002a0 94 3e 15 3d 79 7c ae bd 82 b7 29 3d 51 15 8c 3d
       0.036436632 -0.08519835 0.041434772 0.06840003
0002b0 cc f0 15 3c 48 7d 72 bd 3a 9b 9c 3c 25 c7 67 3c
       0.009151649 -0.05920151 0.019116987 0.014146601
0002c0 03 cb f7 3c b1 e7 63 3d d6 e3 3d bd cc 73 78 3c
       0.03024817 0.05564088 -0.04635986 0.015164327
0002d0 4c a9 87 bb 52 32 d0 bc 9e 75 7b 3c 33 6a a3 3d
       -0.004140055 -0.02541462 0.015347866 0.0797924
0002e0 4e cb 86 3b e0 39 0a 3d d3 a3 c6 bb 41 7e af 3d
       0.0041135913 0.0337466 -0.00606201 0.08569003
0002f0 4a 0d 30 3d c6 08 77 bc b4 50 8f 3d b2 d2 8b bd
       0.042981423 -0.015077775 0.06997815 -0.06827296
000300 88 df 99 3d a6 44 6a 3d ba d0 8d 3d 06 58 c6 bc
       0.07513338 0.057194375 0.06924577 -0.024211895
000310 df cb 5a bd db ff 86 bd 92 9b e1 3c 93 ca 3e 3d
       -0.053417083 -0.06591769 0.027540002 0.04657991
000320 dc 08 6f bd 98 4a 87 bd 11 ba d7 3c 13 5c 1e 3d
       -0.05835806 -0.066060245 0.02633384 0.038662028
000330 10 f4 66 bd 4d 1f bb 3a 84 ed 50 3d d7 e8 07 3d
       -0.0563851 0.0014276296 0.051007763 0.033181038
000340 98 f4 23 3c 61 10 c4 bc cf 28 af 3b fd ef 83 bd
       0.010007046 -0.023933591 0.005345441 -0.064422585
000350 66 1f 96 bd 43 50 5c bd b5 23 7b 3c 6e ca 81 bd
       -0.073302075 -0.05378748 0.015328337 -0.063374385
000360 9e 47 70 3c 4a da 3b bd 52 6a 5d bd d6 c8 7d 3d
       0.014665512 -0.045862474 -0.054056473 0.06195911
000370 79 e1 ae bd 75 d1 22 bd b3 c6 92 3d ac f3 0d 3c
       -0.08539099 -0.039750535 0.07166805 0.008664053
000380 26 31 ee ba df 15 3a 3d ad b0 5e 3d 85 55 d5 3a
       -0.0018172606 0.045431014 0.05436771 0.0016276097
000390 ad 65 0f bd e9 a0 a9 bd d0 63 55 3d 7b b0 06 3d
       -0.035009075 -0.08282644 0.05209714 0.03288315
0003a0 54 51 06 bd f1 5a 58 bb 33 4e ab 3d 2d b9 92 3d
       -0.032792404 -0.003301319 0.08364525 0.07164226
0003b0 fd bc 01 3d 5d b6 58 bd ce 2a a9 3d 08 5b e1 3c
       0.031674374 -0.05290829 0.082601175 0.027509227
0003c0 85 c3 a1 3d 8c 4b b1 bd 27 32 a1 3d 3a 44 c5 bc
       0.078986205 -0.086569875 0.07870894 -0.024080385
0003d0 f8 e7 8d 3d b6 e1 8e 3d 34 7e fc 3c 64 93 c7 bb
       0.0692901 0.06976645 0.030821897 -0.0060905684
0003e0 0a e7 e7 3b 97 e6 d5 bc a9 44 a7 3d bb d7 8f 3d
       0.0070771025 -0.02611093 0.08167393 0.07023569
0003f0 54 3b ed 3c 37 02 9e bc 3c 02 1a bd 4b 50 a0 bc
       0.028958954 -0.019288165 -0.037599787 -0.019569537

model.2.bias f4 [128]
000000 d6 cf aa bd 3f 62 a5 bb 77 42 a4 3c f6 10 96 3d
       -0.08340423 -0.0050471122 0.020051224 0.07327454
000010 ca 37 8f bd 68 98 80 3d 30 33 25 3d 24 92 96 bd
       -0.06993063 0.06279069 0.04033202 -0.07352093
000020 f3 20 0a 3d 85 f9 30 3c d9 90 79 3d 25 ae 91 ba
       0.03372283 0.010801678 0.060929153 -0.0011114521
000030 06 23 17 3c 72 77 b1 3d 1a 76 8d bd c8 fa e7 3c
       0.009224659 0.086653605 -0.06907292 0.028317824
000040 72 a0 02 bd 0d 25 b4 3c c9 05 32 3d 0b 58 8a bd
       -0.031891294 0.021990323 0.04346255 -0.06755074
000050 d0 ce 72 bd e2 1d 18 3d 1c 91 2b bd 3b ed a8 bd
       -0.059279263 0.037137873 -0.041886434 -0.08248373
000060 af 47 fe bc 1f a8 69 bd d4 ef 93 3c c7 97 1d bd
       -0.03104004 -0.0570451 0.018058695 -0.038474824
000070 bf 30 7f bb e3 43 a7 3d 6e aa a2 3d f3 c5 34 3d
       -0.0038938967 0.08167245 0.07942663 0.04413409
000080 df a5 0b bc 65 9a 14 bd 47 78 e6 3c 34 49 8a ba
       -0.0085234335 -0.036280055 0.028133525 -0.0010550381
000090 3a 57 3e 3d 7b 2e 90 3d c1 87 88 3d dd 78 b0 bd
       0.046469904 0.070401154 0.06666518 -0.08616803
0000a0 e8 55 84 bd 9f 86 ac 3b 40 9c 86 bd 22 2d c9 3b
       -0.06461698 0.0052650715 -0.06572771 0.0061394135
0000b0 c5 b9 ef bc 3d fb 01 bd 21 47 9d bc 5b 11 88 3d
       -0.029263387 -0.03173374 -0.019198956 0.06643935
0000c0 07 b6 06 bd aa e6 bb 3c bf 70 a7 bd a9 62 61 3d
       -0.03288844 0.022937138 -0.081758015 0.05502573
0000d0 d5 05 83 3d f7 e0 44 3d 45 44 6f 3d 8c c8 8f 3d
       0.06397597 0.048066106 0.058414716 0.07020673
0000e0 c8 2d 9d 3d 40 0b 1c bc 38 69 08 bd 95 7c ea 3c
       0.07674748 -0.009524167 -0.03330347 0.028623858
0000f0 b5 40 40 bd 14 fb 29 3c 7c fa b4 3d e4 11 ed bb
       -0.04693671 0.010374803 0.088368386 -0.0072347987
000100 0c 76 9e bd 9b f6 3e 3d 34 e3 f2 bc bd 10 04 3c
       -0.077373594 0.0466219 -0.029649355 0.008060631
000110 4c 3e a6 bd e9 31 a5 bd 64 39 24 3d c4 e8 4c 3d
       -0.08117351 -0.0806616 0.040093794 0.05002667
000120 82 dd 86 3d ab 4f 99 3d 52 28 6f bd c5 72 65 bd
       0.06585218 0.074858986 -0.05838806 -0.056017656
000130 57 e5 8e 3c d9 82 69 bd 67 1c 56 3d ed 1d 7e 3d
       0.017443342 -0.05700955 0.05227318 0.06204026
000140 16 29 cc bb 3a ea 69 3d 29 cd b2 bd 48 65 d7 bc
       -0.0062304838 0.05710814 -0.087305374 -0.026293412
000150 37 9a 81 bd 37 b8 3f 3d 9e eb af 3d d8 d0 76 3d
       -0.06328242 0.04680654 0.08589862 0.060257763
000160 92 69 09 3c 8f 45 49 3d 08 3f 90 3d 21 49 94 bc
       0.008386986 0.049138602 0.07043272 -0.018101277
000170 fa 4a 7a bc ee d7 59 3d 12 96 52 3b f4 9b ae bd
       -0.015276665 0.053184442 0.0032132906 -0.085258394
000180 a7 27 3b 3b a4 1c ef ba d4 75 62 bc 21 1b 95 3d
       0.002855757 -0.0018242789 -0.013822038 0.07280565
000190 7b f8 24 bc 85 a1 6f bd 68 ee c8 bc c1 8d 1e bd
       -0.010069008 -0.058503646 -0.024527743 -0.038709406
0001a0 42 f0 52 bd 7e 19 84 3d 7d c3 30 3d 77 b7 a6 bd
       -0.05149866 0.06450175 0.043155182 -0.08140462
0001b0 38 a6 a6 bd 0a 24 92 bd 0b 0e 9d bd 1b 20 ea 3c
       -0.081371725 -0.0713578 -0.07668694 0.028579762
0001c0 f1 16 2f bc cc ae 2a bd 9a a7 c4 3c 61 9d eb bc
       -0.010686622 -0.041670606 0.0240057 -0.028761568
0001d0 ef c4 54 3d 4a 87 25 bd 7c 85 21 bd 1e 70 b4 bc
       0.051945623 -0.040412225 -0.03943394 -0.022026118
0001e0 47 06 88 bd 9b d0 29 bc ea cf be 3b c8 6c eb 3c
       -0.06641822 -0.010364677 0.005823125 0.028738394
0001f0 78 6e a3 bc d2 27 74 bd 34 a0 a0 3d 04 58 dc bc
       -0.019950137 -0.059608288 0.07843056 -0.026897438

model.4.weight f4 [128, 128]
000000 b5 36 78 bd d1 26 1d 3d d5 e1 3a bd 90 ce d6 3b
       -0.060599048 0.038367096 -0.045625526 0.006555386
000010 29 4c 67 bb 3b 20 64 bc ba 91 98 3c 88 29 0f 3b
       -0.0035293198 -0.0139237 0.018624175 0.0021844823
000020 9a 17 91 bd dd 18 d1 3c 03 df 46 3c a6 0c 77 bb
       -0.0708458 0.025524551 0.012138131 -0.0037696748
000030 39 0e 40 ba 8b 4d 61 3d 4e 7e 2c 3c f7 1f 87 bd
       -0.0007326338 0.05500559 0.01052816 -0.06597894
000040 49 c1 4f bd 27 c8 33 3d e4 09 a3 bd 21 db 9f bd
       -0.05072144 0.043892052 -0.07960871 -0.078054674
000050 e5 26 81 3d 14 2f 8f 3c 03 e3 cf 3c 66 c8 5c bd
       0.06306247 0.017478503 0.025376802 -0.053902052
000060 f3 a9 6d bd 55 af 95 3d 23 53 dd 3c f3 a7 9f 3c
       -0.058023404 0.073088326 0.027017182 0.019489264
000070 19 96 a1 3d 97 0a 7a bd 86 d7 b9 bc 31 47 4f 3d
       0.07889957 -0.061045256 -0.022685777 0.050605003
000080 86 20 11 bd 73 a8 96 3d ba 0a a6 bd e8 a6 99 bd
       -0.035431407 0.07356348 -0.08107515 -0.07502538
000090 d6 4b 22 bd cb 9a 96 bd 5e 20 97 bd 38 21 c5 3c
       -0.039623104 -0.07353743 -0.073792204 0.024063691
0000a0 f9 fa 85 3d 37 fb 9c bd f1 a2 ad bd 72 53 27 3d
       0.0654201 -0.07665103 -0.08478344 0.040851064
0000b0 c0 52 27 bd c9 7d 35 3d be 51 74 bd 96 07 2b bc
       -0.0408504 0.04430941 -0.059648268 -0.01043882
0000c0 a0 46 1a 3d 32 2e 8f bd 9b 93 14 bd 1f ba 92 bd
       0.03766501 -0.06991233 -0.03627358 -0.07164406
0000d0 7f 82 91 3d 80 3f 71 3c b1 1f a6 bc 38 7d 95 3d
       0.07104968 0.014724612 -0.020278784 0.07299274
0000e0 33 f4 54 3d bb 3d a3 bd 38 82 51 3d 40 37 b1 3c
       0.0519907 -0.079707585 0.051149577 0.02163279
0000f0 1b 1f 4f ba 9b 32 fc 3c f3 d4 fb bc 8c 2d b1 3d
       -0.00079010584 0.03078585 -0.03074119 0.086512655
000100 cf 7d 7c 3d 01 fe 36 3d cb d1 9b 3d d3 4f 72 3d
       0.061643418 0.04467583 0.07608374 0.059158158
000110 dd a5 00 bc 65 c1 a8 bc 4b 73 94 3c 28 d1 36 bc
       -0.007852045 -0.02060003 0.018121382 -0.011158265
000120 40 38 55 3c a8 e3 9e 3d 21 92 8c 3d f9 e5 a8 bd
       0.013013899 0.07758266 0.068638094 -0.08246989
000130 85 e6 b5 3d 72 5a f7 3c 84 43 85 3b 2c 02 23 bc
       0.08881859 0.030194495 0.0040668864 -0.009949248
000140 b9 80 96 bd 16 d7 a3 3d 40 2d c2 3c 81 2a 51 bc
       -0.07348771 0.08000009 0.023703218 -0.012766481
000150 a4 75 8f bd b5 5c 3f bd 41 42 b1 bc c9 c3 4e 3d
       -0.0700486 -0.04671927 -0.021638038 0.050479684
000160 47 58 ed bc 14 47 b9 3b 6c a8 a0 3c ba 08 ad bd
       -0.028972758 0.005654225 0.01961156 -0.0844893
000170 e2 70 c0 3c 51 09 62 3d 40 64 60 3d 29 76 5e bd
       0.023491327 0.055184666 0.054783106 -0.054311905
000180 8b a9 9f bd c6 a7 a2 bd 4c 06 84 3b 70 c3 5c 3d
       -0.0779601 -0.079421565 0.004029071 0.05389732
000190 05 20 2f 3d 45 4d 7b 3c d8 46 ac 3d 85 33 91 bd
       0.042755146 0.015338247 0.0841195 -0.07089905
0001a0 90 4d 44 bd 5a fb b8 3c 5e 93 af 3d b5 2f 0c bd
       -0.047925532 0.022580791 0.0857303 -0.034225184
0001b0 18 76 3c bd 4f 45 94 bd ba ae a8 bd 0f e7 4b bc
       -0.04601106 -0.07239782 -0.082364514 -0.012445225
0001c0 93 c5 8e bd 95 59 00 bd 70 47 b3 bd 04 d8 95 bd
       -0.06971278 -0.031335432 -0.0875386 -0.07316592
0001d0 2c 65 a9 3d e1 b7 54 bc 88 d2 e0 3b bc fb 95 3d
       0.0827125 -0.012983293 0.006861035 0.07323405
0001e0 35 e0 46 bd 49 ba d5 bc 4f 9a e3 bc eb f8 38 3d
       -0.048553664 -0.026089804 -0.027783541 0.04515926
0001f0 d1 79 94 3d 79 88 c9 bb c9 5e b9 3c 59 1b d3 3c
       0.07249797 -0.006150302 0.022628205 0.025769876
000200 03 3a b5 bb 34 e2 9d bd 0b 54 9c 3d 51 35 11 3d
       -0.005530597 -0.077091604 0.076332174 0.035451237
000210 50 37 7f bb 95 c2 41 bb 9e 06 15 bd d3 d2 b7 3c
       -0.003894288 -0.0029565443 -0.036383264 0.022439396
000220 74 ea ab bd 5d 84 f8 3b 8a 62 2a bd 44 7f 44 3d
       -0.08394328 0.0075841383 -0.04159788 0.047972932
000230 9c af 2f bd 4c fb 83 bc 9e 78 f3 bc 71 e5 ab bd
       -0.042892084 -0.016111039 -0.0297206 -0.08393372
000240 33 a0 9f bd 55 dd d1 bc eb b4 a3 bd ef b9 45 3d
       -0.077942275 -0.025618235 -0.07993492 0.048273023
000250 8a 92 92 3d cb 40 39 3d 72 b1 6d bc 64 cb 93 bd
       0.07156856 0.045227807 -0.014507638 -0.07216528
000260 ed 23 02 3d 58 12 6b bd e1 ea 80 3d 3a af 7e bd
       0.031772543 -0.05739054 0.062947996 -0.062178828
000270 c5 14 a2 3d a3 c9 7f bd 8b a4 cf 3b c6 bc 3d bd
       0.07914118 -0.062448155 0.0063367537 -0.046322607
000280 68 a4 ff bc 40 17 f5 3c e4 1b 83 3d a6 7c 87 3d
       -0.031206325 0.029918313 0.06401804 0.06615572
000290 db 42 2f bc 85 80 52 bd 4a f0 bc 3b d4 61 ab bd
       -0.010697092 -0.051392097 0.0057659494 -0.083682686
0002a0 7f 05 90 3d d8 e3 76 3c 80 08 cd bc b7 9b 6d 3d
       0.07032298 0.015068971 -0.025028467 0.05800983
0002b0 ff 76 7f bd 0d 63 a5 3d 3e 55 3d 3d 32 af 47 bd
       -0.062369343 0.08075533 0.04622387 -0.048751064
0002c0 21 b1 3c bd 7d 3c b3 bd 1a 21 02 3d 50 56 97 3d
       -0.04606736 -0.087517716 0.03176985 0.0738951
0002d0 dd d3 3f bd 98 a0 a1 bd 21 5b 0f bc 3a 62 84 bd
       -0.046832908 -0.07891959 -0.008749754 -0.06464048
0002e0 01 15 93 bd a5 49 79 3d 16 e4 a9 bd fb 20 e7 3b
       -0.071817406 0.06086125 -0.08295457 0.007053492
0002f0 3f 7f 81 bd 53 52 c6 3c 5c 8e 0a bd 38 9c 9a 3c
       -0.063230984 0.024209177 -0.03382717 0.018873319
000300 cc da 92 3d 8a 83 58 bd 06 bd 2a bd 52 b7 b1 3d
       0.071706384 -0.05285982 -0.041684173 0.08677544
000310 d1 ce f3 bc d2 d1 28 3d 2d ee 25 3a 1f 5b 7b bb
       -0.029761704 0.041215725 0.00063297414 -0.0038353873
000320 be f6 6e 3d d2 c8 4e bd 8c 71 36 bc 66 f4 a4 bd
       0.05834078 -0.050484486 -0.01113547 -0.08054428
000330 eb bc a2 bd c3 62 14 3d d7 00 a5 bd b9 fb 82 bc
       -0.079461895 0.036227 -0.08056801 -0.015989171
000340 29 d7 87 bd 69 64 55 bc c7 72 91 3d 9e c1 89 3c
       -0.066328354 -0.013024428 0.0710197 0.016815957
000350 00 c9 6a 3d 6c b0 b4 3d 58 07 50 bd 8d ef 6d 3d
       0.057320595 0.08822712 -0.050788254 0.05808978
000360 74 f7 71 bd ba 2b 7b 3d be 59 b3 bd 9e 53 93 3d
       -0.05907388 0.061320998 -0.08757351 0.07193683
000370 70 bf cc 3c 2c 48 01 bd c4 63 9b 38 44 ae a6 3c
       0.024993628 -0.03156297 7.409559e-05 0.020346768
000380 b0 1d 06 bd 37 f5 70 bd 9a 6f b0 3c 93 21 16 3b
       -0.032743156 -0.058827605 0.02153759 0.0022908195
000390 6b 2a 9c 3b 99 74 8e bd e8 93 1a 3d 2d a2 b0 bd
       0.004765799 -0.06955833 0.03773871 -0.086246826
0003a0 82 20 34 bb c7 03 6f 3d 57 50 5f 3d 97 58 7a bd
       -0.0027485196 0.05835321 0.054519977 -0.061119642
0003b0 66 f7 a7 bd 44 b3 97 bd 15 e9 9c bd f0 b6 ba 3c
       -0.082014844 -0.07407239 -0.07661644 0.02279231
0003c0 6f 55 3a bd 85 94 33 3d a4 2a ad 3d ed a2 61 bd
       -0.045491632 0.04384281 0.08455399 -0.05508702
0003d0 1f e1 47 3d bf ee 96 bd f4 75 f2 bc 0c 66 90 38
       0.048798677 -0.07369756 -0.02959726 6.885463e-05
0003e0 ad 57 84 bd 17 b7 1c bd 89 b8 af bd 10 ad 90 3d
       -0.06462035 -0.038260546 -0.08580119 0.07064259
0003f0 36 ee 11 bd b5 fc b5 bc c7 40 83 bd fb 06 90 3d
       -0.035627566 -0.022215227 -0.0640884 0.070325814

model.4.bias f4 [128]
000000 90 5f 19 bd 92 32 21 3d 9a b3 22 bb 69 c9 93 bd
       -0.03744465 0.03935487 -0.002482629 -0.0721615
000010 f5 a2 21 3b 56 71 2f bd 89 1b a7 bd cc aa 47 3d
       0.002466378 -0.042832695 -0.08159549 0.04874687
000020 86 cc 89 bd d6 d8 74 3d c1 50 0a 3d 12 72 5c 3c
       -0.06728463 0.059777103 0.03376842 0.013454931
000030 d2 e6 be bc 8a e8 ad 3c f2 da 0e 3d 32 5f ba 3c
       -0.023303423 0.021229047 0.03487677 0.02275047
000040 71 64 00 bc 46 f1 19 3d ab 8f 2e 3d fb 2b 94 bd
       -0.007836447 0.037583612 0.04261748 -0.07234951
000050 8f c4 9e bd 93 a9 97 bd f8 d3 22 bc 7e 4f 5d 3d
       -0.07752334 -0.074053906 -0.009938233 0.054030888
000060 b6 76 7a 3d 2d 3e 61 3c 95 cd a1 bd 0f 58 11 3c
       0.061148368 0.013747734 -0.0790054 0.008871092
000070 9b 02 ba 3c eb 24 8a bc a5 6e a1 bd 3b e4 ae 3d
       0.02270632 -0.016863307 -0.07882432 0.08539625
000080 7c 96 aa 3c 16 f6 e8 3c 37 68 18 3c 1e 0c bf 3c
       0.02082371 0.028437655 0.0093021905 0.023321208
000090 53 bf e2 bc bd 0d 17 3d 18 2c ce bc c7 82 a1 3d
       -0.027679121 0.036878336 -0.02516751 0.07886272
0000a0 53 a9 30 bd 4c 8e af 3d e7 17 bf bc 9d 6c 9d 3b
       -0.04313023 0.08572063 -0.023326827 0.0048042075
0000b0 ce ca 30 3d 98 48 c4 39 b5 43 3f 3c 50 2a 3e bd
       0.04316216 0.0003743812 0.011673857 -0.04642707
0000c0 e5 c6 53 bd 62 af 61 bd ed 01 9e 3d 02 f9 a6 bd
       -0.051703352 -0.0550989 0.07715211 -0.08152963
0000d0 13 00 9b bb 77 7c 9b 3d 76 9b 7b 3c d5 43 8f 3d
       -0.0047302335 0.07592099 0.015356889 0.0699536
0000e0 65 34 24 bc c0 e4 99 3d 22 c4 cf 3c 33 b3 46 bd
       -0.010022257 0.07514334 0.025362078 -0.04851074
0000f0 3a 71 89 3d 00 dc 00 3d b3 fe 76 bc 3b bb 48 3d
       0.067110494 0.03145981 -0.015075373 0.049006682
000100 1d 34 81 3d 0d 19 93 bd d9 cc 5d 3d 10 47 41 bd
       0.06308768 -0.071825124 0.054150436 -0.04718691
000110 6a a1 fa 3c ee b3 a6 3b 89 cb 26 3d 39 63 a1 3d
       0.030594546 0.0050873673 0.04072145 0.07880253
000120 1f 25 02 3c 03 7a 93 3d 89 2d 71 3d ac 5a 2b 3d
       0.007943421 0.07201006 0.058881316 0.04183452
000130 17 86 7c 3d 68 e5 a7 bd 60 f7 50 3b 30 f5 1f bd
       0.061651316 -0.08198053 0.0031885728 -0.03905219
000140 70 be 43 3d 3a 67 a0 bd 48 e9 4a bb 95 c4 98 bd
       0.047789037 -0.07832189 -0.00309618 -0.0745937
000150 a0 a5 51 bb 24 8a 8d bd 9f 65 ab bd c3 49 44 3c
       -0.003198959 -0.06911114 -0.08368992 0.011980477
000160 26 21 a7 bc 26 91 21 3b a3 2a c2 bc 59 e7 48 bd
       -0.020401549 0.0024653166 -0.023701971 -0.049048755
000170 a2 ae 20 bb 48 de a7 bc e3 bf 2b bd f3 43 ea bc
       -0.0024518152 -0.020491734 -0.041931044 -0.028596854
000180 65 6b ab bd f7 bf d6 3c 4d 62 c3 bc 27 e7 05 bc
       -0.08370093 0.026214583 -0.023850584 -0.008172787
000190 1e 84 8e bd 2f 32 cd bc 5e 13 62 bd 2b 6f 95 3d
       -0.06958793 -0.025048343 -0.05519425 0.07296594
0001a0 e8 fa ec bc c8 36 82 bd 52 71 88 bd cb cc f7 3c
       -0.028928235 -0.06358105 -0.06662239 0.03024902
0001b0 07 c4 91 bd 7a 1c 07 3c 53 15 8c bc 6d 21 37 3d
       -0.071174674 0.008246535 -0.017100012 0.04470961
0001c0 6b ee 2c bd 77 9d a9 3d cf 01 a9 3d f4 58 a8 bc
       -0.04221956 0.08281987 0.08252298 -0.020550229
0001d0 de 8b cb bb 7f 3c a4 bd 6c 4c f3 bc 59 a6 16 3c
       -0.006211742 -0.08019351 -0.029699527 0.009194934
0001e0 b3 bc 8b 3d 2b c3 1e 3d 35 2d 16 3d dc 42 a7 3d
       0.06823101 0.038760345 0.036664207 0.08167049
0001f0 f6 6e e9 3c cc 57 a8 bd c4 e0 a3 bc 72 a3 60 bd
       0.028495293 -0.08219871 -0.020004638 -0.054843374

model.6.weight f4 [128, 128]
000000 b8 6c 8a bd 20 26 46 bd 23 e8 2f bc 85 13 a9 bd
       -0.06759018 -0.048376203 -0.010736498 -0.08255676
000010 3c 3b 0a bd f0 07 05 3d b7 91 d9 bc 7e 29 8b bd
       -0.033747897 0.032478273 -0.02655874 -0.067950234
000020 03 33 84 3d 7e 0d 80 3d 3a a0 d5 3c 1b bf d3 3c
       0.06455042 0.062525734 0.026077379 0.025847962
000030 1f 5b 74 bd 33 60 74 bb a3 53 72 3d 06 dc 77 bb
       -0.059657212 -0.0037288785 0.059161793 -0.0037820353
000040 8d ef 4f 3c 87 70 9a 3d 57 86 f7 3b bb e2 33 3c
       0.012691391 0.07540994 0.0075538564 0.01097935
000050 2f 8e 3d 3b f4 18 a7 3d 5e 65 2b bd 79 7e 4b 3d
       0.002892386 0.08159056 -0.04184472 0.04968116
000060 6d 91 24 bd f3 30 97 3d df ab 44 3d c4 d1 78 bd
       -0.04017775 0.07382383 0.04801547 -0.060746923
000070 70 ab 68 bb d8 23 94 bd 94 63 55 bd f7 5b 25 3d
       -0.0035502575 -0.07233399 -0.05209692 0.040370908
000080 ac 7e b1 bc f2 72 79 bd 61 d3 f7 3c ef b8 89 bc
       -0.021666847 -0.060900636 0.03025216 -0.016811816
000090 f9 80 0f bd 72 73 78 bd 56 16 2e 3b a1 7d 9c bd
       -0.035035107 -0.060656972 0.0026563606 -0.07641149
0000a0 f1 eb a5 bd aa 57 4e 3d 67 06 80 3d 50 f6 72 3d
       -0.08101643 0.05037657 0.06251221 0.059316933
0000b0 55 0e e8 3c f2 65 dc bc af dc e1 bc fe 2e 78 3d
       0.028327147 -0.02690408 -0.02757105 0.06059169
0000c0 5d bd 6d bd 00 6f c3 3c bd a7 56 3d 25 8f ee 3c
       -0.05804192 0.02385664 0.05240606 0.029120991
0000d0 87 3c 44 bc 5e fe 93 3d 3d b6 33 bd 25 19 5d bd
       -0.0119773215 0.07226251 -0.043874968 -0.053979058
0000e0 74 2f 25 bd 46 54 3d bd fc 4b 5a 3c 53 7d 92 3d
       -0.040328458 -0.046222948 0.01332378 0.0715281
0000f0 cc 34 bb bc 58 56 16 bd 37 f6 a8 bd 46 c3 af bc
       -0.022852324 -0.036703438 -0.08250087 -0.021455418
000100 93 48 6a 3c 08 da 51 bc 4e 34 ab bd a1 50 a4 bd
       0.01429953 -0.01280833 -0.08359586 -0.08023191
000110 55 5c 47 bc 81 ca 7b bd 71 f7 3c 3c 99 28 8d 3d
       -0.01216801 -0.06147242 0.011533604 0.06892509
000120 aa 2c 08 bd 5b a4 b2 bd 7d c3 86 bd 5d 4f 8c bc
       -0.03324572 -0.087227546 -0.06580255 -0.017127687
000130 67 fc 9d 3d 77 08 b0 3b 99 d7 01 bd 49 eb 05 3d
       0.077141576 0.005372103 -0.03169975 0.03269509
000140 31 43 2b 3d df a1 bf 3c a0 5f 48 bc 27 2d 71 bd
       0.041812126 0.023392616 -0.01222983 -0.05888095
000150 38 3b 44 3d d0 9e 9c bc 8e 37 68 3d 09 21 8d 3c
       0.047908038 -0.019118696 0.056693606 0.017227666
000160 4b 5c 0c 3b 99 3a 7a 3a 90 05 0b bd 93 b7 07 bd
       0.0021417316 0.0009545475 -0.03394085 -0.033134054
000170 48 9b 7a bd 5b 20 54 bb bb 9f 45 bc f2 65 2e 3d
       -0.061183244 -0.0032367918 -0.0120620085 0.04257769
000180 5a c1 81 3d 49 08 8c bd 80 36 69 3c 90 52 a6 bd
       0.06335707 -0.06837518 0.014234185 -0.08121216
000190 e7 79 37 bd b6 78 a1 3c 13 18 0d bd 6a c1 bb 3a
       -0.04479399 0.01971088 -0.034446787 0.001432461
0001a0 a7 7a 80 bc ca 79 ad 3d 87 d2 92 3c 36 78 e7 bc
       -0.015683485 0.08470495 0.017922653 -0.028255563
0001b0 5d ac cc 3c be d1 0b bd e4 2b 42 bd b2 ca 7d 3b
       0.024984533 -0.034135573 -0.04740514 0.0038725552
0001c0 e2 5b 8e bc f8 36 ed 3b ef 70 d7 bc 00 cd 11 3b
       -0.017377798 0.007239219 -0.026298968 0.0022247434
0001d0 73 e2 3e 3d 6d f5 15 3d 5e 9f 4b 3d f5 03 02 bd
       0.046602678 0.03661101 0.04971253 -0.031742055
0001e0 94 fa aa bd 27 74 04 bc 63 2c ab 3d b3 0e 9f 3c
       -0.08348575 -0.0080843335 0.083580755 0.019416189
0001f0 98 48 45 bd 34 fe b0 3d d7 87 ca bc 71 99 d3 3c
       -0.048164934 0.086422354 -0.024722977 0.025830003
000200 39 8a 9b 3d f2 f5 cd 3c ba 3f 4c bb da 88 9c bc
       0.07594723 0.02514169 -0.0031165914 -0.019108225
000210 a6 e3 70 3c 81 32 a8 3d e2 a2 e5 3c 5c 66 83 3d
       0.014702713 0.08212758 0.02803177 0.06416008
000220 e0 aa 87 3d 36 93 a3 bd ff d8 c2 3c 03 6d ab bd
       0.06624389 -0.07987063 0.023785112 -0.08370402
000230 e9 c9 39 bd ed 0d 08 bd 38 6c 57 3d bc 21 a4 3d
       -0.045358572 -0.033216406 0.05259344 0.08014247
000240 9d 24 18 3d f5 2e 52 3d 67 0c 88 bc 25 19 9f bb
       0.037144292 0.051314313 -0.016607476 -0.0048552924
000250 91 b7 7f 3b 7b bf d7 bc 06 16 07 3b 31 24 4b bd
       0.0039019326 -0.026336422 0.0020612492 -0.04959506
000260 24 93 a4 bd 20 5a 8a 3d 0b 62 69 bc 49 4c b7 bc
       -0.08035877 0.06755471 -0.014244567 -0.022375243
000270 b6 49 b8 bc 38 24 87 bd 45 aa 89 3d c3 10 9e bd
       -0.022496086 -0.06598705 0.067219295 -0.07718041
000280 85 05 61 bd 54 01 8c bd b3 63 1c bd a2 cd 8f bd
       -0.054936904 -0.06836191 -0.038181018 -0.07021643
000290 84 a0 31 bd 44 62 72 3d b0 3d 37 3c 88 9d 8e bd
       -0.04336597 0.059175745 0.011184141 -0.069636405
0002a0 eb 97 5b bd 1a 3a 1a bd a8 03 98 3d 6c ba 3a bd
       -0.053611677 -0.037653066 0.074225724 -0.045587942
0002b0 a2 39 0c bd d2 4f f4 3b b0 8b fb 3c 34 a3 03 bd
       -0.03423465 0.0074558044 0.030706257 -0.032138065
0002c0 11 95 6a bd a6 48 27 bd 1f 25 05 bd 3c a7 ae 3b
       -0.057271067 -0.040840767 -0.032506105 0.0053299945
0002d0 41 26 4a 3d 6d 35 5b bd 49 7a 8a bd e7 e7 a3 3d
       0.049352888 -0.053517748 -0.06761605 0.08003216
0002e0 22 95 9c 3d da a8 8d 3d 1a 58 99 bd fb ae 85 bd
       0.07645632 0.069169715 -0.07487507 -0.065275155
0002f0 51 0e 3e bd b6 46 96 3d d5 39 21 bb 81 6f 58 3d
       -0.046400372 0.07337706 -0.002460112 0.052840713
000300 54 e7 7e bd 29 64 4f bc fe 59 94 3b 56 cf 99 3c
       -0.06223233 -0.012658157 0.0045273295 0.018775623
000310 af f7 0f 3c ee 08 91 bd a9 9f 0d bc 04 5e 88 bd
       0.00878708 -0.07081781 -0.008644023 -0.06658557
000320 31 42 b2 3d c0 64 4b 3d 66 22 1c 3d 14 4f 9d bd
       0.08704031 0.04965663 0.038118742 -0.076810986
000330 6b e9 9e bd 54 6a 94 3b 59 0b 9b bd 6c 2c 66 3d
       -0.07759365 0.004529277 -0.07570524 0.056194708
000340 83 b8 7a bd df 06 65 3d 01 9e 37 bb 62 e4 84 bb
       -0.06121112 0.055914756 -0.0028017762 -0.0040555457
000350 fa 4b 17 3d be 69 ad 3d d8 48 37 3b 6f 6e 85 3d
       0.03693769 0.08467434 0.0027967002 0.06515204
000360 e9 6a 84 bd a6 4e ab 3d 1b c4 5d 3d 3e 50 05 3d
       -0.06465704 0.083646104 0.0541421 0.032547228
000370 52 c9 2d bc 05 68 26 3d 6b 92 67 bd 10 e9 01 3d
       -0.0106070805 0.040626545 -0.05653612 0.031716406
000380 0e 84 16 bd 67 cd 3f bd d0 87 1a 3d 03 86 2e bc
       -0.03674703 -0.046826746 0.037727177 -0.010652068
000390 d0 5d b7 3d 0f 8f 8f bd a4 13 9a bd dc 7c 12 bc
       0.0895344 -0.07009708 -0.075232774 -0.008940902
0003a0 f0 0c 17 bd a5 eb 34 bd f8 68 9b bd 5f a6 3a 3d
       -0.036877573 -0.04417004 -0.075883806 0.04556882
0003b0 ed 01 8c bc 3d 83 0e bc fc 3d 1c bd c6 73 66 3d
       -0.017090762 -0.008698282 -0.03814505 0.056262754
0003c0 54 d9 27 3d 70 7a d2 bc d0 d2 ab 3d b0 bd af bc
       0.040978745 -0.025693148 0.08389819 -0.021452755
0003d0 4f 9b af 3d 14 cf 3e 3d 13 65 0a 3d b3 11 a8 3d
       0.08574545 0.046584204 0.033787798 0.08206501
0003e0 b4 ce 92 3d bb e0 9c bd 0e b2 a0 bd 5b f6 4a bd
       0.07168332 -0.076600514 -0.07846461 -0.04955135
0003f0 b6 ca a1 3d ca 57 3d 3d 52 21 7e bd 32 45 b7 3d
       0.07899992 0.0462263 -0.062043495 0.08948745

model.6.bias f4 [128]
000000 fd 5b af bd a8 f7 83 3d 54 6e 31 3d 6e e9 ef bc
       -0.08562467 0.06443721 0.043318108 -0.029286113
000010 b4 76 5e bd db f7 34 3d 34 9a a4 3d 60 6e 44 3d
       -0.054312423 0.044181686 0.080372244 0.047956824
000020 f2 ba 3a bd 3a f2 80 bd 5f fb 95 bc 85 75 5f 3d
       -0.04558844 -0.06296201 -0.01830834 0.054555435
000030 6d 60 aa 3c b7 6c 5e bd 31 41 f9 3c 6d d9 04 bd
       0.020797933 -0.054302897 0.030426593 -0.032433916
000040 7d 61 73 bd e9 03 57 3c 63 4a d3 bc 0b 51 42 bd
       -0.059419144 0.013123491 -0.025792306 -0.04744057
000050 3a 8d b3 bc 6d 9e ff 3c e6 ac 23 3d 84 31 f2 bc
       -0.021917928 0.031203473 0.03995981 -0.029564627
000060 16 37 66 bb e8 20 51 3c 19 e7 9d bd c9 f7 be 3c
       -0.0035128049 0.012764193 -0.07710094 0.023311513
000070 8d f1 32 3d fc 3f 49 3d 72 b8 03 bd 3b 23 76 3d
       0.043687392 0.049133286 -0.032158323 0.060092192
000080 c3 9a a9 3b 07 00 7f ba dd 32 07 bd 6a 68 b8 bd
       0.0051759197 -0.0009727482 -0.03300749 -0.090042904
000090 6f de ce 3c 60 fa 47 bc 5d e8 45 bd 96 0e 12 3d
       0.025252549 -0.01220569 -0.048317302 0.03565844
0000a0 7a 08 72 bd d9 bc 81 bd 23 78 10 3c f1 93 6c bd
       -0.059090115 -0.06334848 0.008817705 -0.057758275
0000b0 38 e7 80 bd 23 75 66 bd 8c d1 53 bd 3d 76 bd bc
       -0.062941015 -0.056264054 -0.05171351 -0.02312767
0000c0 25 51 3b bd 78 f4 10 bd c2 41 a8 3d 4a 02 8a 3d
       -0.045731682 -0.035389394 0.08215667 0.06738718
0000d0 00 33 1a 3c a9 40 03 bd 48 42 3e 38 68 d9 bc bc
       0.009411573 -0.032044087 4.536126e-05 -0.023052886
0000e0 d9 52 74 ba 11 90 81 bd 07 f9 9a 3d 73 fc 87 3d
       -0.00093202066 -0.063263066 0.075670294 0.06639948
0000f0 f8 21 69 3d c2 4e da 3b 28 c3 9e bc 00 85 ac bc
       0.05691716 0.0066622207 -0.019380167 -0.021059513
000100 ab ef 0e 3d 6e 1c 63 3d 30 f2 9f bb a7 82 fd bb
       0.034896534 0.055447035 -0.004881166 -0.0077365222
000110 54 48 f3 bc 91 b8 a3 bc 23 3c 2c bd 10 17 77 3b
       -0.029697575 -0.019985469 -0.04204954 0.0037702955
000120 62 db 4a bd 38 1f 89 3d ed 77 06 bd 69 63 88 3d
       -0.049525626 0.06695408 -0.032829214 0.06659586
000130 ae 12 8d 3d 55 e2 8a 3d 81 f4 ae bd 19 f6 75 bd
       0.068883285 0.06781451 -0.08542729 -0.06004915
000140 d8 b8 72 3d d4 97 ab bd 1b 34 9d ba f8 5c 35 3c
       0.059258312 -0.08378568 -0.0011993678 0.011069529
000150 69 fa 0e 3d a1 a0 90 bc 9c 0b 8f bc 64 18 80 bd
       0.03490678 -0.017654719 -0.01746159 -0.06254652
000160 97 ea 3e 3d e2 01 5d 3d 87 39 a3 bd 81 af 13 bd
       0.04661044 0.053956874 -0.07969957 -0.036056045
000170 4e b0 be ba 8e c8 d4 3b 8c 33 c9 3c 35 66 2d bd
       -0.0014548393 0.0064936345 0.024560712 -0.0423338
000180 3e 14 6a bc 98 3c a9 bd 46 c7 4a 3c 96 9e aa 3d
       -0.014287053 -0.082635105 0.012376612 0.08331029
000190 6f cb a1 3d 87 70 71 3d f8 a3 52 bd f9 11 4f bd
       0.0790013 0.058945205 -0.051425904 -0.05055425
0001a0 3d b0 d8 3c 23 e2 f1 bb 13 d0 02 3b 11 73 5c 3c
       0.026451224 -0.007381694 0.0019960448 0.013455168
0001b0 a7 57 9f bd c5 c0 72 3d 3e d3 31 bd 34 9e 24 3c
       -0.0778039 0.05926587 -0.043414347 0.010047484
0001c0 9d e5 21 bd e7 2d 84 bd a8 59 3c bd d3 d7 97 3d
       -0.039525617 -0.06454068 -0.04598394 0.07414212
0001d0 90 ee 8f 3d fd 2c a3 bd 58 77 1b bd ce fd a9 bd
       0.07027924 -0.07967565 -0.037955612 -0.083003625
0001e0 e2 3d 0e bd 00 25 8d 3d 96 63 01 bd 75 34 91 3d
       -0.034726985 0.06891823 -0.031589113 0.070900835
0001f0 6b 31 1a 3d 4b 88 7e bd 1d fd fe 3c c9 42 b0 bd
       0.037644785 -0.062141698 0.031126553 -0.08606488

model.8.weight f4 [128, 128]
000000 47 16 99 bd 5c c3 53 3c f3 f7 27 3d 86 1f f5 bc
       -0.07474952 0.012924995 0.041007947 -0.029922258
000010 0d 81 98 3d 32 00 af 3c 85 59 96 bd 48 08 89 3c
       0.074464895 0.021362398 -0.07341293 0.016727582
000020 76 1f 77 bc e7 dd ad 3d 7f d0 40 bd 18 75 6c 3d
       -0.0150831845 0.0848959 -0.047073837 0.057728857
000030 0f 17 94 3d 6d 44 ab 3c 3f ab 24 bd c8 39 cd 3c
       0.072309606 0.020906651 -0.040202376 0.025051966
000040 33 73 4c bd 62 54 56 bd 55 a7 92 bc bc 21 f4 bc
       -0.04991455 -0.052326567 -0.017902056 -0.029801242
000050 9f 6f 5e 3c d9 dc 97 bd 33 1d ea bc 43 a9 97 3b
       0.013576417 -0.0741517 -0.028578376 0.004628332
000060 94 6f 44 3c a7 26 21 3d 04 97 a9 bd 36 cc 92 3d
       0.011989493 0.039343502 -0.08280757 0.071678564
000070 8a 87 81 bd 8e fe eb 3a ff cf 66 3d 69 56 b2 bd
       -0.0632468 0.001800494 0.056350704 -0.08707888
000080 e7 ae c0 3c 09 8e 54 bd 38 58 de 3c e1 83 b4 bc
       0.0235209 -0.051893268 0.027141675 -0.022035541
000090 6d db 96 bd fc 55 b8 bb 7e 82 9e 3c c3 a5 56 3d
       -0.07366071 -0.0056254845 0.019349333 0.052404176
0000a0 4c 73 17 3d bf 3c 25 3d b8 21 32 3d d2 8a ed 3c
       0.03697519 0.040341135 0.043489188 0.028996859
0000b0 ec 63 78 bc 3a 37 7a bc b0 2a 10 bd c4 1c ce bc
       -0.015160542 -0.015271956 -0.03519696 -0.0251602
0000c0 07 61 a6 3d e8 e4 9b bd 73 c6 8e 3d d5 db 5f 3d
       0.08123975 -0.0761202 0.06971445 0.054653008
0000d0 3e 38 9b 3d 6a e8 27 3c cb 6f ac bd 40 5a 25 bd
       0.07579087 0.010248283 -0.0841976 -0.040369272
0000e0 4a 1c 30 bd a9 ac 76 bb b9 b9 f6 3b 1a 94 66 bd
       -0.04299573 -0.0037639535 0.007529464 -0.056293584
0000f0 62 eb 8c bd 51 73 3d 3c 66 71 40 3b a4 a9 ac 3d
       -0.06880833 0.011563138 0.0029364466 0.08430794
000100 0a ab 7b bd e7 db 44 3d d6 94 56 3c d7 ef 30 3d
       -0.061442412 0.048061278 0.013097009 0.04319748
000110 9f 23 9b 3d a2 3c b8 3b 63 97 04 bd 49 89 9e bd
       0.075751536 0.0056224624 -0.032370936 -0.07741029
000120 e3 69 3f 3d 73 5b 38 3d 94 16 16 3c f6 4c 62 bc
       0.04673184 0.045009088 0.0091606565 -0.013812294
000130 45 ba 5a 3d 68 ff ae 3d 29 14 33 3d f6 b3 5f bb
       0.053400297 0.085448086 0.043720398 -0.0034134365
000140 73 16 c3 bc 1e 71 a6 3d 85 67 15 bd 9c 26 af 3b
       -0.023814416 0.08127044 -0.036475677 0.005345179
000150 ef 11 09 bd 4e 5c 52 3d bd be a1 bd 0a e7 76 bd
       -0.03346437 0.05135756 -0.078977086 -0.06027893
000160 4b 3f c5 bc 83 ad 6a 3d 9e 22 de bc 44 68 77 3d
       -0.024078032 0.05729438 -0.027116116 0.06040217
000170 bd ae d4 bc 84 5c 4c 3d bd ba 75 bc cc 3e 91 3d
       -0.025962228 0.049892917 -0.014998135 0.07092056
000180 14 83 8d bd de f2 aa bd 8c d3 aa 3d e2 07 86 3d
       -0.06909767 -0.083471045 0.083411306 0.06544472
000190 86 9d 89 bd 18 cb 91 3d 11 79 fd bc 62 f5 b5 bc
       -0.06719498 0.07118815 -0.030941518 -0.022211734
0001a0 a0 dd af 3c f0 13 83 3d 1a ea 91 bd 69 0c 7d bd
       0.021467984 0.06400287 -0.071247295 -0.061779413
0001b0 b1 83 85 bc 9a 40 d4 3c f7 c4 92 3d 07 89 5f 3d
       -0.016298147 0.02590971 0.07166474 0.05457404
0001c0 cc 90 20 3d 80 b4 8c bb 24 fc 89 bc ea 42 b9 bd
       0.03920059 -0.004293978 -0.016843863 -0.09045966
0001d0 da 13 b0 bc 70 4e f6 bc 7e 88 71 bd c0 55 fe bc
       -0.021493841 -0.030066699 -0.05896806 -0.031046748
0001e0 4c d0 c5 bc 9d 7a 61 bd 23 11 e2 bc 2d 0f 7b bd
       -0.024147175 -0.055048574 -0.027596062 -0.06129377
0001f0 41 4d 12 bd e5 81 b3 3b e2 81 01 3d 2e ee b1 3d
       -0.035718206 0.005478131 0.031618007 0.08688007
000200 22 17 85 bd 0b fc cd 3c 90 a9 7c bd 8e 69 97 bc
       -0.06498553 0.025144598 -0.061685145 -0.01848295
000210 5f 42 0e bc 58 ed 99 3d 22 3b 99 3c 42 e9 8c 3d
       -0.008682816 0.07515973 0.018704955 0.06880428
000220 16 6a 69 3b ee 75 55 bd 30 4c a2 bd 91 91 c2 3b
       0.003561621 -0.05211442 -0.07924688 0.005937763
000230 64 86 98 bd 30 7c 8e 3d 85 40 0d bd f8 dc af bd
       -0.07447508 0.06957281 -0.03448536 -0.08587068
000240 05 66 4d 3d 1f 30 7c bd 22 ea 44 bc 01 59 96 3d
       0.05014612 -0.06156933 -0.012018712 0.07341195
000250 94 3d 1d 3d 28 c5 8f 3d e9 eb 84 bd 3e 55 2c 3d
       0.038388804 0.070200264 -0.06490309 0.04207348
000260 9b e3 59 3b 61 d4 08 3c 5c b2 3d 3d 95 2a 52 bc
       0.0033247236 0.008351416 0.046312675 -0.012827535
000270 11 e9 20 bd e1 92 0e 3d 80 f5 f3 3c ca aa 03 3d
       -0.03928477 0.034808043 0.02978015 0.0321453
000280 51 d3 06 bd 35 ed 5c bd 39 0c a8 3d cc fa b8 bd
       -0.03291637 -0.053937156 0.08205456 -0.09032211
000290 2f d4 8f bd 8c d5 40 bc ae d3 26 3c 7d 8a 7c bd
       -0.07022893 -0.011769664 0.010182304 -0.06165551
0002a0 4c 69 a5 3d 70 53 62 bd c7 93 2e bd be 58 ad bd
       0.080767244 -0.055255353 -0.0426214 -0.08464192
0002b0 9f 46 9a 3d ad 87 a8 3d 58 bc e9 3c d7 9a 50 3d
       0.07533001 0.08229003 0.028532192 0.050928917
0002c0 6c a0 a3 3d 20 7c 56 3b b9 1b 87 3d a6 b5 26 bd
       0.079895824 0.0032727793 0.065970846 -0.040700577
0002d0 ee ca 3f bd ee f7 93 3c 14 34 8b bd 97 93 b8 bd
       -0.04682439 0.018062558 -0.067970425 -0.090125255
0002e0 ec c2 0d 3b f1 c8 4d 3d 25 8f 65 bb 0e a3 73 bd
       0.0021631075 0.05024046 -0.0035027948 -0.059481673
0002f0 90 2b e1 bc 07 c2 80 bd 73 3a 99 3c 37 fa 70 bd
       -0.027486593 -0.06287008 0.018704629 -0.058832373
000300 63 c6 6a bd bd 24 88 3d 9f 43 f6 3c 9d 14 37 bd
       -0.057318103 0.06647632 0.030061541 -0.044697393
000310 a7 cc 14 3d 30 94 7e bc 8e 12 1c 3b b8 85 54 3c
       0.036327984 -0.01553826 0.002381477 0.012971334
000320 6a dd ab bc cd 89 bc 3a fa 90 45 bd ed dd f9 bc
       -0.020979602 0.001438433 -0.048233964 -0.03050133
000330 ae 5e ae bc 66 ee 8c 3d 99 9d a9 bd 3e 58 92 3d
       -0.021285381 0.068814084 -0.082820125 0.07145737
000340 d3 f5 04 3d a7 5e 63 3d ff 56 90 bc 4a 34 ad 3d
       0.032461 0.05551019 -0.017619608 0.08457239
000350 32 bd 69 bd 58 1d 71 3c 51 bf 41 bd a4 00 0c bd
       -0.057065196 0.014716469 -0.047301594 -0.0341803
000360 de 83 95 bd a4 b6 76 bd 48 78 73 bd ff 9f 99 3d
       -0.07300542 -0.060232773 -0.05944088 0.0750122
000370 d9 1f f3 bc e8 db 9e bd b8 4a cc bc 78 0b ff bc
       -0.029678272 -0.077567875 -0.024937972 -0.031133398
000380 0b 0e 78 bb ba 26 ba bc 03 98 2a bd 03 67 72 3d
       -0.0037850167 -0.022723544 -0.041648876 0.05918027
000390 03 90 a0 3d 55 a5 96 bc a4 d2 07 bc f9 e5 1d 3d
       0.07839968 -0.018389383 -0.008289967 0.038549397
0003a0 96 16 b0 bb f6 44 81 3d 9a c4 fa bb 3c d7 73 bd
       -0.005373786 0.063119814 -0.0076528313 -0.059531435
0003b0 4d ee 4f 3d 6c 77 86 bb 70 d6 a8 bd e0 69 6d 3d
       0.05076437 -0.0041035917 -0.08244026 0.0579623
0003c0 4b cb 1a 3d 99 ec 5d 3d 3e 51 d3 bc 2f aa 9c bd
       0.03779153 0.054180715 -0.025795575 -0.076496474
0003d0 c4 ce 60 bd ef a2 9a 3d 4f 78 96 3d 97 84 81 bd
       -0.054884687 0.07550608 0.07347166 -0.06324118
0003e0 31 9d b4 3d 36 f6 6d 3d 72 6f 4c bd b3 1e 09 3d
       0.088190444 0.058096133 -0.04991097 0.033476543
0003f0 02 e1 f7 bc ec 84 f0 3c da 3c 27 3d 83 36 b9 bc
       -0.03025866 0.029360257 0.040829517 -0.022609001

model.8.bias f4 [128]
000000 0c 01 12 bd c7 86 72 3d ac 4b 20 3d fa 99 8e bc
       -0.03564553 0.059210565 0.039134666 -0.017407406
000010 97 45 91 bc 10 21 94 bc cb 93 3c bd 95 a3 91 bd
       -0.017733378 -0.018082172 -0.046039384 -0.07111279
000020 57 9b fa 3b 3c 3c 87 bd d6 32 9c 3d 29 aa 42 3d
       0.0076479125 -0.06603286 0.07626884 0.04752556
000030 9e c0 93 3d e6 21 ae 3d ad 9a 22 bd 92 91 2a 3d
       0.07214473 0.08502559 -0.03969829 0.041642733
000040 71 06 4c 3d 79 4d a6 3d b0 79 55 3c 73 1b 53 bd
       0.04981083 0.081202455 0.013029501 -0.05153985
000050 5f 7b 82 bd 06 14 f1 3b 36 15 2f bd 99 be e8 3c
       -0.063711874 0.0073571233 -0.042744838 0.028411197
000060 67 52 07 3c ea ca 34 3d 90 13 4c bd a0 22 10 bd
       0.008259392 0.044138826 -0.049823344 -0.03518927
000070 43 49 0b 3d df 5e 23 bd 2a e7 b0 bc 2d 5b b9 3c
       0.034005415 -0.039885398 -0.021594603 0.022626484
000080 0d c6 9d 3b 43 27 db 3c bf 85 b1 bd 1e e7 af bb
       0.0048148693 0.02675212 -0.08668088 -0.0053681275
000090 0f ce 98 3d 17 5d e8 3b dd 02 0e 3d 55 68 54 3d
       0.074611776 0.0070911753 0.0346707 0.05185731
0000a0 3f c9 39 3c d8 16 c4 3c 56 72 72 3d a3 db ab bd
       0.011339485 0.023936674 0.05919107 -0.08391502
0000b0 65 81 96 3d 26 6e f3 ba 31 8e 8b bd 72 b7 8f bd
       0.07348899 -0.0018572256 -0.0681423 -0.07017411
0000c0 61 ac 26 bc 73 b3 5b 3d d3 58 50 bd 04 45 a1 3d
       -0.010172934 0.053637933 -0.05086596 0.07874492
0000d0 89 34 f3 3c 57 5a 7e bd 1b 6e ae 3d 5f 86 9c 3d
       0.029688137 -0.062097874 0.08517095 0.07642817
0000e0 ab b2 a5 3d 26 c8 75 3c bf a4 38 bd f2 8c df 3c
       0.08090719 0.015001332 -0.04507899 0.027288888
0000f0 a9 84 44 3d 52 07 aa 3d 43 6e a7 3d 21 32 97 3d
       0.047978077 0.083021775 0.08175328 0.07382608
000100 d4 5a 5d 3b d4 97 d9 3c 60 f3 94 3d a3 7c cd 3b
       0.0033776062 0.026561655 0.072729826 0.0062709614
000110 22 97 dd 3a 87 45 9b bd ce d8 65 bd 24 83 04 bd
       0.0016906003 -0.07581621 -0.056114964 -0.032351628
000120 c0 c0 90 3d 0d 98 a7 3d 72 4d 41 bb 7c 98 8d bc
       0.07068014 0.08183298 -0.0029495624 -0.017284624
000130 9b d9 ad bd c2 04 ca 3b e5 06 92 3d b8 d1 12 3c
       -0.084887706 0.006165118 0.07130221 0.008961134
000140 d3 92 17 3d 31 c8 fa 3b 76 c3 44 3d 1f 50 c7 bc
       0.037005257 0.007653259 0.04803797 -0.024330197
000150 e7 4b a1 bb bb 91 9e bd 67 6d fb bc 0c 97 93 bd
       -0.0049223783 -0.0774264 -0.030691816 -0.07206544
000160 29 96 2f 3b 26 07 e5 bc 65 03 ad 3d da 3b ac bd
       0.0026792383 -0.02795751 0.08447913 -0.08409853
000170 b4 8b 13 bd 74 cd 96 bd d6 f0 00 bc c4 38 95 bd
       -0.036021903 -0.07363406 -0.00786992 -0.07286218
000180 c0 4f 6c 3d 3e 74 53 bc aa 0e 01 bc 1a a7 15 bd
       0.057693243 -0.012906132 -0.007877031 -0.036536314
000190 c5 82 81 bd 1e 5c 6d 3d 35 56 af 3d ed b9 cd bb
       -0.063237704 0.057949178 0.085613646 -0.0062782676
0001a0 2d 31 91 bd ca c9 82 bb 1c 3d 3d 3d 24 98 13 bd
       -0.07089458 -0.0039913403 0.046200857 -0.036033764
0001b0 e9 07 b2 3c 00 f1 80 3c 38 3b 78 bd 91 23 a2 bd
       0.021732287 0.015739918 -0.06060335 -0.0791694
0001c0 f0 8a 33 3d 6b 84 06 bd 07 13 30 3c fc d4 1e 3c
       0.043833673 -0.032841127 0.010746724 0.009694334
0001d0 0b 31 21 3d 31 82 35 bc 41 34 a0 3d 62 23 00 bd
       0.03935341 -0.011078403 0.07822467 -0.031283744
0001e0 d2 63 79 3d ef 22 82 3d a5 91 9b bd 4a 41 57 3c
       0.06088621 0.06354319 -0.07596139 0.013138125
0001f0 ae 2f b1 bd 7d 4c e7 3b fd a9 99 3d ce 0a a3 3c
       -0.08651672 0.0070586787 0.07503126 0.019902613
