experiments/dispersion_pinn.pth (torch, 940940 bytes, 35 tensors)

model.0.weight f4 [128, 1]
0	0xbf24824c	-0.6426132
1	0x3f31c235	0.6943696
2	0xbf453748	-0.7703748
3	0x3f4cec75	0.80048305
4	0xbf7f1481	-0.9964066
5	0x3f670e18	0.9025588
6	0x3f589c44	0.8461344
7	0xbe3e0465	-0.18556364
8	0xbf648161	-0.89259917
9	0x3f53454b	0.8252761
10	0x3f0c28d1	0.5474978
11	0x3e4cd4c5	0.2000304
12	0xbe8e184a	-0.27752906
13	0xbf7c58c2	-0.98572934
14	0xbf0ad8a8	-0.5423684
15	0xbf4b08ae	-0.7931012
16	0x3f5de79c	0.8668153
17	0x3f641b04	0.8910372
18	0x3f60ad7d	0.8776472
19	0x3f47b084	0.78003716
20	0x3de1cfa0	0.110259295
21	0x3c886d8b	0.016653797
22	0x3e8ad4bf	0.27115437
23	0x3db68df5	0.08913795
24	0x3f13b36e	0.5769566
25	0xbf5c42cd	-0.8603943
26	0xbee37e59	-0.44432333
27	0xbf5463eb	-0.8296496
28	0xbe9e322a	-0.30897647
29	0xbf732d4d	-0.94991
30	0x3ebe803b	0.37207207
31	0x3f52ffd9	0.8242164
32	0x3d8d1d84	0.06890395
33	0xbf1403ba	-0.57818186
34	0xbe30c555	-0.17262776
35	0x3e7bbff3	0.24584942
36	0xbf0214bb	-0.5081288
37	0xbcc3c2e7	-0.023896648
38	0x3f2b295d	0.6685999
39	0x3f568bf2	0.8380729
40	0x3f5e8caa	0.86933386
41	0xbd261b1f	-0.04055321
42	0x3ed2fd63	0.41208944
43	0xbf5dc37f	-0.8662643
44	0x3f1e4d89	0.6183706
45	0xbeaec693	-0.34135875
46	0x3e95ab88	0.2923243
47	0x3e09cf96	0.13458094
48	0xbef328d8	-0.474921
49	0x3da99b3b	0.08281561
50	0x3ddecd6d	0.108790256
51	0x3c18188f	0.009283199
52	0xbed22123	-0.41040906
53	0x3eb1e3e7	0.34744188
54	0xbf045d0a	-0.51704466
55	0xbeb65dad	-0.35618344
56	0xbf33a1b9	-0.70168644
57	0x3dea24d3	0.11432805
58	0xbf239e7e	-0.63913715
59	0xbce3a4aa	-0.027788479
60	0xbe004d05	-0.1252938
61	0xbf60f16c	-0.8786838
62	0x3f598a6a	0.8497683
63	0x3f6d4e51	0.92697626
64	0x3f3a9f4e	0.7289933
65	0xbeb9d49c	-0.3629502
66	0xbe40d4a1	-0.18831111
67	0xbcd686a2	-0.026187245
68	0xbe74e82b	-0.2391669
69	0x3f1ea22f	0.6196622
70	0xbf5daaee	-0.86588943
71	0xbe79fd35	-0.24412997
72	0x3f2a3a4d	0.6649521
73	0x3f289963	0.6585905
74	0x3e88c427	0.26712152
75	0xbf7890d3	-0.97095984
76	0xbf40adf9	-0.7526546
77	0x3ef03cc6	0.46921366
78	0x3ee636dd	0.44963732
79	0xbec8ca2d	-0.39216748
80	0xbf165f06	-0.58738744
81	0xbec823da	-0.39089853
82	0x3f612969	0.8795381
83	0x3f20f579	0.6287456
84	0xbcb622d0	-0.022233397
85	0x3d74c70c	0.05976014
86	0x3ef12e95	0.47105852
87	0x3dc0142c	0.093788475
88	0xbc767744	-0.015043084
89	0x3d824a9e	0.06361888
90	0x3e75f8e0	0.2402072
91	0x3d8b95a8	0.06815654
92	0xbf06428d	-0.524453
93	0xbf5ecb05	-0.87028533
94	0xbf3d04a8	-0.7383523
95	0x3f7d1f16	0.9887556
96	0xbf0b33a0	-0.5437565
97	0xbe3836b1	-0.17989613
98	0x3f37f406	0.71856725
99	0x3e1b13ea	0.15144315
100	0xbee38668	-0.4443848
101	0x3f2efa95	0.6835111
102	0x3ce42707	0.027850641
103	0xbe9bb0a6	-0.3040821
104	0xbd3b23a4	-0.045688286
105	0xbf7ab806	-0.9793705
106	0x3cf89442	0.030344132
107	0xbefb7f69	-0.49120644
108	0xbe6cb753	-0.23116808
109	0x3d2a7329	0.04161373
110	0xbc9ef64e	-0.019404557
111	0xbd106e53	-0.035261463
112	0xbf73babb	-0.95206803
113	0xbf148ac0	-0.58024216
114	0xbf50d637	-0.81576866
115	0x3f4404cb	0.76569813
116	0x3e49b66c	0.19698495
117	0xbe1c9915	-0.15292771
118	0xbe051fb7	-0.1300038
119	0xbe139438	-0.1441201
120	0x3e6fe6fc	0.23427957
121	0x3f723996	0.9461912
122	0x3cf364cb	0.029711148
123	0x3e85832b	0.26076636
124	0x3f20afb9	0.6276813
125	0x3f5fb712	0.8738872
126	0xbd434360	-0.047671676
127	0xbe81f5eb	-0.25382933

model.0.bias f4 [128]
0	0x3f1f22b6	0.6216234
1	0xbf5ee455	-0.8706716
2	0x3f6d1202	0.926056
3	0x3ea80338	0.32814956
4	0xbebc8fee	-0.3682856
5	0x3ef53437	0.478914
6	0xbf0f2438	-0.5591464
7	0xbed01330	-0.4063964
8	0xbe64a0db	-0.22326986
9	0xbf6b5eb4	-0.9194138
10	0x3f51be61	0.8193112
11	0x3e89b7e9	0.26898125
12	0xbf4d8934	-0.8028748
13	0xbf262649	-0.6490217
14	0xbd4a3f85	-0.049376983
15	0x3e9d8b5b	0.30770382
16	0xbea2d0dc	-0.31799972
17	0xbf3d1ca0	-0.73871803
18	0x3efeecff	0.4979019
19	0xbf6d80cb	-0.9277465
20	0x3f52f7f4	0.82409596
21	0xbf685d02	-0.9076692
22	0xbf0b436f	-0.5439977
23	0xbf5e53fb	-0.86846894
24	0xbf00ad0c	-0.5026405
25	0xbebeb5bb	-0.37248024
26	0x3f4e755b	0.8064782
27	0x3dd11c62	0.10210492
28	0xbecdd476	-0.40201157
29	0xbf613bce	-0.8798188
30	0x3f5d1a72	0.8636848
31	0xbd6984dd	-0.057011474
32	0xbec0def4	-0.376701
33	0x3f63a042	0.8891641
34	0x3ee2acd8	0.44272494
35	0xbdf498c3	-0.119431995
36	0xbe11c2de	-0.14234492
37	0xbe7b53f3	-0.24543743
38	0x3f0a6d47	0.54072994
39	0xbe7768f6	-0.24161133
40	0xbee41492	-0.44546944
41	0xbf796776	-0.97423494
42	0x3f205ac3	0.6263849
43	0xbee1d710	-0.44109392
44	0x3ef9eeba	0.48814946
45	0xbef5cdc1	-0.4800854
46	0x3f71981f	0.94372743
47	0x3d62aed5	0.055342514
48	0x3f4b9d66	0.79537046
49	0x3e66fc70	0.22557235
50	0x3edb99f8	0.42890906
51	0xbe859b78	-0.26095176
52	0xbf21bfa9	-0.63183075
53	0x3f2190e1	0.6311169
54	0xbf767619	-0.9627395
55	0x3e86af29	0.26305512
56	0xbf6da43d	-0.9282873
57	0x3cec1450	0.02881828
58	0xbf6a2660	-0.91464806
59	0x3e5352c0	0.20637035
60	0x3ee4fe35	0.44725195
61	0x3f35043e	0.707096
62	0x3d6b69e1	0.05747402
63	0xbf14f2a0	-0.58182716
64	0xbf53d048	-0.82739687
65	0x3f7ba19b	0.98293465
66	0xbf6fc47b	-0.9365918
67	0xbca47b9e	-0.020078477
68	0xbdfe2bdb	-0.124107085
69	0x3f647594	0.8924191
70	0x3e86f80b	0.26361117
71	0x3ed14ef5	0.40880552
72	0xbecc9cb2	-0.399633
73	0x3e8d4992	0.27595192
74	0xbf38c40f	-0.7217416
75	0x3f7983f7	0.9746699
76	0xbf6d08e7	-0.9259171
77	0xbf6835b7	-0.9070696
78	0x3f53f9c1	0.8280297
79	0x3e90b864	0.2826568
80	0xbf75ab76	-0.95964754
81	0xbf1445d3	-0.57919043
82	0x3f647ef6	0.89256227
83	0xbc3aec6a	-0.011408905
84	0xbf6ce345	-0.92534286
85	0x3f68ffc1	0.9101525
86	0x3ea69f04	0.32543194
87	0xbee8319b	-0.45350346
88	0x3d813198	0.063082874
89	0x3d1d8e18	0.03846559
90	0x3e28d387	0.16486941
91	0x3e966435	0.29373327
92	0x3f405501	0.75129706
93	0xbe7a841d	-0.2446446
94	0xbef248e6	-0.47321242
95	0xbe81272e	-0.25225204
96	0xbecabcf0	-0.39597273
97	0xbf2e4a73	-0.6808235
98	0x3cc86188	0.024460569
99	0x3f06458b	0.52449864
100	0xbe936a8c	-0.28792226
101	0x3eeb7744	0.4598943
102	0x3f6e7f80	0.931633
103	0xbf58eab9	-0.8473316
104	0x3ef9a52e	0.48758835
105	0x3f757c3a	0.9589268
106	0x3e64e3ef	0.22352575
107	0x3f17d7fa	0.5931393
108	0x3e52a50f	0.20570777
109	0x3f235162	0.63796055
110	0xbf21adb1	-0.6315566
111	0x3f2d5d70	0.677207
112	0x3e9c11e1	0.3048239
113	0xbf735182	-0.95046246
114	0xbe962c52	-0.2933069
115	0xbf7bf774	-0.9842446
116	0xbedc63ab	-0.4304479
117	0xbd5947b0	-0.053046882
118	0x3f3c4294	0.7353909
119	0xbf44e3a0	-0.7690983
120	0x3f31f9ae	0.69521606
121	0x3d9c79ef	0.076404445
122	0xbf4a1582	-0.7893907
123	0x3dbcd9b0	0.09221208
124	0x3d009883	0.031395447
125	0x3e1f4716	0.15554461
126	0xbe53ab8d	-0.2067091
127	0x3eb1b9ba	0.3471201

model.2.weight f4 [128, 128]
0	0x3d9d30e0	0.07675338
1	0xbcbd4ef2	-0.023108933
2	0xbbbc1f8c	-0.0057410654
3	0xbd9987ee	-0.0749663
4	0xbce67bf9	-0.028135287
5	0x3cdf9a18	0.027295157
6	0xbd9d6bcf	-0.076865785
7	0x3c9ca514	0.019121684
8	0x3c9b98a8	0.01899369
9	0x3cf2526d	0.02958032
10	0x3ce4becd	0.027923012
11	0x3bf400a5	0.007446366
12	0x3c0c9f2e	0.008582873
13	0xbba59dec	-0.005054226
14	0xbc462808	-0.012094505
15	0xbd8724cb	-0.065988146
16	0x3c6519ea	0.013983229
17	0x3d386274	0.045015767
18	0x3dba0771	0.090834506
19	0x3cbbffb4	0.022949077
20	0x3d9d031f	0.07666611
21	0xbd90b335	-0.07065431
22	0xbd724080	-0.059143543
23	0x3c93f753	0.01806227
24	0xbcb5f18b	-0.022209903
25	0xbd9feb6d	-0.07808576
26	0xbd671bd4	-0.056423023
27	0x3d9b5d75	0.07586185
28	0x3c8b2982	0.016987566
29	0xbd5784e1	-0.052616958
30	0x3ca2dba7	0.019880129
31	0x3d95a634	0.07307091
32	0xbd143d2a	-0.036191143
33	0xbc7195cd	-0.014745188
34	0x3c3f127b	0.011662121
35	0x3d8ced7b	0.06881233
36	0xbd82f5a3	-0.06394508
37	0xbd55cab9	-0.052195285
38	0xbd4fb66d	-0.050711084
39	0xbd1ed333	-0.038775634
40	0xbd97934f	-0.07401144
41	0x3bfa7249	0.0076430184
42	0xbd796cca	-0.060894765
43	0xbcaf0ccc	-0.021368407
44	0xbd26be9a	-0.040709116
45	0x3d11c4e2	0.035588153
46	0xbd9b79f3	-0.07591619
47	0x3d9f9cfb	0.077936135
48	0xbc92093a	-0.017826665
49	0xbd9f8806	-0.07789616
50	0x3c69491c	0.014238622
51	0x3aaeeaf7	0.0013345171
52	0xbceaf12e	-0.028679457
53	0xbd26596f	-0.040612634
54	0x3d91370e	0.07090579
55	0x3d1ad552	0.037801094
56	0xbd8fa643	-0.07014134
57	0x3d68d0f1	0.056839887
58	0x3cd0561e	0.025431689
59	0xbd15d3f0	-0.036579072
60	0xbd1837a2	-0.03716243
61	0x3d3acbaf	0.045604404
62	0x3cd1c7b3	0.02560792
63	0x3d8a4183	0.067507766
64	0x3d892a9c	0.0669758
65	0x3d3c1cf0	0.045926034
66	0x3d7a2fbd	0.061080683
67	0xbd77132b	-0.060321014
68	0x3cdbd4b0	0.026834816
69	0x391bfbd2	0.00014875762
70	0x3c8904fe	0.016726013
71	0x3c969e41	0.018386008
72	0xbd872956	-0.06599681
73	0xbd7ea0c0	-0.062165022
74	0x3cb7c3a1	0.02243215
75	0x3d071bea	0.032985605
76	0x3d243d91	0.040097777
77	0xbcfe2e59	-0.03102796
78	0xbd0bfd06	-0.03417685
79	0x3d99e04a	0.07513483
80	0x3dbad3ee	0.09122454
81	0xbd6166ca	-0.055029668
82	0x3d9a1f62	0.07525517
83	0x3d2bf313	0.04197986
84	0xbd92655e	-0.071482405
85	0x3d1a2c36	0.03763982
86	0x3d4d9b4f	0.050196942
87	0x3da85f01	0.082212456
88	0x3b147350	0.002265174
89	0x3d74c11f	0.059754487
90	0x3d290d1a	0.04127226
91	0xbda26d10	-0.07930958
92	0x3da975dc	0.08274433
93	0x3d573fde	0.052551143
94	0xbcbe1ade	-0.02320617
95	0x3cefc6b6	0.029269557
96	0x3d919b1d	0.07109664
97	0x3d80f3a4	0.06296471
98	0x3d81452a	0.0631202
99	0x3d425d87	0.047452476
100	0x3d9765f6	0.073924944
101	0x3c438ad4	0.011934955
102	0x3c086dff	0.008327006
103	0xbd1753e5	-0.036945242
104	0xbd649094	-0.055801943
105	0x3daae7d5	0.08345
106	0x3ba7d24c	0.005121505
107	0xbbbd2108	-0.00577176
108	0xbd5a499b	-0.053292852
109	0xbd29f322	-0.041491635
110	0xbcbd40ba	-0.023102153
111	0x3dacb76e	0.08433424
112	0x3b896458	0.00419287
113	0xbd397713	-0.045279574
114	0xbd556408	-0.05209735
115	0x3b49898f	0.0030752157
116	0x3c370b66	0.011172151
117	0xbd2da0b2	-0.04238958
118	0xbd7abdb6	-0.06121608
119	0x3d0b0960	0.033944488
120	0xbd38dea7	-0.045134213
121	0x3da83bba	0.08214517
122	0xbca4251f	-0.020037232
123	0xbd92a8f0	-0.071611285
124	0xbd9e035c	-0.077154845
125	0x3d9a3075	0.07528774
126	0xbcd343b7	-0.025789125
127	0x3cba758e	0.022761133
128	0xbd35cdef	-0.044385847
129	0x3d27e2f2	0.040987916
130	0x3d83eb48	0.06441361
131	0x3d757d00	0.059933662
132	0xbc11f082	-0.008907439
133	0xbd6a9948	-0.057275087
134	0xbd2c89d9	-0.04212365
135	0xbc815a8e	-0.01579025
136	0xbc7a4202	-0.015274527
137	0xbca7daf9	-0.020490156
138	0x3cec80c1	0.028869988
139	0xbd024c33	-0.03181095
140	0x3d8be8f4	0.06831542
141	0xbd949a85	-0.07256035
142	0x3d248680	0.04016733
143	0xbd6379d8	-0.05553612
144	0xbda64edb	-0.08120509
145	0xbc091f9d	-0.008369354
146	0x3d890252	0.06689896
147	0x3cb621e3	0.022232955
148	0xbd53f852	-0.05175049
149	0x3dace607	0.08442312
150	0xbd9ee958	-0.077593505
151	0xbae586f4	-0.0017511533
152	0xbd0986f2	-0.03357596
153	0x3cb3faaa	0.021970112
154	0xbdaa2ff3	-0.08309927
155	0xbd30ce87	-0.04316571
156	0x3dad5042	0.084625736
157	0xbd755a82	-0.059900768
158	0xbd13d93d	-0.036095846
159	0x3c2cbdc8	0.010543294
160	0xbd509ef0	-0.050932825
161	0x3d46ece8	0.048565775
162	0x3c926588	0.01787068
163	0x3d20f03e	0.039291613
164	0x3cb3e449	0.02195944
165	0x3cbac1a6	0.022797417
166	0x3d9a077c	0.07520959
167	0x3b600a38	0.0034185778
168	0x3c35e675	0.0111023085
169	0x3d2d5ab8	0.042322844
170	0xbd296257	-0.04135355
171	0xbcddf998	-0.027096555
172	0x3d82111d	0.0635092
173	0x3c99a509	0.018755453
174	0x3da3e0f5	0.080018915
175	0x3d3bade8	0.045820147
176	0xbd0ce1b2	-0.034394927
177	0xbdb4e1e8	-0.08832151
178	0xbdacc3e8	-0.08435804
179	0x3bf7db0d	0.0075639547
180	0x3b165ecb	0.0022944685
181	0x3b9700e1	0.004608259
182	0xbb205612	-0.0024465364
183	0x3b1c2756	0.0023827157
184	0x3c824fb2	0.015907142
185	0x3c699407	0.014256484
186	0x3da989bb	0.08278223
187	0xbda219d0	-0.079150796
188	0xbd818cca	-0.063256815
189	0xbd117dd9	-0.03552041
190	0x3db7f0a9	0.08981449
191	0xbcee6152	-0.02909914
192	0x3c860767	0.016360952
193	0x3d78800d	0.060668994
194	0x3cea0744	0.028567918
195	0x3da0a40e	0.07843791
196	0xbd7c06a9	-0.06152979
197	0x3d9bb63a	0.07603116
198	0x3d90ad4d	0.070643045
199	0xbdad188b	-0.08451947
200	0x3d9f73ac	0.077857345
201	0x3da924b3	0.08258953
202	0xbd9069da	-0.070514396
203	0xbdb58ca9	-0.088647194
204	0x3db82d65	0.08993033
205	0x3d700085	0.058594245
206	0x3c91dc79	0.017805325
207	0xbd91d00d	-0.07119761
208	0xbcb19a42	-0.021680001
209	0x3ce8e46d	0.028429234
210	0x3d000ca2	0.031262048
211	0x3cbc6b64	0.023000427
212	0xbd1ba1d2	-0.03799612
213	0xbd4d9ce8	-0.050198466
214	0x3daea411	0.08527387
215	0x3da8e79b	0.082473
216	0xbd082619	-0.033239458
217	0x3ba95ec0	0.005168766
218	0x3d83d03f	0.06436204
219	0xbda48e6d	-0.08034978
220	0xbd87d0d9	-0.066316314
221	0xbc85233e	-0.016252156
222	0x3cacb7ad	0.021083677
223	0x3d0f5092	0.034988947
224	0x3cf83549	0.030298846
225	0xbd982de9	-0.07430632
226	0x3ca7d15a	0.020485569
227	0x3d46ef30	0.04856795
228	0xbdb2574c	-0.08708057
229	0xbb217dd5	-0.0024641652
230	0x3d3c92e7	0.046038534
231	0xbc0daa1b	-0.008646513
232	0xbd9dde2a	-0.0770839
233	0x3d9b536c	0.07584271
234	0xbd8fbe24	-0.07018688
235	0xbda5714f	-0.080782525
236	0x3d039e65	0.03213348
237	0x3da0a681	0.07844258
238	0x3d7bf1c7	0.061509874
239	0x3c365e2f	0.011130854
240	0x3c9bb0f6	0.01900528
241	0x3ce95f95	0.02848796
242	0x3c6e561c	0.014546897
243	0x3d78c440	0.060734034
244	0xbd9dac53	-0.07698884
245	0x3d253757	0.04033598
246	0x3cef8819	0.029239701
247	0x3d004a64	0.031320944
248	0xbd8bc377	-0.06824391
249	0xbc110f6e	-0.008853776
250	0x3cf37b5f	0.029721914
251	0xbd29546a	-0.04134027
252	0xbc310e14	-0.010806579
253	0x3d12e32b	0.035861176
254	0x3cb944ab	0.022615751
255	0x3cca9609	0.024729745

model.2.bias f4 [128]
0	0x3d41e161	0.04733408
1	0xbc5af7f3	-0.01336478
2	0x3d9e2355	0.07721583
3	0xbcb03b04	-0.021512516
4	0xbd9867e4	-0.074416906
5	0x3cd85cea	0.026411492
6	0x3d24eef2	0.04026694
7	0x3d8f3faf	0.069945686
8	0x3d05cf23	0.032668244
9	0xbb899bbf	-0.0041994746
10	0x3cb4f760	0.022090614
11	0xbd5fcd62	-0.054639228
12	0x3d0c459e	0.03424608
13	0xbd193964	-0.037408248
14	0xbd26d5c5	-0.04073121
15	0xbc9ada9f	-0.018903075
16	0x3d3d88f7	0.046273198
17	0x3c39cb38	0.011339955
18	0xbda228a1	-0.079179056
19	0xbda063f2	-0.07831563
20	0x3c4d375b	0.012525405
21	0x3b33d794	0.0027441727
22	0xbd9c41ce	-0.07629739
23	0x3d8cfd68	0.06884271
24	0xbda8a094	-0.08233753
25	0x3be6a1b9	0.007038322
26	0xbcc31f66	-0.023818683
27	0x3c8a934d	0.016915942
28	0x3d58360c	0.052785918
29	0xbd9acc18	-0.07558459
30	0x3d02d998	0.031945795
31	0xbd2fd51e	-0.042927854
32	0x3d2d1b8e	0.042262606
33	0x3bb34a11	0.005471476
34	0xbd4e0ed6	-0.050307117
35	0x3d1d406f	0.038391527
36	0x3d91ca5c	0.07118675
37	0xbdab5add	-0.0836694
38	0x3d85f10a	0.06540115
39	0x3d8113bf	0.063025944
40	0xbcb57a98	-0.022153184
41	0x3d9e92ae	0.07742821
42	0x3ca8bb0e	0.020597007
43	0xbd8aa095	-0.0676891
44	0x3d984d47	0.074366145
45	0xbdb90a34	-0.09035149
46	0xbd06fd64	-0.032956496
47	0x3ce6c068	0.028167918
48	0xbdb7bda0	-0.08971715
49	0x3daf224a	0.08551462
50	0x3d5fae85	0.054609794
51	0xba8cbcdf	-0.001073744
52	0x3d903e0d	0.07043085
53	0xbd9df293	-0.07712283
54	0x3d03b14b	0.0321515
55	0xbd8182b8	-0.06323761
56	0xbda7932f	-0.0818237
57	0xbd7b5f3c	-0.06137012
58	0x3d92ff3b	0.071775876
59	0xbc0db49f	-0.00864902
60	0x3ce3cbc7	0.02780713
61	0x3c810d32	0.015753362
62	0x3becbc34	0.007224584
63	0xbc074ef6	-0.008258572
64	0xbda59551	-0.080851205
65	0xbd865b6e	-0.065604076
66	0xbcbcd118	-0.023048922
67	0xbcd34e68	-0.025794223
68	0x3b84dd5b	0.004054708
69	0xbca42486	-0.020036947
70	0xbd83a7f4	-0.06428519
71	0x3c39cfbe	0.0113410335
72	0xbd86f1fe	-0.06589125
73	0xbb378762	-0.0028004278
74	0x3b1fd059	0.002438566
75	0xbd72596e	-0.059167318
76	0x3d70cb21	0.05878747
77	0x3c4627d7	0.0120944595
78	0xbcbffb80	-0.023435354
79	0x3d460fa1	0.04835475
80	0xbdaa3021	-0.08309961
81	0xbd8dbed0	-0.0692116
82	0xbcb82093	-0.02247647
83	0xb9d692e0	-0.0004092669
84	0xbc40a150	-0.01175721
85	0xbb071d71	-0.0020616914
86	0xbcfcaea4	-0.030844994
87	0x3cb61422	0.022226397
88	0x3c17c64c	0.009263586
89	0xbca145e9	-0.019686656
90	0x3b6b4bdb	0.0035903368
91	0xbd435fbc	-0.04769872
92	0xbd254beb	-0.040355604
93	0x3cca8fdc	0.0247268
94	0xbd6931fc	-0.056932434
95	0x3b94c732	0.0045403475
96	0xbdb7ad90	-0.08968651
97	0x3d7154e6	0.058918856
98	0x3c966e54	0.018363155
99	0xbd8822f9	-0.066472955
100	0xb99fe088	-0.00030494132
101	0xbd1e27c3	-0.03861214
102	0x3d190818	0.037361234
103	0xbceaf22c	-0.02867993
104	0x3d94c072	0.072632685
105	0x3dab7ec9	0.08373792
106	0x3d800f7a	0.06252952
107	0x3d9b23ef	0.07575213
108	0xbc92c62b	-0.01791676
109	0xbb7aff44	-0.0038299123
110	0x3d9213f7	0.07132714
111	0xbda26cdb	-0.07930919
112	0xbd99be30	-0.075069785
113	0xbbc41cb1	-0.0059848656
114	0x3d27c42f	0.04095858
115	0x3d18dbb3	0.037318897
116	0x3d501aa4	0.050806656
117	0xbcc678d3	-0.024227535
118	0x3d0c04df	0.034184333
119	0x3d1be752	0.0380624
120	0xbd651582	-0.055928715
121	0x3da98bec	0.08278641
122	0xbdadd3c8	-0.0848766
123	0x3d32073b	0.043463927
124	0xbc89287b	-0.016742935
125	0xbc1e8843	-0.009676042
126	0x3d186ec7	0.03721502
127	0xbccb6d9a	-0.024832536

model.4.weight f4 [128, 128]
0	0xbc828e05	-0.01593686
1	0x3da56bd3	0.080772065
2	0xbcad2355	-0.021135012
3	0x3d1aa1bd	0.037751902
4	0xbda92d7e	-0.0826063
5	0x3bf18bfa	0.007371423
6	0x3c864e9c	0.016394906
7	0xbd3be545	-0.045872945
8	0x3d83ea52	0.064411774
9	0xbbd52e24	-0.0065057445
10	0xbd880efa	-0.066434816
11	0x3da8e635	0.082470335
12	0xbdabbef9	-0.083860345
13	0xbd9a9cad	-0.07549415
14	0x3bad170f	0.00528229
15	0xbdb4afe8	-0.08822614
16	0x3d2c9d50	0.042142212
17	0x3c548df5	0.012973298
18	0xbb1fb362	-0.0024368395
19	0xbcc2727a	-0.023736227
20	0x3cac17e9	0.021007495
21	0xbb2f4b7a	-0.0026747868
22	0xbd8552bd	-0.06509922
23	0x3da34436	0.079719946
24	0x3b7aea8b	0.003828677
25	0x3dad8232	0.084720984
26	0x3daa1e2e	0.083065376
27	0x3d475e4b	0.04867391
28	0xbd76c3d3	-0.060245346
29	0x3d121e50	0.03567344
30	0xbd3b4deb	-0.045728605
31	0xbd286836	-0.04111501
32	0xbd391687	-0.0451875
33	0x3c039647	0.008031434
34	0xbd6650ed	-0.05622952
35	0xbc65e44c	-0.014031481
36	0xbcf8aba9	-0.030355291
37	0xbd004798	-0.031318277
38	0x3d84d873	0.06486597
39	0xbd815670	-0.06315315
40	0x3d056a55	0.03257211
41	0xbd8da0f8	-0.06915468
42	0x3a6ffaa6	0.0009154476
43	0xbd755e90	-0.059904635
44	0xbd99d374	-0.075110346
45	0x3da35b7d	0.079764344
46	0xbd516f4d	-0.051131535
47	0xbda3bab5	-0.07994596
48	0x3cf58b13	0.029973542
49	0xbd986376	-0.07440846
50	0xbda8090c	-0.082048506
51	0xbce6646a	-0.028124053
52	0xbd820a71	-0.06349648
53	0x3bd2f504	0.0064378995
54	0x3c3db61c	0.011579063
55	0x3d9ff2ef	0.07810008
56	0xbd63922a	-0.055559315
57	0x3d9532d9	0.07285089
58	0xbc39a54c	-0.011330914
59	0x3da5ec05	0.08101658
60	0xbbd775d9	-0.006575328
61	0x3c041839	0.008062416
62	0xbc00c385	-0.0078591155
63	0x3d9400a3	0.07226684
64	0x3d45dee3	0.048308264
65	0xbd43f415	-0.047840197
66	0xbda1dd09	-0.07903487
67	0x3dbcf30e	0.092260465
68	0xbd350d18	-0.04420194
69	0x3d94e759	0.072706886
70	0x3aa9d55a	0.001295726
71	0x3d600755	0.054694492
72	0x3c16204c	0.009162974
73	0xbd824c13	-0.06362166
74	0xbc0df9ac	-0.008665483
75	0xbd817528	-0.06321174
76	0xbd6876d6	-0.056753956
77	0x3cf3cdab	0.029761156
78	0xbc8de55d	-0.017321283
79	0xbb92f05c	-0.0044842195
80	0x3c2f9cec	0.010718565
81	0xbd0f604e	-0.035003953
82	0x3d5be17d	0.05368184
83	0xbbe8fd99	-0.0071103093
84	0xbc9126a6	-0.017718624
85	0xbd91e4a8	-0.07123691
86	0x3cdc446d	0.026888097
87	0xbd89b33e	-0.06723641
88	0x3b901451	0.004396953
89	0xbc7a0c0e	-0.015261663
90	0x3d84fec7	0.064939074
91	0x3b8ac8ee	0.0042353785
92	0xbd3d8333	-0.0462677
93	0x3cf79c09	0.03022577
94	0xbc9ec0ba	-0.019379009
95	0xbbef5c12	-0.007304677
96	0xbd5b9d89	-0.053617034
97	0x3c97419b	0.0184639
98	0x3d9d8341	0.0769105
99	0x3d9befcb	0.07614096
100	0xbda70bdb	-0.08156558
101	0x3d03eca3	0.032208096
102	0x3d396d40	0.045270205
103	0xbd3999fd	-0.04531287
104	0x3d1285ac	0.03577201
105	0xbda9f6fe	-0.08299063
106	0x3c9d009e	0.019165333
107	0xbd154835	-0.036445815
108	0x3d888ce2	0.06667496
109	0xbd65584f	-0.05599242
110	0xbd610100	-0.054932594
111	0x3cfd255d	0.030901605
112	0xbd13e5bf	-0.036107775
113	0x3d8f385e	0.06993173
114	0xbd5bb7fd	-0.05364226
115	0x3da32ff0	0.07968128
116	0x3c1e1622	0.009648832
117	0x3d1029e3	0.035196196
118	0x3c897e04	0.016783722
119	0x3da63505	0.081155814
120	0x3a6e92de	0.00091008644
121	0xbc98a133	-0.018631553
122	0xbd9d2ba1	-0.07674337
123	0xbd9fcff4	-0.07803336
124	0x3d084cbb	0.0332763
125	0x3d0f4e2e	0.034986667
126	0x3ca1a6e3	0.019732898
127	0xbd113b14	-0.035456732
128	0xbbdc38d9	-0.006720644
129	0x3c6a1019	0.014286065
130	0xbbfa1e19	-0.0076329825
131	0xbba13dfb	-0.0049207187
132	0x3ce801a6	0.028321099
133	0x3d88ea41	0.066853054
134	0x3d461142	0.048356302
135	0xbd215557	-0.039388027
136	0xbc2c9fc2	-0.010536136
137	0xbda9d3f4	-0.0829238
138	0xbda2ceb8	-0.07949585
139	0xbd18f7bb	-0.03734563
140	0x3d2b5e24	0.041837826
141	0x3d2bd108	0.041947395
142	0x3c7fc7a5	0.015611564
143	0x3d86d0b2	0.06582774
144	0x3d8f98ff	0.070116036
145	0xbd24b6a3	-0.04021324
146	0xbdaa36a8	-0.08311206
147	0x3d96ec16	0.073692486
148	0xbd0d6b33	-0.03452606
149	0x3d48b2e9	0.048998747
150	0x3c82622b	0.01591595
151	0xbac0d276	-0.001471116
152	0x3d7dea3c	0.06199096
153	0xbd6d7579	-0.05797336
154	0x3d36c2e6	0.044619463
155	0xbc4639b8	-0.012098722
156	0xbd74ca0a	-0.059762992
157	0xbc72f701	-0.014829398
158	0x3c618d54	0.013766605
159	0x3d949e41	0.07256747
160	0xbd969ccf	-0.073541276
161	0xbd761cef	-0.060086187
162	0x3d1fb27f	0.038988587
163	0x3c562c39	0.013072067
164	0x3d9755bd	0.073894
165	0x3c14c537	0.009080223
166	0xbd9f655a	-0.07783003
167	0xbcdb980a	-0.026805896
168	0xbcceb0de	-0.025230821
169	0xbd68caad	-0.05683391
170	0x3d5fd359	0.054644916
171	0xbd77a1f6	-0.060457192
172	0x3cdd9676	0.027049284
173	0x3c9a1497	0.018808646
174	0x3d41c964	0.0473112
175	0xbda4db8f	-0.0804969
176	0xbd97e9f2	-0.074176684
177	0x3c8e99aa	0.017407257
178	0x3d767d99	0.060178373
179	0xbd9d0a4d	-0.0766798
180	0x3dada34d	0.08478413
181	0xbc5cb6ac	-0.013471287
182	0xbd854a65	-0.0650833
183	0x3d7e9be5	0.06216039
184	0xbd80e9d6	-0.06294601
185	0xbd8bda8f	-0.06828796
186	0xbd62ac0b	-0.055339854
187	0xbd5604f7	-0.05225083
188	0x3d65ef39	0.056136344
189	0x3d9c9e8e	0.076474294
190	0x3d51761e	0.051138036
191	0x3db7f756	0.089827225
192	0xbc307753	-0.010770637
193	0x3a8fcfff	0.0010972022
194	0xbcf557e0	-0.029949129
195	0x3cf3934a	0.029733319
196	0x3d8273f1	0.0636977
197	0xbd2df9c9	-0.04247454
198	0xbcdc90fd	-0.026924605
199	0xbd81635e	-0.06317781
200	0x3dadb273	0.08481302
201	0x3d11950f	0.035542544
202	0x3c033854	0.008009035
203	0x3dabbba2	0.083853975
204	0x3da39d3d	0.07988975
205	0x3d48233c	0.048861727
206	0xbc376dbb	-0.011195595
207	0x3d861130	0.06546247
208	0x3d9ec027	0.07751494
209	0xbce76d7a	-0.028250445
210	0x3d03930b	0.032122653
211	0x3d0af9fa	0.033929802
212	0x3da67508	0.08127791
213	0xbda317f7	-0.07963555
214	0x3db61879	0.088913865
215	0xbd705f69	-0.05868474
216	0xbd97916d	-0.07400785
217	0xbda47317	-0.08029764
218	0xbda38d4d	-0.07985935
219	0xbcc5d238	-0.024148092
220	0x3d6bd4f6	0.057576142
221	0xbc381a74	-0.011236776
222	0x3d5abc1e	0.05340206
223	0x3da0cb7b	0.07851311
224	0x3d9d5f5f	0.07684206
225	0xbc982ce0	-0.018576086
226	0xbd79caa3	-0.060984265
227	0xbcb780b6	-0.022400241
228	0xbcc962d6	-0.024583261
229	0xbd6b61f3	-0.05746646
230	0xbc05cb1a	-0.008166099
231	0xbd109560	-0.035298705
232	0xbd7adf0b	-0.061247867
233	0xbd5af559	-0.053456638
234	0xbcd2a664	-0.025714107
235	0x3d5608fe	0.05225467
236	0x3b35a174	0.0027714642
237	0xbd5f8888	-0.054573566
238	0xbcf4f4f8	-0.029901966
239	0xbdac5883	-0.0841532
240	0x3be30018	0.0069275014
241	0x3b89bf37	0.004203703
242	0xbd7b9626	-0.06142249
243	0xbdb635ca	-0.08896978
244	0xbc33b465	-0.010968302
245	0xbd480ba9	-0.048839245
246	0xbdaecf0d	-0.085355856
247	0x3d9361d4	0.071963936
248	0x3d8b1f27	0.06793051
249	0x3d749524	0.059712544
250	0x3c98eaa2	0.01866657
251	0xbc7f8ecf	-0.015598013
252	0xbd9c44f0	-0.07630336
253	0x3cd3b928	0.025845125
254	0x3da0c078	0.078492105
255	0x3ca96981	0.020680191

model.4.bias f4 [128]
0	0x3da4ab8d	0.08040533
1	0x3c02f17e	0.007992147
2	0x3d679ec9	0.056547914
3	0xbce9f56c	-0.02855941
4	0x3d944af1	0.072408564
5	0xbdad9d84	-0.08477309
6	0xbc1624ca	-0.009164045
7	0xbdabd2e0	-0.083898306
8	0xbd166263	-0.036714923
9	0xbda87936	-0.08226244
10	0xbca1b921	-0.019741597
11	0xbb96156e	-0.0045801913
12	0xbc897e25	-0.016783783
13	0x3d041008	0.03224185
14	0xbdae7949	-0.08519227
15	0xbd80aa51	-0.06282485
16	0x3d34cf8d	0.04414325
17	0x3cc8b465	0.024500081
18	0xbd02e079	-0.031952355
19	0xbd918295	-0.07104985
20	0xbd2ad501	-0.041707043
21	0xbc6aa7a9	-0.0143222
22	0xbd99d1c3	-0.07510712
23	0x3cd9bb59	0.026578592
24	0xbcfd93e8	-0.030954316
25	0xbd983374	-0.07431689
26	0x3d8ea38d	0.069647886
27	0xbc728b07	-0.0148036545
28	0x3d8d974c	0.06913623
29	0xbd006ab1	-0.03135175
30	0x3c65e144	0.014030758
31	0x3da86fd4	0.082244545
32	0xbd2d58d2	-0.042321034
33	0xbc5a4d8d	-0.013324154
34	0xbcb00070	-0.021484584
35	0x3d0991ed	0.03358643
36	0x3d7f0bc0	0.062267065
37	0x3bfa4726	0.007637876
38	0x3da9ca2a	0.08290513
39	0x39067f6d	0.00012826706
40	0x3dba9c69	0.09111864
41	0x3c070ffe	0.008243559
42	0xbc15b258	-0.009136759
43	0xbd48900a	-0.04896549
44	0xbcf6340e	-0.030054118
45	0xbd2aa65a	-0.04166255
46	0xbd455b38	-0.048182696
47	0xbb0dbc8a	-0.002162727
48	0xbd890659	-0.06690664
49	0x3d38a400	0.045078278
50	0xbd6c06c0	-0.057623625
51	0xbd8298a7	-0.063767724
52	0xbc1fd60e	-0.009755624
53	0xbcb2c7a4	-0.021823712
54	0xbbfc2ea3	-0.007695989
55	0xbd3510e4	-0.04420556
56	0x3d43f82f	0.04784411
57	0xbd5f27bf	-0.054481264
58	0xbcb10468	-0.021608546
59	0x3c99cb64	0.018773742
60	0x3d3ce1bd	0.04611372
61	0xba5ad958	-0.0008348427
62	0xbd3f2f95	-0.046676237
63	0x3d344732	0.04401321
64	0x3d45dac4	0.048304334
65	0x3d10d276	0.03535696
66	0xbd34586c	-0.04402964
67	0xbd998227	-0.07495528
68	0x3d63e5a0	0.05563891
69	0x3d30fe24	0.043211117
70	0x3d7e851f	0.062138673
71	0x3d04dc24	0.032436505
72	0xbc894206	-0.016755115
73	0x3cbcc5cb	0.023043534
74	0x3d8a07b8	0.067397535
75	0xbd7abc37	-0.061214652
76	0x3ce78f05	0.02826644
77	0xbd31d9f3	-0.043420743
78	0xbda6c04c	-0.081421465
79	0x3c657160	0.0140040815
80	0x3ba64026	0.005073565
81	0x3d7396bc	0.059469923
82	0x3ca71040	0.02039349
83	0xbd871674	-0.065960795
84	0xbd931141	-0.07181025
85	0x3d621a0b	0.055200618
86	0xbda455ef	-0.08024203
87	0xbd1ccf12	-0.038283415
88	0xbc5f5f12	-0.013633506
89	0x3db8a192	0.09015192
90	0xbd0fce6f	-0.03510898
91	0xbd6fa4b2	-0.058506675
92	0x3d6aaac1	0.05729175
93	0xbd1edc4d	-0.038784314
94	0x3bcb87bc	0.006211249
95	0x3da30372	0.079596415
96	0x3c6e987d	0.014562723
97	0x3cce7ccb	0.02520599
98	0x3d80de31	0.0629238
99	0x3c0d0c5f	0.0086089065
100	0x3cd8a14c	0.0264441
101	0xbd6b7489	-0.057484183
102	0x3c96817c	0.01837229
103	0x3d40a69f	0.047033902
104	0x3d1e4e40	0.038648844
105	0x3d7b0924	0.061288014
106	0x3a81b78b	0.0009896619
107	0x3d6b6c0b	0.057476085
108	0xbd370d3b	-0.044690352
109	0x3d2b0fb7	0.041763034
110	0xbd17a2b4	-0.0370204
111	0x3d811d09	0.06304366
112	0xbd0ea3e8	-0.034824282
113	0xbd90614a	-0.070498064
114	0x3c7d7ea1	0.015472085
115	0xbd808d27	-0.06276923
116	0xbc7a7a5f	-0.015287965
117	0x3d596827	0.053077843
118	0xbd57d58b	-0.052693885
119	0xbc97f6ad	-0.018550241
120	0xbc6b33f3	-0.014355647
121	0x3d6ead87	0.058270957
122	0xbd5ffa7d	-0.054682244
123	0x3c86fd49	0.016478198
124	0xbd88fe8a	-0.066891745
125	0x3d964e92	0.07339205
126	0xbd415823	-0.047203194
127	0x3d6baccd	0.057537843

model.6.weight f4 [128, 128]
0	0x3d9e9966	0.07744102
1	0x3c042053	0.008064347
2	0xbd4ba44b	-0.04971723
3	0x3d2f3fc3	0.042785417
4	0xbc8bd94f	-0.017071394
5	0x3d696015	0.056976397
6	0xbd898991	-0.06715692
7	0xb81d7520	-3.7540798e-05
8	0x3d1bf0ea	0.03807155
9	0xbd17dc9c	-0.037075624
10	0xbdaaef38	-0.083464086
11	0xbcb540ef	-0.02212569
12	0x3d1cfc25	0.0383264
13	0xbd55c19a	-0.052186586
14	0xbd2aa711	-0.041663233
15	0x3cc7b9c7	0.024380578
16	0x3cb7af71	0.022422524
17	0x3ca3550d	0.019938016
18	0xbd3eec70	-0.046612203
19	0xbc9c656b	-0.019091329
20	0xbdb9ceb7	-0.09072631
21	0x3d8e4185	0.069460906
22	0x3da1100f	0.07864391
23	0xbd1b1454	-0.037861183
24	0x3cd1e324	0.025621004
25	0xbd847276	-0.06467144
26	0xbd4a5d5f	-0.049405452
27	0x3db55ff8	0.08856195
28	0x3c38dabc	0.011282619
29	0xbc98af8f	-0.0186384
30	0xbd4d2a79	-0.050089333
31	0x3d4c7f98	0.04992637
32	0x3d3d47bd	0.046210993
33	0x3d93e38e	0.07221137
34	0xbd989a68	-0.07451326
35	0xbd8fb37f	-0.07016658
36	0x3c781c53	0.015143472
37	0x3be71189	0.007051651
38	0x3d84f2b9	0.06491608
39	0x3b92cbc0	0.0044798553
40	0xbcb93220	-0.02260691
41	0xbd4bef6f	-0.04978889
42	0xbba6d17b	-0.00509089
43	0xbd0755cd	-0.03304081
44	0xbda07ba5	-0.07836083
45	0xbd821acc	-0.06352767
46	0x3c4db6cf	0.012555792
47	0x3cfec0f4	0.031097867
48	0xbdbe234b	-0.09284075
49	0xbc983313	-0.018579042
50	0xbd896257	-0.0670821
51	0x3cb8f254	0.022576489
52	0xbab7704a	-0.0013995257
53	0x3d036e2d	0.032087494
54	0x3c614bed	0.013751012
55	0x3b49b47f	0.003077775
56	0xbd96017a	-0.073245004
57	0xbbdb1735	-0.006686116
58	0xbd5cee85	-0.053938407
59	0xbdac7fdb	-0.08422824
60	0x3d937f09	0.072019644
61	0xbd79a03c	-0.060943827
62	0xbd2b2c54	-0.04179032
63	0xbd55cd85	-0.05219795
64	0x3c24b72d	0.010053438
65	0x3c279f36	0.01023083
66	0x3db8d048	0.090241015
67	0xbb7170e0	-0.003684096
68	0xbd83b9fa	-0.064319566
69	0x3d7633a7	0.060107853
70	0xbd258a9d	-0.040415395
71	0x3d81bca0	0.063348055
72	0x3d459038	0.04823324
73	0x3bd45551	0.006479897
74	0x3d6851e4	0.056718722
75	0xbd9c8057	-0.076416664
76	0xbc633daa	-0.013869682
77	0x3da7b540	0.081888676
78	0xbd7a2633	-0.061071586
79	0x3d39e25e	0.045381896
80	0x3d615d76	0.055020772
81	0x3d0d2570	0.03445953
82	0xbd8f0a7e	-0.06984423
83	0x3d81eb21	0.063436754
84	0xbd579455	-0.052631695
85	0x3d928574	0.071543604
86	0xbc8ffe3e	-0.017577287
87	0x3d85e65f	0.065380804
88	0xbd6768b1	-0.056496326
89	0x3d0bb769	0.03411046
90	0x3da6fbfa	0.081535295
91	0x3d818779	0.063246675
92	0xbd9b00b9	-0.07568497
93	0xbd944269	-0.07239229
94	0x3c112c2e	0.008860631
95	0x3da44f0d	0.0802289
96	0xbd7dd2d6	-0.061968647
97	0x3dbd1703	0.09232905
98	0xbd101b05	-0.035182018
99	0xbd339561	-0.04384363
100	0xbd7cf534	-0.06175728
101	0xbc92b192	-0.017906938
102	0x3c82720a	0.015923519
103	0xbd24b5dd	-0.0402125
104	0x3d067be1	0.032832984
105	0xbd9081d3	-0.07056012
106	0x3b7b7d7b	0.0038374353
107	0x3d4af8a0	0.049553514
108	0x3cdcb3c2	0.026941184
109	0x3d085726	0.033286236
110	0x3da36a19	0.07979221
111	0xbd9cf0f3	-0.07663145
112	0x3c4ad5a4	0.012380037
113	0xbb80f406	-0.00393534
114	0xbd952ad8	-0.072835624
115	0x3d0ac92a	0.03388325
116	0x3d3057cd	0.043052483
117	0xbd98a5bd	-0.07453487
118	0x3d65527b	0.055986863
119	0x3db4eb53	0.08833947
120	0x3c2fecd6	0.010737618
121	0x3d7990ea	0.060929216
122	0x3d89c9b7	0.06727927
123	0x3d4a2230	0.04934901
124	0xbd18a103	-0.037262928
125	0xbcd4d4e9	-0.02598043
126	0x3db5a30a	0.08868988
127	0x3d4a7e10	0.04943663
128	0xbc261263	-0.01013622
129	0xbd9505f2	-0.072765246
130	0xbd1cb968	-0.038262755
131	0x3dabe7ee	0.083938465
132	0xbd93d9f7	-0.07219308
133	0xbcece065	-0.028915593
134	0x3ceee534	0.029162027
135	0x3d4cd2f5	0.05000587
136	0x3c9b945b	0.01899164
137	0x3c85afff	0.016319273
138	0x3d3eac9c	0.046551332
139	0x3c3ee7bd	0.01165193
140	0x3da063c8	0.07831532
141	0xbc55e2ca	-0.013054559
142	0xbd83e5fb	-0.0644035
143	0xbd047402	-0.032337196
144	0x3c10db88	0.008841403
145	0xbd5df2a3	-0.054186475
146	0x3c3f6cfa	0.011683697
147	0xbd8c7fcf	-0.06860315
148	0xbce03dfb	-0.027373305
149	0x3d5158e4	0.051110163
150	0xbd50e583	-0.05100013
151	0x3d7e28f4	0.062050775
152	0x3ccb3ac1	0.02480829
153	0xbc667d99	-0.014068031
154	0x3cc31cdd	0.023817474
155	0xbd25c2e0	-0.04046905
156	0x3b4c1e9f	0.0031146181
157	0x3b72647a	0.0036986158
158	0x3d816364	0.063177854
159	0x3d03fdf5	0.032224614
160	0x3d9908fb	0.07472416
161	0x3d0c2d10	0.034222662
162	0x3d92b6d3	0.07163777
163	0x3d8b2b4b	0.06795367
164	0x3d5aa244	0.053377405
165	0xbc60a47b	-0.01371109
166	0x3d0118d8	0.031517833
167	0x3cdb83c6	0.026796233
168	0xbd7b2feb	-0.061324995
169	0x3d0b81e6	0.034059428
170	0xbd7dca2c	-0.061960384
171	0xbda536d4	-0.08067098
172	0x3b696224	0.0035611475
173	0xbd9177c6	-0.07102923
174	0xbd80746e	-0.06272207
175	0x3da1585b	0.078781806
176	0xbd8fc0cc	-0.07019195
177	0x3d3b22fb	0.045687657
178	0x3dacc7dd	0.084365584
179	0xbd9a34f0	-0.07529628
180	0xbd949c5b	-0.07256385
181	0xbc8b40ee	-0.016998734
182	0x3ca02273	0.019547677
183	0x3da7fa45	0.08202032
184	0xbcb16964	-0.0216567
185	0x3aee9790	0.0018203128
186	0xbd8eab73	-0.06966295
187	0xbd929e2c	-0.07159075
188	0x3a230600	0.00062188506
189	0x3cec6a5b	0.028859308
190	0xbca07f4f	-0.019591955
191	0x3d9d5653	0.07682481
192	0x3d53de8b	0.051725905
193	0x3c95f5dd	0.018305713
194	0xbd38deca	-0.045134343
195	0xbc03f786	-0.00805462
196	0x3c832ab2	0.01601157
197	0x3d89e87e	0.067337975
198	0xbd82d0aa	-0.06387456
199	0xbd58034f	-0.05273753
200	0xbd8effe8	-0.06982404
201	0x3cacce82	0.021094564
202	0x3bd73aa5	0.0065682703
203	0xbcb8990d	-0.022533918
204	0xbd8c9243	-0.06863835
205	0xbd5eef59	-0.05442748
206	0x3b855cde	0.0040699085
207	0xbd8f99b8	-0.070117414
208	0x3d5dc4e9	0.054142866
209	0xbc40ea42	-0.011774601
210	0x3d986636	0.0744137
211	0xbd14ef00	-0.03636074
212	0x3d96cee9	0.07363684
213	0x3dae8a5e	0.08522485
214	0xbd53c729	-0.051703606
215	0xbd355c1d	-0.0442773
216	0x3cc7f0c9	0.024406807
217	0x3da8d82a	0.08244355
218	0x3db32022	0.08746363
219	0xbd0e42be	-0.03473162
220	0xbd7fcb44	-0.06244971
221	0xbd9a8904	-0.07545665
222	0x3da6beb5	0.08141843
223	0xbdac4400	-0.084114075
224	0xbceb462d	-0.028719986
225	0xbd391d4c	-0.045193955
226	0x3da7afdc	0.081878394
227	0x3db7932f	0.0896362
228	0xbd8e2681	-0.06940938
229	0x3c37d57e	0.011220334
230	0x3d0d2fe8	0.034469515
231	0xbc8aa17f	-0.01692271
232	0x3dabdeb6	0.08392088
233	0x3d57c0e1	0.052674178
234	0x3d646283	0.05575801
235	0xbd76cf10	-0.060256064
236	0xbd0b333a	-0.0339844
237	0xbd9ef6c1	-0.07761908
238	0xbd8aa3d6	-0.067695305
239	0xbd1d9e7f	-0.03848123
240	0xbd9d0190	-0.07666314
241	0x3cc3111d	0.023811871
242	0x3d7b10cb	0.061295312
243	0xbdb6d7c3	-0.08927872
244	0xbd2c3a75	-0.042047936
245	0xbb1c5428	-0.0023853872
246	0xbd8cd659	-0.06876821
247	0x3da2cd69	0.07949335
248	0xbc183805	-0.0092907
249	0xbba174ce	-0.0049272543
250	0xbd3620ca	-0.044464864
251	0xbbbb1bb9	-0.005710092
252	0x3cb0f8c7	0.021603001
253	0x3d618853	0.05506165
254	0x3dabe53d	0.08393333
255	0xbd95e6a0	-0.07319379

model.6.bias f4 [128]
0	0x3d8b45c3	0.06800415
1	0x3d7c830c	0.061648414
2	0xbb4723a1	-0.0030386227
3	0x3d52c419	0.051456545
4	0xbd4df8c5	-0.050286073
5	0xbd9fb7d6	-0.07798736
6	0x3d32de78	0.043669194
7	0x3d92acb6	0.07161848
8	0xbd812fa0	-0.06307912
9	0xbda17dd1	-0.07885326
10	0x3d126f09	0.035750423
11	0xb7fd1100	-3.0167866e-05
12	0xbd994d89	-0.07485492
13	0xbd08deed	-0.033415724
14	0x3c90683f	0.017627833
15	0x3cfe77b1	0.031062933
16	0x3c97e0a6	0.018539738
17	0x3c9eeb57	0.019399328
18	0xbd87e78d	-0.06635962
19	0xbdb9eda9	-0.09078533
20	0x3994b356	0.00028362375
21	0xbab3874e	-0.001369694
22	0xbd6aff70	-0.05737251
23	0xbd969b9c	-0.07353899
24	0xbd9036f3	-0.07041731
25	0x3da9a80d	0.08284006
26	0x3d267f10	0.04064852
27	0xbcec4eb4	-0.028846122
28	0xbd63de75	-0.055632073
29	0x3bb724cf	0.0055891047
30	0xbd2b948b	-0.04188971
31	0xbd607b2e	-0.054804973
32	0xbd8ec825	-0.06971768
33	0xbc266477	-0.010155789
34	0xbd8341a9	-0.06409008
35	0xbd6392c3	-0.055559885
36	0x3d16a626	0.036779545
37	0xbb987305	-0.0046523833
38	0x3cdf88c9	0.027286904
39	0x3d52e309	0.05148605
40	0x3c680d68	0.014163353
41	0xbd9fc7c2	-0.07801773
42	0xbd59a6cd	-0.05313759
43	0x3cde719e	0.027153786
44	0xbd1357c0	-0.035972357
45	0xbbbfc9e8	-0.0058529265
46	0x3d9dbda5	0.077021874
47	0xbd995677	-0.07487195
48	0x3d849ced	0.06475244
49	0xbd834b9d	-0.064109065
50	0x3d9c491b	0.07631131
51	0x3daac8fb	0.08339115
52	0xbd4dc6ba	-0.05023835
53	0xbd716b8e	-0.058940463
54	0x3cfc7ab0	0.03082022
55	0x3b356a58	0.0027681794
56	0xbce4f9d6	-0.027951162
57	0x3d3a35ad	0.045461345
58	0xbc12f9a7	-0.008970655
59	0xbd42b416	-0.047535025
60	0x3d1619bb	0.036645632
61	0xbd2a0e6a	-0.041517653
62	0x3cb5b024	0.022178717
63	0x3d8ae89b	0.06782647
64	0xbd9fadf2	-0.07796849
65	0xbcfd2083	-0.030899292
66	0xba299dd4	-0.00064703566
67	0x3c8978cc	0.016781233
68	0xbcbe3597	-0.023218913
69	0x3d392451	0.04520065
70	0x3c3055cc	0.010762643
71	0x3db3e280	0.08783436
72	0x3d3f3bc5	0.04668786
73	0x3d9832bb	0.07431551
74	0xbcd9670f	-0.0265384
75	0xbc1a0bb3	-0.009402203
76	0x3b719ddd	0.0036867775
77	0x3ac43032	0.0014967977
78	0x3ca0b1ff	0.019616125
79	0x3a28f97c	0.00064458675
80	0x3da2fef5	0.079587854
81	0x3cf7df8e	0.030257966
82	0x3d5dc229	0.054140244
83	0xbd8b8db6	-0.068141386
84	0x3d9070a7	0.07052737
85	0x3d4125b2	0.04715509
86	0x3d28947e	0.04115724
87	0xbd118ad3	-0.035532784
88	0xbd828175	-0.06372348
89	0xbd81cf70	-0.06338394
90	0x3d595fa9	0.053069744
91	0x3cf75538	0.030192003
92	0xbc10bb50	-0.008833721
93	0xbd5daf52	-0.054122277
94	0xbd09e9cc	-0.03367023
95	0x3c98507f	0.018593071
96	0x3d80b946	0.06285338
97	0x3d60ae25	0.054853577
98	0x3c22c7fd	0.009935376
99	0x3d872577	0.06598943
100	0xbd8ddcc3	-0.069268726
101	0x3d3b1d6f	0.045682367
102	0xbd3eecad	-0.04661243
103	0xb92faf7c	-0.00016754674
104	0xbd3c7aaf	-0.046015438
105	0x3cc99753	0.02460829
106	0xbbbe875f	-0.0058144773
107	0xbd660396	-0.056155764
108	0xbcfd2386	-0.030900728
109	0xbd20f3ac	-0.039294884
110	0x3cd65528	0.026163653
111	0xbc62f845	-0.013853137
112	0xbcae83bc	-0.02130305
113	0xbd8ccaca	-0.068746164
114	0x3bdeb076	0.006795938
115	0x3da33fbc	0.07971141
116	0xbd715d36	-0.058926784
117	0x3c1c1cdb	0.009528364
118	0x3d9ff259	0.07809896
119	0xbc1c30c7	-0.009533114
120	0x3d06c6ac	0.032904312
121	0x3da212a9	0.079137154
122	0x3cb73543	0.022364264
123	0x3a4c8bb4	0.00078028
124	0xbd6bb74f	-0.057547864
125	0x3c024676	0.0079513695
126	0xbcd14086	-0.025543462
127	0x3d4b73ec	0.0496711

model.8.weight f4 [128, 128]
0	0xbda77ad3	-0.08177724
1	0xbd6937ab	-0.056937855
2	0xbda565a2	-0.080760255
3	0x3c775891	0.0150967995
4	0x3b0ae185	0.002119155
5	0xbc95754f	-0.018244414
6	0xbd03ccba	-0.032177664
7	0xbd5a96c2	-0.05336643
8	0xb9cb3bf7	-0.00038763855
9	0xbd8924f1	-0.06696499
10	0xbdae1f5e	-0.085020766
11	0x3c9ee347	0.019395484
12	0x3cf8b884	0.030361421
13	0xbd76f8ee	-0.06029599
14	0xbd2c4fc6	-0.042068265
15	0x3b764dcd	0.0037582994
16	0x3d974cb4	0.07387677
17	0xbd160b12	-0.03663165
18	0x3bca6008	0.0061759986
19	0x3dac657d	0.08417795
20	0xbdb1d834	-0.086838156
21	0xbd76cd91	-0.060254637
22	0xbd8b6590	-0.06806481
23	0xbc08b1c7	-0.008343167
24	0xbc1982db	-0.009369577
25	0x3c8a1b14	0.016858615
26	0x3d5e7788	0.054313213
27	0xbd1fa890	-0.038979113
28	0xbda25a7e	-0.07927416
29	0x3ce87d02	0.02837992
30	0x3d35e4a4	0.0444075
31	0xbd12d369	-0.035846148
32	0xbafa1a58	-0.0019081337
33	0x3cf30a83	0.029668098
34	0x3d8871e6	0.066623494
35	0x3cdbd4da	0.026834894
36	0xbda0386b	-0.07823261
37	0x3da57a39	0.08079953
38	0x3d5486b8	0.05188629
39	0x3d8e6c65	0.06954268
40	0xbcd704a9	-0.02624734
41	0xbd67737d	-0.056506623
42	0x3cb9a9b5	0.02266393
43	0xbd709938	-0.05873987
44	0xbcf4cd46	-0.029883038
45	0xbc752cd4	-0.014964301
46	0xbd0dcec7	-0.034621026
47	0xbd839efe	-0.0642681
48	0x3d8758dc	0.066087455
49	0xbbf00e07	-0.007325891
50	0x3d782c22	0.060588963
51	0xbd2fc21f	-0.042909738
52	0xbd3c63d3	-0.045993637
53	0xbb067d19	-0.0020521341
54	0x3d736ab0	0.059427917
55	0xbd68150f	-0.056660708
56	0xbd09869e	-0.033575647
57	0xbd2bc613	-0.041936945
58	0xbd6fa0a5	-0.058502812
59	0x3d2a4bd8	0.041576236
60	0xbd3aeb5d	-0.045634616
61	0x3ce9388d	0.028469348
62	0xbda4d3aa	-0.08048184
63	0xbd485f9a	-0.048919298
64	0x3c091efa	0.008369202
65	0xbd012709	-0.031531367
66	0x3cb2e3f3	0.02183721
67	0x3dae15f6	0.085002825
68	0x3d95a70c	0.07307252
69	0x3db3f0bd	0.087861516
70	0x3b8dcc8a	0.0043273615
71	0x3d702499	0.058628652
72	0x3ce69536	0.028147321
73	0xbbb7eb98	-0.0056128018
74	0xbd9f516d	-0.077792026
75	0xbd9114f1	-0.070840724
76	0x3d3eb9de	0.046563976
77	0xbdad6bdd	-0.08467839
78	0xbda1f508	-0.07908064
79	0x3cdc8ad9	0.026921676
80	0xbb2252da	-0.0024768622
81	0x3d9f9522	0.07792117
82	0xbd8015fe	-0.06254195
83	0x3d88cd47	0.066797785
84	0x3cd7a308	0.026322857
85	0xbd6e1c98	-0.058132738
86	0x3d66c050	0.056335747
87	0x3db0afdf	0.08627295
88	0xbd82a1c8	-0.063785136
89	0x3d8fff9a	0.07031174
90	0x3d224863	0.039619815
91	0xbd954021	-0.07287622
92	0x3c4e009c	0.0125733875
93	0x3d3e990c	0.046532676
94	0x3d8df53c	0.0693154
95	0x3d0bbecc	0.034117505
96	0xbc951ee3	-0.018203204
97	0xbd9855b2	-0.0743822
98	0x3db15cb4	0.0866026
99	0xbda25f83	-0.07928374
100	0x3d7892df	0.060686942
101	0x3d1d4464	0.0383953
102	0xbaecf936	-0.0018079642
103	0x3db3f409	0.087867804
104	0x3d4f2d4a	0.0505803
105	0x3cf3a4c0	0.029741645
106	0xbdae1832	-0.08500709
107	0x3cc8495e	0.024449047
108	0x3ba54702	0.005043865
109	0x3d3ec58a	0.046575107
110	0x3dabfc81	0.08397771
111	0xbd2b6373	-0.04184289
112	0xbd367624	-0.04454626
113	0x3d241041	0.040054563
114	0x3da00829	0.078140564
115	0xbd7ae68e	-0.06125503
116	0x3b81a5e2	0.0039565424
117	0x3cb31e93	0.021865165
118	0x3d558ae3	0.052134406
119	0x3d116640	0.035497904
120	0x3d99db3c	0.07512519
121	0x3da3c737	0.079969816
122	0x3d55249a	0.05203686
123	0xbcd234c7	-0.025659932
124	0xbc789b02	-0.0151736755
125	0x3cd2b47c	0.025720827
126	0x3cee434e	0.029084828
127	0x3b6c6e7c	0.0036076596
128	0x3d961826	0.07328825
129	0x3da15423	0.07877376
130	0xbc54cd92	-0.012988465
131	0x3d8f78ce	0.070054635
132	0x3db7dd52	0.089777604
133	0x3db14de6	0.08657436
134	0x3d305224	0.043047085
135	0xbc806612	-0.01567367
136	0x3d834faa	0.06411679
137	0xbd8b3f4c	-0.06799182
138	0x3d08e098	0.033417314
139	0x3c35ed23	0.011103901
140	0x3da3c7c4	0.07997087
141	0xbd803085	-0.06259254
142	0x3d0e8cbc	0.034802184
143	0xbcdd1742	-0.02698863
144	0xbccf5d90	-0.025313169
145	0x3d0156e0	0.03157699
146	0xbd105dd6	-0.03524574
147	0x3d24f4ae	0.040272407
148	0xbd133e96	-0.03594836
149	0x3da3bd9c	0.079951495
150	0xbd4f07ec	-0.050544664
151	0x3d3670c9	0.044541154
152	0x3d6ba678	0.057531804
153	0xbc9642a9	-0.018342333
154	0x3d9ee746	0.07758956
155	0xbda435e7	-0.080180936
156	0xbd20e1d9	-0.039277885
157	0x3c7d8613	0.01547386
158	0xbc0525f1	-0.008126722
159	0xbcdfff60	-0.027343452
160	0xbd99b823	-0.075058244
161	0x3cc88662	0.024478141
162	0xbd918207	-0.07104879
163	0x3d9daeb3	0.07699337
164	0x3ccdc436	0.025117975
165	0xbd2a817a	-0.041627385
166	0xbd5a916f	-0.053361353
167	0x3da49ec0	0.08038092
168	0x3d922540	0.07136011
169	0xbd7b6263	-0.061373126
170	0x3da6a787	0.08137422
171	0xbd8c94ed	-0.06864343
172	0xbd69616e	-0.05697768
173	0xbc2dfa71	-0.010618792
174	0x3dae0b99	0.08498306
175	0xbd944cfa	-0.072412446
176	0x3bfc1019	0.0076923487
177	0xbd92f29b	-0.071751796
178	0xbd4ea549	-0.050450597
179	0xbbdda233	-0.0067637204
180	0xbcc4f6cb	-0.024043461
181	0x3d8e0ec6	0.069364116
182	0xbcc8144a	-0.024423737
183	0xbd664719	-0.056220148
184	0x3d0ed156	0.034867607
185	0xbdaaa140	-0.08331537
186	0x3be4f75c	0.0069874953
187	0x3d662696	0.056189142
188	0x3cf625cb	0.030047318
189	0x3d92fb9c	0.07176897
190	0xbd534022	-0.051574834
191	0x3d7f159c	0.062276468
192	0x3d491257	0.049089756
193	0x3da858e3	0.08220079
194	0xbd757ce5	-0.05993356
195	0xbd13f5d4	-0.03612311
196	0xbdaec25c	-0.08533165
197	0x3cebb0be	0.0287708
198	0xb9b07a1c	-0.00033660315
199	0x3949c7f1	0.00019243338
200	0x3cf3be54	0.029753841
201	0x3d8f85e3	0.07007959
202	0xbcfc84c8	-0.030825034
203	0x3bdec7f0	0.0067987368
204	0xbc9cbdcc	-0.019133471
205	0xbcd4aecd	-0.025962258
206	0x3b4f1e2b	0.0031603675
207	0x3bac3bdd	0.0052561597
208	0xbd548187	-0.05188134
209	0xbd262f5b	-0.040572505
210	0xbc8e4909	-0.01736881
211	0xbd903103	-0.07040598
212	0x3b1c872f	0.0023884287
213	0xbdbbe740	-0.09174967
214	0xbb9d3d31	-0.0047985543
215	0x3db82555	0.089914955
216	0x3d829e69	0.063778706
217	0x3da4a22e	0.08038746
218	0xbdb16694	-0.08662143
219	0x3c0e76e5	0.008695339
220	0x3d58e5cb	0.052953523
221	0xbcc5b587	-0.02413441
222	0xbd60b234	-0.054857448
223	0xbc5bc2f3	-0.013413179
224	0x3d412284	0.047152057
225	0x3da580d3	0.08081212
226	0xbd820931	-0.06349409
227	0x3c5025e7	0.012704349
228	0x3d03b1e2	0.032152064
229	0x3d6f1f4e	0.058379464
230	0x3cedce7a	0.02902912
231	0x3d49c8a8	0.049263626
232	0x3dad711d	0.0846884
233	0x3d92e7ae	0.07173096
234	0xbbfb31af	-0.007665835
235	0xbcb4bdd5	-0.022063175
236	0xbd84e9c3	-0.06489899
237	0xbd30510f	-0.043046053
238	0xbb87aa87	-0.0041402015
239	0x3daa53b5	0.08316747
240	0x3da94d52	0.08266701
241	0x3caffdb1	0.021483274
242	0x3c8f8be1	0.017522754
243	0xbd00f4c1	-0.031483416
244	0xbcfbf8a8	-0.030758217
245	0x3d40d64a	0.047079362
246	0xbd706ab8	-0.058695525
247	0xbc016c51	-0.00789936
248	0xbd3a61ef	-0.045503553
249	0xbcde47e8	-0.027133897
250	0x3cc409eb	0.02393051
251	0xbd542a1d	-0.051797975
252	0x3d8664e7	0.06562214
253	0x3d28e4ed	0.041233946
254	0x3d5539a4	0.052056924
255	0x3d8f459e	0.069957

model.8.bias f4 [128]
0	0x3c50e3df	0.012749641
1	0xbd1ab4ba	-0.03777001
2	0x3d553849	0.05205563
3	0x3d225418	0.03963098
4	0x3d53d60a	0.051717795
5	0x3dad5a87	0.08464532
6	0x3d9a9b1f	0.07549118
7	0x3d780542	0.06055189
8	0xbd0784fe	-0.033085816
9	0x3d43868a	0.04773573
10	0x3d445f97	0.047942724
11	0xbd128e72	-0.035780378
12	0x3d414d53	0.047192883
13	0x3d4100aa	0.047119774
14	0xbda7f384	-0.08200744
15	0xbca074fe	-0.019587036
16	0xbd10cd57	-0.035352077
17	0xbd9bae2a	-0.076015785
18	0xbbbae38a	-0.0057033943
19	0xbcaaded7	-0.020858211
20	0x3c96e751	0.018420847
21	0x3daf7260	0.08566737
22	0x3d743d5c	0.05962883
23	0x3b82e8a7	0.0039950195
24	0xbd9ad180	-0.0755949
25	0x3d8c16a0	0.06840253
26	0xbd0dc1b3	-0.034608554
27	0x3da87989	0.08226306
28	0xbd06a870	-0.03287548
29	0xbcb5cd77	-0.0221927
30	0xbd4f859b	-0.050664525
31	0xbbf3d25d	-0.0074408487
32	0x3d85c563	0.06531789
33	0x3cf2b022	0.029625002
34	0x3cfc3081	0.030784847
35	0x3d8ebcc8	0.06969601
36	0x3d2ec0ac	0.042664215
37	0x3cff3164	0.031151481
38	0xbd477481	-0.04869509
39	0xbd2f24df	-0.042759772
40	0x3d2f5164	0.04280223
41	0x3c26d6f9	0.010183089
42	0x38f34a46	0.000116009775
43	0x3b7139a3	0.0036808036
44	0xbd443d07	-0.047909763
45	0xbd1b8906	-0.037972473
46	0x3d393c19	0.04522333
47	0x3d3ab77d	0.045585144
48	0x3d00b943	0.03142668
49	0xbd767cae	-0.060177498
50	0x3d671372	0.05641503
51	0xbdb04b87	-0.08608156
52	0x3d8e7e9a	0.06957741
53	0xbc874bf0	-0.016515702
54	0xbda7aefb	-0.08187672
55	0x3d04f72a	0.032462277
56	0x3c9d326c	0.019189082
57	0xbcd6cff2	-0.026222203
58	0xbd905250	-0.0704695
59	0x3d8a74ed	0.06760583
60	0xbc01b615	-0.007916947
61	0x3d35d855	0.044395763
62	0xbd1338d3	-0.035942864
63	0x3daa562d	0.08317218
64	0xbd8ac31c	-0.067754954
65	0xbd5b6473	-0.053562593
66	0xbd836ba3	-0.064170144
67	0x3c8bc406	0.017061245
68	0xbd4493f5	-0.047992665
69	0xbd8a35b7	-0.067485265
70	0x3daf0666	0.08546142
71	0x3d572ce8	0.05253306
72	0x3ce89713	0.02839235
73	0x3da414cd	0.0801178
74	0xbdb67a98	-0.08910102
75	0x3d0e8aad	0.03480022
76	0xbcd77050	-0.026298672
77	0x3d3220ea	0.04348842
78	0xbd9b6965	-0.07588462
79	0x3b9835d9	0.004645091
80	0xbd867542	-0.06565334
81	0x3da74068	0.081665814
82	0xbd7195c3	-0.058980715
83	0x3c74c5cd	0.0149397375
84	0xbd1ed482	-0.038776882
85	0x3b8b7af3	0.0042566
86	0x3c4a6506	0.012353187
87	0x3a42d91a	0.00074328633
88	0xbdb24e76	-0.087063715
89	0xbd8f6f21	-0.07003618
90	0x3d09fdb0	0.0336892
91	0x3c8c4431	0.01712236
92	0x3d89ba2f	0.06724965
93	0xbcae021c	-0.02124124
94	0x3d037178	0.032090634
95	0xbce2cc65	-0.027685354
96	0xbd5eb425	-0.054371018
97	0xbd917c46	-0.071037814
98	0x3d5f93e7	0.05458441
99	0xbd8356ed	-0.06413064
100	0xbc27a1c9	-0.010231444
101	0xbbd5b2cc	-0.0065215584
102	0xbd2940c2	-0.041321523
103	0xbcc4415d	-0.023956949
104	0x3bc6913a	0.006059793
105	0xbd6d5632	-0.05794353
106	0x3d812d11	0.06307424
107	0x3d054757	0.032538738
108	0x3d1fe10f	0.039032992
109	0x3d90d13c	0.07071158
110	0x3caf99c5	0.021435628
111	0xbc90c0f5	-0.017670134
112	0x3b98bc64	0.00466113
113	0x3d91381b	0.070907794
114	0xbd12bb50	-0.035823166
115	0x3b73b878	0.003718881
116	0x3ce509be	0.027958747
117	0xbcece402	-0.028917316
118	0x3d014072	0.0315556
119	0xbb92cf9d	-0.004480316
120	0xbd4334df	-0.047657844
121	0x3beef2a8	0.0072921105
122	0x3c6b5263	0.014362904
123	0x3c5a7be4	0.013335202
124	0xbcd3a6b6	-0.02583633
125	0xbd810791	-0.06300271
126	0xbd8794fe	-0.06620215
127	0xba2c6109	-0.00065757387
