experiments/dispersion_pinn.pth (torch, 940940 bytes, 35 tensors)

model.0.weight f4 [128, 1]
0	0xbb82611a	-0.0039788606
1	0xbeeefd07	-0.4667742
2	0x3f2969b6	0.6617693
3	0xbe1a03d8	-0.15040529
4	0xbca319bb	-0.01990973
5	0xbf7fbd94	-0.9989865
6	0xbf76a7f2	-0.96350014
7	0x3f59107c	0.8479078
8	0xbf531840	-0.8245888
9	0x3f5cd307	0.862595
10	0xbf6b3c61	-0.91889006
11	0xbeedefdf	-0.4647207
12	0x3f38bfc1	0.72167593
13	0x3f3a0fc5	0.7268031
14	0x3e754cdc	0.23955101
15	0xbe08faed	-0.1337697
16	0x3ebdbb9a	0.3705719
17	0x3f37d0cf	0.7180299
18	0x3ea6a425	0.32547107
19	0x3ef59ef7	0.47972843
20	0xbf669b41	-0.9008065
21	0xbd758569	-0.059941683
22	0xbed8eec7	-0.42369673
23	0x3ebe3b3a	0.3715456
24	0xbe82b724	-0.2553035
25	0xbf3273bc	-0.69707847
26	0xbf65bfd1	-0.89745814
27	0xbf76ff54	-0.9648335
28	0x3f2adf97	0.6674742
29	0x3d067f9c	0.03283654
30	0x3f5845e4	0.84481645
31	0xbf4898bc	-0.78358054
32	0x3f0e5ccb	0.5561034
33	0xbf02c91c	-0.5108812
34	0xbbfd32e4	-0.007727014
35	0x3f0465f3	0.5171806
36	0xbf2da5d4	-0.6783116
37	0x3f037efb	0.5136563
38	0xbe8cd280	-0.2750435
39	0x3db4f626	0.088360116
40	0xbdf93c19	-0.12169666
41	0xbf4bb0c5	-0.79566604
42	0x3ec1b959	0.37836722
43	0xbf139e14	-0.57663083
44	0xbecb889a	-0.39752656
45	0xbf35fbce	-0.7108735
46	0x3f2b8bb5	0.6701005
47	0x3eabc392	0.33547646
48	0xbf774742	-0.96593106
49	0x3f567277	0.8376841
50	0xbf6947b6	-0.9112505
51	0x3e725252	0.23664215
52	0x3f4aa3a9	0.79155976
53	0x3f259704	0.64683557
54	0xbeb7ce0f	-0.35899398
55	0xbf3dd1ce	-0.7414826
56	0xbf3654a4	-0.712229
57	0x3f2ccf65	0.6750396
58	0x3f73bd57	0.95210785
59	0xbf0d9a02	-0.5531312
60	0xbf6b90a2	-0.9201757
61	0x3d52b4a4	0.051441804
62	0xbebee83b	-0.37286553
63	0xbec2bdde	-0.38035482
64	0xbf73f0de	-0.9528941
65	0xbf196c30	-0.59930706
66	0x3f20e45e	0.6284846
67	0xbee362e2	-0.4441138
68	0x3f6f59b5	0.9349626
69	0x3efa62c1	0.48903468
70	0x3db0186a	0.085984066
71	0x3f166145	0.5874217
72	0xbeb3688b	-0.35040697
73	0xbf0bd3b3	-0.546199
74	0x3da837ae	0.08213745
75	0xbf64db1a	-0.8939682
76	0x3dcd96b2	0.100385085
77	0xbe76a361	-0.24085762
78	0x3efe34aa	0.49649554
79	0xbe6010e7	-0.21881448
80	0x3d86fc78	0.06591123
81	0xbed8b9f1	-0.42329362
82	0x3e255fec	0.16149873
83	0xbe533bc2	-0.20628265
84	0x3dbad956	0.09123485
85	0xbdb3dd83	-0.087824844
86	0x3f3d545a	0.73956835
87	0xbf4699a6	-0.775782
88	0xbf3e13b9	-0.74248844
89	0xbf0085e7	-0.5020432
90	0xbe6c21d9	-0.23059787
91	0x3ebaf647	0.3651602
92	0x3cc8e399	0.02452259
93	0xbe6381b9	-0.22217454
94	0x3ed9a41a	0.42508012
95	0xbf4774f5	-0.7791284
96	0xbe076233	-0.13221054
97	0xbf5ba848	-0.8580365
98	0x3e741432	0.23835829
99	0xbf324338	-0.6963382
100	0xbf465dcf	-0.7748689
101	0x3f05b6f4	0.5223229
102	0x3eab657f	0.33475873
103	0xbe262361	-0.16224433
104	0xbf0bef63	-0.5466215
105	0x3f0dad79	0.55342823
106	0x3f43919d	0.76394063
107	0xbf7df149	-0.99196297
108	0xbec33315	-0.3812491
109	0xbe96ecb8	-0.29477477
110	0xbf56b8fe	-0.83876026
111	0xbf349887	-0.7054524
112	0x3f4d5f71	0.8022376
113	0xbeefb380	-0.46816635
114	0x3e646e85	0.22307785
115	0xbf4b4e16	-0.79416025
116	0xbee93ac6	-0.45552653
117	0x3de01a69	0.10942537
118	0x3bfcb4d3	0.0077119856
119	0x3f113b33	0.56730956
120	0x3f32e2b9	0.698772
121	0xbf5ead52	-0.86983216
122	0x3e67e382	0.22645381
123	0xbf4e3f45	-0.8056529
124	0xbe848c83	-0.25888452
125	0x3f7b2d4f	0.9811601
126	0xbf2bfd79	-0.67183644
127	0x3f19e300	0.60112

model.0.bias f4 [128]
0	0x3ce5c33c	0.028047197
1	0xbbc34d57	-0.0059601474
2	0x3eea2926	0.4573452
3	0x3f72c892	0.94837296
4	0xbd4f6f6f	-0.05064338
5	0xbebc736c	-0.3680681
6	0xbeecf6c3	-0.46282014
7	0xbf110069	-0.5664125
8	0xbe874bb7	-0.26424953
9	0xbec7298f	-0.38898894
10	0xbf132d9c	-0.5749147
11	0xbf0d5f69	-0.5522371
12	0x3e881355	0.2657725
13	0xbeb22103	-0.3479081
14	0x3be91c27	0.0071139517
15	0x3f466ea3	0.7751257
16	0x3d7d825f	0.06189191
17	0x3f185022	0.5949727
18	0x3eae8e14	0.34092772
19	0x3f2c7b90	0.6737604
20	0x3f074fe0	0.52856255
21	0xbd0c6d25	-0.034283776
22	0xbf45348c	-0.77033305
23	0xbe5a1bb9	-0.21299638
24	0xbe403bfe	-0.18772885
25	0xbf40d688	-0.7532735
26	0x3f0fffca	0.5624968
27	0x3d5e8244	0.05432345
28	0x3f521a4d	0.8207138
29	0xbf0e43e3	-0.55572337
30	0xbf20c65b	-0.62802666
31	0x3f22dd87	0.63619274
32	0x3f508df1	0.81466585
33	0xbea48752	-0.3213449
34	0xbe9f4c29	-0.31112793
35	0xbddcf28e	-0.10788451
36	0x3e64963a	0.22322932
37	0x3f4ea862	0.8072568
38	0x3f48aaac	0.78385425
39	0x3f30d55b	0.69075555
40	0x3e271816	0.16317782
41	0xbf0dc894	-0.5538418
42	0xbf089cc0	-0.5336418
43	0x3f5b5002	0.8566896
44	0x3f4ab787	0.7918629
45	0x3db0bb24	0.08629444
46	0xbf42740f	-0.7595834
47	0xbe9c270a	-0.30498534
48	0x3f4cef28	0.80052423
49	0xbf3e07e7	-0.7423081
50	0xbf398fc4	-0.72484994
51	0x3f643db5	0.8915666
52	0x3f1b8102	0.60743725
53	0xbef5ce8a	-0.4800914
54	0xbecb8fa8	-0.3975804
55	0x3e1c1174	0.15241033
56	0x3ece3a12	0.4027868
57	0x3dcae945	0.09907774
58	0xbf31c7a5	-0.6944526
59	0xbf1270a8	-0.5720315
60	0x3f28edbf	0.6598777
61	0x3d801e39	0.062557645
62	0xbd754a85	-0.05988552
63	0xbe9592a9	-0.29213455
64	0x3f508444	0.8145182
65	0x3ee8af2f	0.45446154
66	0xbf0c4d40	-0.54805374
67	0xbf502dd2	-0.81319916
68	0x3df975ba	0.12180658
69	0x3f53ea8a	0.82779753
70	0x3e4b0977	0.1982783
71	0x3db0b15d	0.08627579
72	0xbf356f95	-0.70873386
73	0xbf06b9eb	-0.5262744
74	0xbf2e120a	-0.67996275
75	0xbe3de355	-0.18543752
76	0xbf45223f	-0.7700538
77	0xbd5bcc87	-0.05366185
78	0xbf11271d	-0.5670031
79	0xbe31c4ba	-0.17360201
80	0x3f481f6d	0.7817295
81	0x3f7973f9	0.97442585
82	0x3cdd42a3	0.027009314
83	0xbf26514f	-0.6496782
84	0x3ee332dc	0.4437474
85	0x3f26900e	0.6506356
86	0x3f4739a8	0.7782235
87	0x3e9b383a	0.30316335
88	0xbdbda80c	-0.09260568
89	0x3e1a0347	0.15040313
90	0x3f794151	0.9736529
91	0xbeccd8cb	-0.4000915
92	0xbe972fd9	-0.29528692
93	0x3ed68f6a	0.4190629
94	0xbf02f0bb	-0.51148576
95	0x3f1ef655	0.6209462
96	0xbd5f4b15	-0.054514963
97	0xbf34c521	-0.70613295
98	0x3f3dd181	0.741478
99	0x3e95bbe7	0.2924492
100	0xbe8bc85c	-0.273013
101	0x3dea9544	0.114542514
102	0xbf789376	-0.9710001
103	0x3e317811	0.17330958
104	0xbf4f950d	-0.8108681
105	0xbe22cd25	-0.15898569
106	0xbf5ce744	-0.86290383
107	0x3f0adcde	0.54243267
108	0xbf1a4409	-0.60260063
109	0xbe51110f	-0.20416664
110	0xbf071e6f	-0.5278081
111	0x3f0a5057	0.5402884
112	0x3f2d116c	0.6760471
113	0xbe77b07e	-0.2418842
114	0x3f4a4f48	0.79027224
115	0x3de6d71d	0.11271498
116	0x3f3e4c30	0.74335
117	0x3f585539	0.8450504
118	0x3eb2a0a8	0.34888196
119	0x3f0dd552	0.55403626
120	0xbedd07b2	-0.43169934
121	0xbf5c2a90	-0.86002445
122	0x3f40fd3b	0.753864
123	0xbebe35d9	-0.37150458
124	0x3f668001	0.9003907
125	0x3d9aa5e8	0.07551175
126	0x3f6efb39	0.93352085
127	0xbe8c36a6	-0.27385443

model.2.weight f4 [128, 128]
0	0x3d28ca1e	0.04120838
1	0xbd08db9b	-0.033412557
2	0x3d80b89b	0.06285211
3	0xbda1e785	-0.07905487
4	0x3d773816	0.060356222
5	0x3d767188	0.060166866
6	0xbda955c9	-0.08268315
7	0x3da673e9	0.08127577
8	0x3ceff67e	0.029292341
9	0xbd7c2890	-0.06156212
10	0x3ce62d75	0.028097847
11	0xbdb4a381	-0.088202484
12	0x3c9cfca8	0.019163445
13	0x3d95abd4	0.07308164
14	0xbd411260	-0.047136664
15	0x3d986c6b	0.07442554
16	0xbcee685f	-0.029102502
17	0x3d9385b1	0.07203234
18	0xbd380c4f	-0.044933613
19	0x3cde97b6	0.02717195
20	0x3da54993	0.08070674
21	0xbd98747b	-0.07444092
22	0x3da8c8bc	0.08241412
23	0xbd6102fa	-0.05493448
24	0x3d5b183a	0.0534899
25	0xbb87889b	-0.0041361577
26	0xbd6ae61d	-0.05734836
27	0xbca6fe96	-0.020385068
28	0x3db391f7	0.08768075
29	0xbd9acab1	-0.075581916
30	0x3d9d07e8	0.076675236
31	0x3d3ee885	0.046608467
32	0x3d39db62	0.045375235
33	0x3d3c4719	0.04596624
34	0xbdb2b234	-0.08725396
35	0xbcdbfdd4	-0.026854433
36	0x3c9ebf5f	0.019378362
37	0x3dbd553c	0.09244773
38	0x3cd7d5ab	0.026347002
39	0xbd7fc2a6	-0.06244149
40	0x3cfc1720	0.030772746
41	0x3d8098b0	0.06279123
42	0x3cdc55ce	0.026896384
43	0x3d11959a	0.03554306
44	0xbd9494df	-0.072549574
45	0xbd1b4813	-0.037910532
46	0x3d1c5710	0.038168967
47	0x3d9888bb	0.07447954
48	0x3ba99418	0.005175125
49	0xbd3f68d3	-0.046730828
50	0x3d8b7e19	0.068111606
51	0xbd832429	-0.064033814
52	0x3ce997f2	0.028514836
53	0x3ca54e16	0.020178836
54	0x3d2af551	0.04173786
55	0xbd84d9a1	-0.06486822
56	0xbd493182	-0.04911948
57	0xbcb1ce4d	-0.021704817
58	0xbd33bcee	-0.04388135
59	0xbcf219ca	-0.029553313
60	0xbc8bebab	-0.017080149
61	0x3cfebb0f	0.031095056
62	0x3da458c7	0.080247454
63	0x3ca08778	0.019595847
64	0x3d71112e	0.058854274
65	0x3d023553	0.031789135
66	0xbd8b3610	-0.06797421
67	0x3c868f7c	0.01642584
68	0xbd4d8eb3	-0.050184917
69	0xbd644108	-0.05572608
70	0xbaa3fda4	-0.0012511504
71	0xbc9164f0	-0.017748326
72	0xbc8109d1	-0.015751751
73	0xbd8406ca	-0.064466074
74	0xbd632f3e	-0.055464976
75	0x3d057c8d	0.032589484
76	0xbbdd8717	-0.0067604887
77	0xbb5d594e	-0.0033775154
78	0xbd921aff	-0.07134055
79	0xbb91ddf4	-0.0044515077
80	0xbd6df82c	-0.058098003
81	0xbc81ad3b	-0.015829673
82	0xbda0c699	-0.078503795
83	0xbdbe5cce	-0.09295045
84	0xbd1adb75	-0.037806947
85	0xbd6e3db4	-0.058164313
86	0x3a87ebde	0.0010369977
87	0x3d8ffa17	0.07030123
88	0x3d9ec770	0.077528834
89	0x3c7fd9e5	0.015615915
90	0xbd212fe8	-0.039352328
91	0xbd8a2def	-0.067470424
92	0x3cb2cde8	0.0218267
93	0x3cb742f1	0.022370787
94	0xbcc1cae0	-0.023656309
95	0x3c200586	0.009766942
96	0x3d2a98a6	0.041649483
97	0x3d857f85	0.06518463
98	0xbcc81b87	-0.024427189
99	0xbbcd11e9	-0.0062582386
100	0xbd83e51a	-0.06440182
101	0xbbc74715	-0.0060814717
102	0xbd93f60f	-0.07224666
103	0x3b0c5184	0.0021410892
104	0x3daac329	0.08338005
105	0x3d246d0e	0.040143065
106	0x3dbe4f10	0.09292424
107	0x3da3dabc	0.08000705
108	0x3d72fb89	0.059321914
109	0x3d88fb99	0.066886134
110	0x3d49c10f	0.04925638
111	0xbc6ab5ed	-0.014325601
112	0x3d0327d0	0.03202039
113	0xbdb51708	-0.088422835
114	0x3d1e9d79	0.038724396
115	0x3c25f584	0.010129336
116	0x3d98fdc4	0.07470277
117	0x3d937785	0.07200531
118	0xbd90b2c8	-0.0706535
119	0xba5c3004	-0.0008399489
120	0xbd53ec71	-0.05173916
121	0xbcb48827	-0.022037579
122	0xbca1903f	-0.019722102
123	0xbd5577c9	-0.05211619
124	0xbd915775	-0.07096759
125	0x3d7df2c6	0.061999105
126	0x3b50a26e	0.0031835097
127	0xbd16fd40	-0.03686261
128	0xbd68b3fc	-0.05681227
129	0x3d9329dc	0.071857184
130	0xbd8803a8	-0.066413224
131	0xbdafa092	-0.08575548
132	0xbd9917d6	-0.074752495
133	0x3da5d0a1	0.080964334
134	0x3d5a6df8	0.05332753
135	0x3d227f75	0.039672334
136	0xbd3fbde7	-0.046811964
137	0x3cbe4059	0.023224043
138	0xbcaea9c0	-0.021321177
139	0xbd922ecb	-0.07137831
140	0xbd145fbc	-0.036224112
141	0x3a17eaae	0.0005795163
142	0xbd54f275	-0.051989038
143	0xbd228652	-0.03967888
144	0x3cac1f14	0.021010913
145	0x3d00e4e4	0.031468287
146	0xbda773e9	-0.08176405
147	0xbdad2fe1	-0.08456398
148	0x3d6e3efd	0.05816554
149	0x3d1babc1	0.038005594
150	0xbd849a6c	-0.06474766
151	0xbd6dd575	-0.058064897
152	0x3b9b3b27	0.004737276
153	0xbd43ae4b	-0.04777364
154	0x3d9bac84	0.07601264
155	0xbbb17031	-0.0054149856
156	0x3d02509d	0.03181516
157	0xbd897dd6	-0.067134544
158	0x3ccdc05a	0.025116134
159	0xbcb32662	-0.021868888
160	0xbda0b399	-0.078467555
161	0xbd34fa34	-0.044183925
162	0x3c8c1bb5	0.017103055
163	0xbc81f2a5	-0.015862772
164	0xbc77aa9c	-0.01511636
165	0xbc0bccfa	-0.008532757
166	0xbc55c1d8	-0.013046704
167	0xbd8ce2c9	-0.06879193
168	0xbd2adabe	-0.041712515
169	0x3c038fa6	0.008029854
170	0x3cab4254	0.020905651
171	0xbc0c61a3	-0.0085682
172	0x3d42e72f	0.047583755
173	0xbcf1e526	-0.029528212
174	0x3d94af55	0.072600044
175	0xbdaeec6d	-0.085411884
176	0x3d1da0c7	0.038483407
177	0xbcecc4cd	-0.028902436
178	0xbd8a5f1c	-0.06756422
179	0xbdb1596e	-0.086596355
180	0x3d377584	0.044789806
181	0xbb609aac	-0.003427188
182	0x3db4b2b1	0.08823145
183	0x3c885d9b	0.016646197
184	0x3c5a8a5a	0.01333865
185	0x3da66327	0.081243806
186	0xbdaba938	-0.08381885
187	0x3d250430	0.040287197
188	0x3d4823fc	0.048862442
189	0xbbd0d8d8	-0.006373506
190	0x3d04f516	0.032460295
191	0xbd1c8b0f	-0.038218554
192	0x3da274fa	0.07932468
193	0x3cf81efc	0.030288212
194	0x3d086edc	0.03330885
195	0x3cc9c9fd	0.024632448
196	0xbd719386	-0.05897858
197	0x3d98357c	0.07432076
198	0xbca56240	-0.02018845
199	0xbda0bc97	-0.07848471
200	0x3ccac583	0.024752384
201	0x3ca5a00d	0.02021792
202	0xbd9b73d8	-0.07590455
203	0xbd91e256	-0.07123248
204	0xbda7bf6e	-0.08190809
205	0x3cc19cfe	0.02363443
206	0xbdabd2c6	-0.08389811
207	0xbd7eb48c	-0.0621839
208	0x3cf9f56b	0.030512532
209	0x3d97708a	0.07394512
210	0xbd02e82e	-0.031959705
211	0xbd85bb53	-0.0652987
212	0x3aa43f4a	0.0012531069
213	0xbca5ac45	-0.020223746
214	0xbd235787	-0.039878394
215	0x3d228ccb	0.039685052
216	0x3d618141	0.055054907
217	0xbd9ffbf8	-0.07811731
218	0xbbca26eb	-0.00616919
219	0x3cf93dc8	0.030424967
220	0xbdac444a	-0.084114626
221	0xbd548bb5	-0.051891048
222	0xbc20cef9	-0.009814971
223	0xbce862b0	-0.02836737
224	0xbd987b5d	-0.07445405
225	0xbd32288b	-0.043495696
226	0x3d7ceba7	0.061748173
227	0x397fa8e8	0.00024381618
228	0x3cd07062	0.025444213
229	0x3d4e1de2	0.050321467
230	0x3cc220da	0.023697305
231	0x3da4ca3a	0.08046384
232	0x3cf70cbe	0.030157443
233	0x3c0b9e3e	0.008521615
234	0x3d3e84e4	0.046513453
235	0x3c030484	0.007996682
236	0x3cafcca6	0.021459889
237	0xbd3094fe	-0.04311084
238	0x3c74012e	0.014892859
239	0xbd52f386	-0.051501773
240	0x3d8ed328	0.069738686
241	0xbd82188e	-0.0635234
242	0xbda23ab8	-0.07921356
243	0xbc3538e5	-0.011060928
244	0x3d9a9839	0.075485654
245	0x3d8c1e3b	0.068417035
246	0xbd7aca30	-0.061227977
247	0x3d5fed14	0.054669455
248	0xbdb4f46f	-0.088356845
249	0x3db3d76d	0.087813236
250	0x3cbdc24a	0.023163933
251	0xbb4c1ad6	-0.0031143925
252	0xbca47c7f	-0.020078896
253	0xbcb828b5	-0.022480348
254	0x3d12d5d9	0.035848472
255	0x3ae11fe5	0.0017175643

model.2.bias f4 [128]
0	0xbd4b228c	-0.049593493
1	0xbd6ffa0e	-0.05858808
2	0xbda6f61b	-0.0815241
3	0x3c5e690b	0.013574849
4	0x3d7ac003	0.061218273
5	0x3b3e4231	0.0029031152
6	0x3d24bcd5	0.040219147
7	0xbbe5dec4	-0.007015081
8	0xbd319cc6	-0.0433624
9	0x3db4d6ee	0.08830057
10	0x3d1103ed	0.035404135
11	0xbd524d19	-0.051343057
12	0xbdadbbad	-0.08483062
13	0x3d990e42	0.074734226
14	0x3d9eb92f	0.07750165
15	0x3bc1fc51	0.005919971
16	0x3c39b483	0.011334541
17	0x3d6281b4	0.055299476
18	0x3d471725	0.048606057
19	0xbce8a155	-0.028397242
20	0xbc9ab836	-0.018886667
21	0xbd367e7d	-0.044554222
22	0xbc9645f8	-0.01834391
23	0x3c1bd00c	0.009510051
24	0x3c9ea127	0.019363953
25	0x3d61802d	0.05505388
26	0x3ce97e00	0.028502464
27	0x3dab527f	0.08365344
28	0xbd524a33	-0.051340293
29	0x3d10da1a	0.035364248
30	0x3d9c4b50	0.07631552
31	0x3d871a33	0.06596794
32	0x3d6b710b	0.057480853
33	0xbcab9655	-0.020945707
34	0xbd7a031f	-0.061038133
35	0xbca016ba	-0.019542087
36	0xbd8acb2e	-0.06777035
37	0x3c80f46b	0.015741548
38	0xbd0fca4c	-0.035105035
39	0xbd05f3f5	-0.03270336
40	0x3d09d9e4	0.033655062
41	0xbae896eb	-0.0017745172
42	0xbcd8f0b5	-0.026481966
43	0xbd8f406b	-0.069947086
44	0x3c291283	0.010319355
45	0xbdafaa5e	-0.08577417
46	0x3d8c6108	0.06854445
47	0xbd5a25c2	-0.053258665
48	0xbd53f89f	-0.051750775
49	0xbcebf564	-0.028803535
50	0xbd8ae8cb	-0.06782683
51	0xbcf16050	-0.02946487
52	0x3d86cfc5	0.06582598
53	0x3be8db0f	0.007106192
54	0xbd1465f3	-0.03623004
55	0xbd893d19	-0.067011066
56	0x3c918a9d	0.017766291
57	0xbc970780	-0.018436193
58	0xbd888c66	-0.06667404
59	0x3d475de3	0.04867352
60	0x3d96c3ba	0.07361551
61	0x3d71deea	0.059050478
62	0x3d9cceba	0.076566175
63	0x3d562824	0.052284375
64	0x3d914855	0.07093874
65	0x3d1a3998	0.037652582
66	0xbbb129eb	-0.0054066083
67	0xbd4a6aa8	-0.04941812
68	0xbd972dda	-0.07381792
69	0x3d59a237	0.053133216
70	0x3c652b64	0.013987396
71	0x3d79d77a	0.06099651
72	0xbba771ff	-0.005110025
73	0x3d5bc0a3	0.05365051
74	0xbdace8ea	-0.08442862
75	0x3c25588e	0.010091914
76	0x3ca2010c	0.01977589
77	0x3d20ed95	0.039289076
78	0x3ba5de6e	0.005061916
79	0xbd54bef7	-0.05193993
80	0xbd9eaba9	-0.07747585
81	0x3d978244	0.07397893
82	0x3a6f01d8	0.0009117401
83	0xbc20abc6	-0.009806579
84	0xbd7b24da	-0.06131444
85	0x3a199409	0.0005858546
86	0xbd18147d	-0.037128914
87	0x3d9f4f6b	0.0777882
88	0x3c0d3ec2	0.00862092
89	0x3cdbc112	0.026825462
90	0x3d4e73e3	0.050403487
91	0x3c6a5370	0.01430212
92	0xbd8d267e	-0.068921074
93	0x3c6a3182	0.01429403
94	0xbd080f76	-0.03321787
95	0xbceaf44d	-0.028680945
96	0x3d875875	0.06608669
97	0xbd8c7a50	-0.06859267
98	0xbd93f9c0	-0.072253704
99	0xbc3e9084	-0.011631135
100	0x3d85467c	0.065075845
101	0xbda2168a	-0.07914455
102	0x3c079031	0.008274124
103	0x3c4e002e	0.012573285
104	0xbd9d2edb	-0.076749526
105	0xbc0fbbfb	-0.008772845
106	0xbcf8bfab	-0.030364832
107	0x3d8d2930	0.068926215
108	0x3d8a5493	0.067544125
109	0xbbf811a7	-0.0075704637
110	0x3d53614a	0.051606454
111	0x3da0d2f0	0.07852733
112	0xbccfc59b	-0.02536278
113	0x3dab2ed2	0.0835854
114	0xbd74d1e3	-0.059770476
115	0x3b6f8ae1	0.0036551284
116	0xbd7b059c	-0.061284646
117	0x3ca78549	0.020449298
118	0x3d8d2b36	0.068930075
119	0x3daab5c7	0.083354525
120	0x3d842228	0.06451827
121	0x3d3b8d19	0.045788858
122	0xbca2ee2b	-0.019888958
123	0x3d89b8d5	0.06724707
124	0x3d960518	0.0732519
125	0xbc2b966f	-0.010472878
126	0x3d7ab6fe	0.06120967
127	0x3d65dca4	0.056118622

model.4.weight f4 [128, 128]
0	0xbb65a552	-0.0035041166
1	0x3d204b43	0.039134275
2	0xbd83ac2a	-0.06429322
3	0x3d1cd01e	0.038284414
4	0x3ce7d1e4	0.028298326
5	0xbcaff199	-0.021477507
6	0x3be2eca3	0.006925182
7	0xbd9358f8	-0.07194704
8	0x3d115054	0.035476997
9	0xbd366948	-0.044533998
10	0xbc8f8922	-0.017521445
11	0xbd5e5144	-0.05427672
12	0x3d428603	0.047491085
13	0xbd6a626d	-0.057222772
14	0xbd6f0d11	-0.05836207
15	0x3d9fac71	0.077965625
16	0x3d96571b	0.07340833
17	0x3d01b88a	0.03167013
18	0x3c80457a	0.015658129
19	0xbcea7259	-0.028618978
20	0x3cc73525	0.024317333
21	0xbd6c36c0	-0.0576694
22	0xbd0249bf	-0.03180861
23	0xbdb65f72	-0.089049235
24	0x3d771dc9	0.06033114
25	0x3d0c3180	0.034226894
26	0x3c6ee455	0.014580806
27	0xbca90061	-0.020630063
28	0xbd9a22f1	-0.07526196
29	0xbd4c92bf	-0.049944635
30	0xbd8a8cf3	-0.06765165
31	0x3b184e01	0.0023239853
32	0x3d52fcae	0.051510505
33	0xbd97270f	-0.07380497
34	0x3c814d71	0.015783997
35	0xbd524aa3	-0.05134071
36	0x3c052b25	0.008127962
37	0xbd88dcb3	-0.0668272
38	0x3d99ebd5	0.075156845
39	0x3d1e4acc	0.03864555
40	0x3dba465f	0.090954535
41	0xbcf924c0	-0.030413032
42	0xbbb6a809	-0.0055742306
43	0x3d813688	0.06309229
44	0x3d19560e	0.037435584
45	0xbd4069a1	-0.046975736
46	0x3d8b923c	0.06815001
47	0x3c5f1f92	0.013618367
48	0xbb1fb3e2	-0.0024368693
49	0x3b9981d1	0.004684665
50	0xbd210861	-0.03931463
51	0x3d2a04a0	0.041508317
52	0xbcfb3452	-0.030664597
53	0xbd5874fb	-0.052845936
54	0x3db5bf83	0.088744186
55	0xbce8f6f9	-0.028438078
56	0x3d8f2ff9	0.06991572
57	0xbda8a0b5	-0.082337774
58	0x3cf8b9b2	0.030361984
59	0x3d80328a	0.062596396
60	0x3d9f4bbd	0.07778118
61	0x3d51dae3	0.051234137
62	0x3b3f8677	0.0029224434
63	0xbbd0bd95	-0.006370256
64	0x3d6166bb	0.055029612
65	0x3da7a326	0.08185415
66	0xbcf0db33	-0.029401397
67	0xbd1b8cfb	-0.037976246
68	0xbd8a5740	-0.06754923
69	0xbd82ac2f	-0.06380498
70	0xbd592885	-0.053017158
71	0xbc21c1b2	-0.009872841
72	0x3daad72a	0.083418205
73	0xbd9fc6aa	-0.07801564
74	0xbbb0f6c9	-0.005400513
75	0xbd998a08	-0.074970305
76	0x3d774080	0.060364246
77	0xbc7b1bfd	-0.015326497
78	0x3cd819ae	0.026379433
79	0xbd5931a3	-0.053025853
80	0x3b5bff07	0.0033568756
81	0xbd3d2bc9	-0.046184335
82	0xbae8e0d5	-0.00177672
83	0x3ad10ddf	0.0015949568
84	0xbd166695	-0.036718924
85	0x3d9a302a	0.07528718
86	0x3d9f86e0	0.07789397
87	0x3ce7621a	0.02824502
88	0xbd8b2dcc	-0.067958444
89	0xbd5712b5	-0.052508075
90	0x3cdbd230	0.026833624
91	0x3d86dcc4	0.065850765
92	0x3b741076	0.0037241257
93	0xbd464cf7	-0.048413243
94	0x3d24c11e	0.040223233
95	0xbd8e50ca	-0.06949003
96	0x3d95f72a	0.073225334
97	0x3be81529	0.0070826006
98	0xbc36f6b8	-0.011167221
99	0xb9addcb8	-0.0003316158
100	0xbc63dbc6	-0.013907379
101	0x3d876405	0.06610874
102	0xbd9331a3	-0.07187202
103	0xbd92f9dc	-0.07176563
104	0x3d223da5	0.03960957
105	0xbda41ece	-0.08013688
106	0xbd4fb77a	-0.050712086
107	0xbd12709c	-0.035751924
108	0xbd1ff970	-0.03905624
109	0x3da0cff0	0.07852161
110	0xbdba8381	-0.09107114
111	0x3c141242	0.009037556
112	0xbc0d74da	-0.008633817
113	0xbca519be	-0.020153876
114	0xbd613849	-0.05498532
115	0x3c5f51c4	0.013630334
116	0x3cbcd2cf	0.02304974
117	0xbccfd9cd	-0.02537241
118	0x3ca77840	0.020443082
119	0xbd765608	-0.06014064
120	0xbd7b0cd2	-0.061291523
121	0xbda275d9	-0.07932634
122	0xbcf95af5	-0.03043888
123	0x3ccada9a	0.02476244
124	0xbcd725da	-0.026263166
125	0x3d857270	0.06515968
126	0xbd1f167a	-0.038839795
127	0x3d2e20fb	0.04251192
128	0x3d236bed	0.039897848
129	0x3c9c2913	0.019062554
130	0xbd8534d1	-0.065042146
131	0xbd6d7ccf	-0.057980355
132	0xbd5d21b6	-0.053987227
133	0xbd17e78f	-0.037086066
134	0xbcfe5824	-0.031047888
135	0x3d0f2043	0.034942877
136	0xbd55939a	-0.052142717
137	0x3d217641	0.039419416
138	0x3ccc9096	0.024971288
139	0x3d132b17	0.035929766
140	0x3c15bf12	0.009139793
141	0x3c3f303d	0.011669216
142	0x3d0bb621	0.03410924
143	0xbda8f1e6	-0.082492635
144	0x3bad82dd	0.005295141
145	0x3bf9009f	0.007598951
146	0xbd72b786	-0.059257053
147	0xbd3e0860	-0.046394706
148	0x3d569b4a	0.05239419
149	0x3ad07dbb	0.0015906611
150	0x3db2683f	0.087112896
151	0x3d9e8f53	0.07742181
152	0xbd025e7c	-0.03182839
153	0xbab193c8	-0.001354807
154	0xbda84b9a	-0.08217545
155	0x3c25af17	0.010112545
156	0xbce327fb	-0.027729025
157	0x3c2d3803	0.010572436
158	0xbca49d61	-0.020094575
159	0x3d834408	0.0640946
160	0xbba5d2b8	-0.00506052
161	0x3d892d85	0.06698135
162	0xbd21195f	-0.039330836
163	0xbd71f910	-0.059075415
164	0x3da26433	0.07929268
165	0xbc96d420	-0.018411696
166	0xbd9edce4	-0.07756975
167	0xbd5bf358	-0.053698868
168	0x3d329106	0.043595336
169	0x3d619e58	0.05508265
170	0x3d7530d9	0.059861038
171	0x3d231c3e	0.039821856
172	0x3d105bb3	0.0352437
173	0x3db745ba	0.08948846
174	0xbd26e539	-0.040745948
175	0x3cfbc198	0.030731961
176	0xbd3010d7	-0.04298481
177	0xbc95114b	-0.018196722
178	0xbdac2e9c	-0.084073275
179	0xbc01ca55	-0.007921775
180	0xbc8998c1	-0.016796472
181	0x3d3b8af2	0.045786805
182	0x3d077004	0.03306581
183	0x3d470e3a	0.048597552
184	0x3d19df5a	0.03756652
185	0x3d79261b	0.060827356
186	0xbc460d3a	-0.012088114
187	0xbd59f157	-0.053208675
188	0xbce90c24	-0.028448172
189	0xbcb011a1	-0.021492781
190	0x3c7a0edc	0.015262332
191	0xbda611bf	-0.081088535
192	0x3d9ec076	0.07751553
193	0xbce0f67c	-0.027461283
194	0xbd59f974	-0.053216413
195	0xbbfaabef	-0.0076498906
196	0xbd9ee145	-0.077578105
197	0xbc5850f7	-0.013202897
198	0x3d0ac8af	0.033882793
199	0x3bcb7ad5	0.006209711
200	0xbc658d41	-0.014010728
201	0xbd3de15f	-0.04635751
202	0x3d1cba92	0.038263865
203	0xbbf4f91f	-0.0074759866
204	0xbd839995	-0.06425778
205	0xbd802b9b	-0.06258317
206	0x3db5c40e	0.08875285
207	0xbd6b980a	-0.057518043
208	0xbd6bb0ed	-0.057541776
209	0x3cc9c707	0.024631036
210	0xbcc56c4e	-0.024099495
211	0xbd1b262e	-0.037878208
212	0x3d061b4d	0.03274088
213	0xbd74ae00	-0.05973625
214	0x3c25192a	0.0100768
215	0x3c4d666f	0.012536629
216	0xbd02d939	-0.03194544
217	0xbd13bca9	-0.036068592
218	0xbda51bb7	-0.08061927
219	0x3da2bf75	0.07946674
220	0x3d2e86b6	0.04260894
221	0xbd9957bf	-0.07487439
222	0xbc952850	-0.018207699
223	0xbc7dff8f	-0.015502824
224	0xbcb4ebb8	-0.022085056
225	0xbcd2e88e	-0.025745656
226	0xbd087582	-0.03331519
227	0x3d34a027	0.044098046
228	0x3db7f29e	0.089818224
229	0xbd82a60b	-0.063793264
230	0xbd9c2e5d	-0.076260306
231	0x3d3b4c7d	0.04572724
232	0x3d902a80	0.07039356
233	0xbc06fb66	-0.008238649
234	0x3db407e7	0.0879057
235	0x3cf0aab7	0.029378278
236	0xbda56eb0	-0.080777526
237	0xbd98733a	-0.07443853
238	0x3d905e89	0.07049281
239	0x3dac5e2c	0.08416399
240	0xbd9b19a4	-0.0757325
241	0x3d9dad20	0.076990366
242	0xbda1b242	-0.07895328
243	0x3daa6381	0.0831976
244	0x3d7b79b6	0.06139537
245	0x3ccf95fe	0.025340077
246	0x3d2d685c	0.042335853
247	0x3d9821ec	0.07428345
248	0xbd107994	-0.035272196
249	0x3d26100b	0.040542644
250	0xbcbaf130	-0.022820085
251	0x3d88b8d0	0.06675875
252	0xbca3969c	-0.019969277
253	0x3d536266	0.051607512
254	0xbd860dbc	-0.065455884
255	0xbce3372c	-0.027736269

model.4.bias f4 [128]
0	0x3d107a21	0.03527272
1	0x3d4999f6	0.049219094
2	0xbd62e2e5	-0.055392165
3	0xbce3550d	-0.027750516
4	0xbc5cb9a6	-0.013471996
5	0xbc9aa3c0	-0.01887691
6	0xbd8ccdf6	-0.068752214
7	0xbadb380f	-0.0016725081
8	0xbc86bac4	-0.016446479
9	0x3d648987	0.05579522
10	0xbd9b5146	-0.07583861
11	0x3d3aa78c	0.04556994
12	0x3bbacd47	0.0057007405
13	0xbd9b190c	-0.07573137
14	0x3d2d515e	0.042313926
15	0x3d89c7d2	0.06727566
16	0xbbb2b0f0	-0.0054532215
17	0xbd825ac9	-0.06364972
18	0xbcbdb9ba	-0.02315985
19	0xbd1d5841	-0.038414244
20	0xbac897a3	-0.001530398
21	0x3d2fc298	0.04291019
22	0xbd9c2d3c	-0.07625815
23	0xbd8390f2	-0.064241305
24	0xbd7ad1d3	-0.06123526
25	0x3d12fc6e	0.035885267
26	0xbda1ea09	-0.07905967
27	0x3ca12039	0.019668685
28	0xba603079	-0.0008552145
29	0x3c65494a	0.013994524
30	0xbbfbe264	-0.0076869
31	0x3ccbddf3	0.024886107
32	0xbc4dbb94	-0.012556929
33	0xbcd19aa8	-0.025586441
34	0xbd82485d	-0.063614585
35	0x3c46a270	0.012123689
36	0xbd7e0f24	-0.062026158
37	0x3d03fb59	0.032222126
38	0xbd5c28b3	-0.05374975
39	0x3cf30ec9	0.029670136
40	0x3d567b98	0.052363962
41	0x3d3ad01c	0.045608625
42	0x3d4c9618	0.049947828
43	0x3c9f6d95	0.019461432
44	0x3caa46be	0.020785686
45	0xbb9c62a9	-0.0047725034
46	0xbd4962ba	-0.04916642
47	0x3ba56091	0.005046912
48	0xbd2fbe05	-0.042905826
49	0xbd195424	-0.03743376
50	0x3c8053b5	0.015664915
51	0x3d2c0eeb	0.042006414
52	0x3c7397b7	0.014867715
53	0x3b96f491	0.0046067913
54	0xbd46a9af	-0.048501667
55	0x3d16b7a2	0.03679622
56	0xbd8ce6c8	-0.068799555
57	0xbdaab505	-0.08335308
58	0x3ccc7937	0.024960143
59	0x3da38f54	0.07986322
60	0x3d07cbcd	0.033153344
61	0xbd5fdc3b	-0.054653388
62	0x3da2e725	0.079542436
63	0xbdb4645b	-0.08808204
64	0x3d6e7d8c	0.0582252
65	0xbd01ac6e	-0.031658582
66	0x3d8e37f3	0.06944265
67	0xbd2144e4	-0.03937234
68	0x3d05a012	0.032623358
69	0x3d1278d6	0.03575977
70	0x3d6b31d0	0.05742055
71	0x3d6db316	0.058032118
72	0xbca0702a	-0.019584734
73	0x3c8068ed	0.015675033
74	0xbc7d5003	-0.015460971
75	0xbd554aa1	-0.052073125
76	0x3c3a4868	0.011369802
77	0x3d832e37	0.06405299
78	0x3d50f431	0.05101413
79	0x3c9f7c0b	0.019468328
80	0xbceb6f82	-0.028739695
81	0xbd521a56	-0.051294647
82	0x3da08d32	0.07839431
83	0x3d91773d	0.07102821
84	0x3d4f02d5	0.05053981
85	0xbb0fceb1	-0.0021943266
86	0xbcba2068	-0.02272053
87	0x3d1503af	0.036380466
88	0x3d494329	0.049136315
89	0x3d1742fa	0.03692911
90	0xbd74cfe0	-0.059768558
91	0x3cbdf249	0.02318682
92	0xbc3ae080	-0.011406064
93	0xbada50ab	-0.0016656121
94	0x3da4a0da	0.080384925
95	0xbd948c23	-0.072532915
96	0xbce735a0	-0.028223813
97	0x3d86d066	0.065827176
98	0x3cf9acbc	0.030477874
99	0xbd2cf9c0	-0.042230368
100	0x3d98bd82	0.07458021
101	0x3d850299	0.06494636
102	0xbc8b7c44	-0.017027028
103	0xbc9f35c5	-0.019434819
104	0x3d27c477	0.040958848
105	0xbc1a2e5f	-0.00941047
106	0x3db7b67d	0.08970354
107	0x3bfe460c	0.007759815
108	0x3d6bc03f	0.057556387
109	0xbb1a1bbe	-0.002351507
110	0x3d9e1f84	0.07720855
111	0x3d2999c7	0.04140642
112	0xbce8b64f	-0.028407244
113	0x3d44aa8b	0.048014205
114	0xbd32d190	-0.043656886
115	0x3da986f9	0.08277697
116	0x3d384c88	0.04499486
117	0xbd91317b	-0.07089516
118	0xba21e849	-0.0006176276
119	0xbdb0d72d	-0.086347915
120	0x3b9cd714	0.0047863815
121	0xbdaa5642	-0.083172336
122	0xbcf4934d	-0.029855395
123	0x3ca6db84	0.020368345
124	0xbd355594	-0.044271067
125	0xbd9cc122	-0.07654025
126	0xbd0bba44	-0.034113184
127	0x3cfe4ad6	0.031041544

model.6.weight f4 [128, 128]
0	0x3c948bef	0.018133132
1	0x3bbc5f1f	0.005748644
2	0xbc8a249f	-0.016863165
3	0x3d91bee1	0.071164854
4	0x3d41580f	0.04720312
5	0xbd5ea658	-0.054357857
6	0x3dac3a1e	0.084095225
7	0xbd353d4c	-0.04424791
8	0x3c15cbff	0.009142875
9	0x3b7d7449	0.0038674048
10	0xbba81832	-0.0051298374
11	0x3cdc2b30	0.026876062
12	0xbd3e83a3	-0.046512257
13	0x3d8d3cbf	0.06896352
14	0xbd49c9df	-0.049264785
15	0x382a6fba	4.0635212e-05
16	0x3d20ee0a	0.03928951
17	0x3ce344e3	0.027742809
18	0xbd23352d	-0.039845634
19	0x3cb1c6ff	0.021701334
20	0xbb50d309	-0.0031864068
21	0x3d900a60	0.07033229
22	0x3c4d84e9	0.012543895
23	0xbda4d8e1	-0.08049179
24	0x3c09cddc	0.008410897
25	0xbd352a7f	-0.04422998
26	0x3d8a9015	0.06765763
27	0x3d884d7e	0.066554055
28	0xbd8acf39	-0.06777806
29	0x3da4cf33	0.080473326
30	0xbd9f4e23	-0.07778575
31	0xbcd74ac1	-0.026280763
32	0xbc36f8b4	-0.011167694
33	0x3d8ebe36	0.069698736
34	0xbaa5f3e6	-0.0012661188
35	0xbc10d73e	-0.00884038
36	0xbd0c3f12	-0.034239836
37	0xbcbb47f3	-0.022861456
38	0x3d12af78	0.03581187
39	0x3d70b2e0	0.05876434
40	0xbd854ec5	-0.06509165
41	0xbd9c3b25	-0.076284684
42	0xbcb3c992	-0.021946702
43	0xbc95cf28	-0.018287256
44	0x3c5e09ea	0.013552168
45	0x3c8fc183	0.017548328
46	0x3d2db8d0	0.04241258
47	0xbd050fbb	-0.032485705
48	0xbd93ae9f	-0.07211041
49	0x3d246aae	0.0401408
50	0xbd5a11db	-0.053239685
51	0x3cfb4894	0.030674256
52	0x3d2ce425	0.042209763
53	0x3d387497	0.045033064
54	0x3b80b391	0.003927656
55	0xbbe0a3e3	-0.0068554743
56	0xbd3f7ed3	-0.04675181
57	0xbd08cf76	-0.033400975
58	0xbbdcefe1	-0.006742463
59	0x3d09c87e	0.03363847
60	0x3d6bddc4	0.05758454
61	0x3c2b68c7	0.010461993
62	0xbd8c6c11	-0.068565495
63	0xbce3fd63	-0.027830785
64	0x3d1a2bb3	0.03763933
65	0x3d1d4b2d	0.03840177
66	0x3d228c3a	0.03968451
67	0x3c479e20	0.012183696
68	0x3d41a55b	0.047276836
69	0x3d76e9eb	0.060281675
70	0xbd87b80c	-0.06626901
71	0x3cbdf01e	0.023185786
72	0xbd1b536a	-0.037921347
73	0xbc022408	-0.007943161
74	0xbd9a35d0	-0.07529795
75	0xbcb943f4	-0.02261541
76	0x3ca41594	0.02002982
77	0x3d85f26a	0.065403774
78	0xbd07c989	-0.033151183
79	0x3d670d2d	0.05640905
80	0x3cf172e5	0.029473731
81	0xbd78ee95	-0.060774405
82	0xbcb3e615	-0.021960298
83	0xbca80b6d	-0.02051326
84	0xbd733711	-0.059378687
85	0x3d2ccfcd	0.04219036
86	0xbd8e0676	-0.06934826
87	0xbd7e5557	-0.062093105
88	0xbc3faca9	-0.01169888
89	0xbd27515f	-0.040849086
90	0x3d43c412	0.04779441
91	0x3cc373eb	0.023858985
92	0x3c87d437	0.016580684
93	0xbcab685e	-0.02092379
94	0xbd58065e	-0.052740447
95	0xbceedbf5	-0.029157618
96	0xbd8afad2	-0.067861214
97	0xbd682990	-0.056680262
98	0x3cfec222	0.03109843
99	0xbd51c396	-0.051211916
100	0xbd4117a7	-0.047141697
101	0x3d86bb08	0.06578642
102	0x3d3ab93b	0.045586806
103	0xbcc8200a	-0.02442934
104	0xbd98894f	-0.074480645
105	0x3aa0eec0	0.0012278184
106	0xbc63d2c8	-0.013905235
107	0x3d2e83b4	0.04260607
108	0xbcbeefc3	-0.023307687
109	0x3d02a730	0.031897724
110	0xbdb13bc3	-0.08653977
111	0xbada3641	-0.0016648249
112	0xbcca322e	-0.02468213
113	0x3a27600f	0.0006384858
114	0x3d80d5fb	0.062908135
115	0xbc22ab07	-0.009928471
116	0xbcc486cb	-0.023990056
117	0xbaafedd6	-0.0013422321
118	0xbc8e9ea1	-0.017409625
119	0x3d822cbd	0.063561894
120	0xbd8a082d	-0.06739841
121	0xbd633384	-0.05546905
122	0xba814bf0	-0.000986455
123	0x3d0a09c4	0.03370072
124	0xbd97ed12	-0.074182644
125	0x3d97b6d0	0.074079156
126	0x3d7f8d3a	0.062390544
127	0x3ca084c3	0.019594556
128	0xbbd9b856	-0.006644289
129	0x3d99f317	0.07517069
130	0xbd44e954	-0.04807408
131	0xbd6b8286	-0.057497524
132	0xbd6e5fa1	-0.058196668
133	0x3c8da170	0.017288893
134	0x3d773312	0.06035144
135	0xbd0f0d95	-0.034925062
136	0xbd37e685	-0.044897575
137	0x3d4801bb	0.048829775
138	0x3cb60bcf	0.022222428
139	0x3d3e3dba	0.046445586
140	0x3d6cd55f	0.057820674
141	0xbcabec64	-0.020986743
142	0x3cc6f298	0.0242856
143	0xbcd77ad8	-0.026303694
144	0xbdb74f7b	-0.089507066
145	0xbbf5e5b6	-0.0075041903
146	0xbd6bd3e0	-0.057575107
147	0x3da6970d	0.081342794
148	0x3d2396ac	0.039938614
149	0x3d917150	0.07101691
150	0xbd85f8e4	-0.06541613
151	0xbd9d144d	-0.07669888
152	0xbd8f8a40	-0.07008791
153	0x3d7cb262	0.061693557
154	0x3ba2b000	0.0049648285
155	0x3d966472	0.07343377
156	0x3d3011d8	0.042985767
157	0x3c864182	0.016388658
158	0xbd6e347c	-0.05815552
159	0xbbd55f96	-0.006511639
160	0xbd944a06	-0.07240681
161	0xbcec492e	-0.028843489
162	0x3d1f3cb6	0.038876258
163	0xbcf6a949	-0.030110018
164	0x3ca7eb79	0.020498024
165	0x3da920d4	0.082582146
166	0xbd6bd7d6	-0.057578884
167	0xbc320b40	-0.01086694
168	0x3d0059e3	0.031335723
169	0xbd736750	-0.0594247
170	0xbda59a39	-0.08086056
171	0xbc8d854d	-0.017275477
172	0xbd5717e8	-0.052513033
173	0xbd755e7d	-0.059904564
174	0xbaa3c7b6	-0.0012495432
175	0x3d6bb281	0.05754328
176	0x3da20c22	0.079124704
177	0x3da8d0a6	0.082429215
178	0xbdb1834a	-0.086676195
179	0xbd574601	-0.052556995
180	0xbda31435	-0.079628386
181	0xbce8b6d8	-0.0284075
182	0xbd690e0c	-0.05689816
183	0x3d1b569b	0.03792439
184	0xbd831121	-0.063997515
185	0xbd4be6ae	-0.04978054
186	0xbc1be213	-0.0095143495
187	0xbbc95311	-0.0061439355
188	0x3d51e586	0.05124428
189	0x3db6d6a6	0.0892766
190	0xbd276719	-0.040869806
191	0xbc024424	-0.007950816
192	0xbd985617	-0.07438295
193	0x3cac5eeb	0.021041354
194	0x3d66d954	0.056359604
195	0x39b8a134	0.0003521532
196	0xbd6eb092	-0.05827386
197	0x3d98f7cc	0.074691385
198	0xbd4f3fd8	-0.050597996
199	0xbd48a762	-0.048987754
200	0x3d7bfd74	0.06152101
201	0x3d01cfc9	0.0316923
202	0xbda26e50	-0.07931197
203	0x3cd77f0d	0.0263057
204	0xbd9411af	-0.072299354
205	0x3d454b39	0.04816744
206	0xbd3e7fd9	-0.046508644
207	0x3cdf01e8	0.027222589
208	0xbcf49275	-0.029854992
209	0xbd40e81f	-0.047096368
210	0x3b50c3f9	0.003185509
211	0x3d7e5d05	0.06210043
212	0xbc912baa	-0.017721016
213	0xbcb0fa7b	-0.021603813
214	0xbcc2fa14	-0.023800887
215	0xbd6402ad	-0.055666614
216	0x3d73dee8	0.05953875
217	0xbd9c64ce	-0.076364145
218	0xbd56085d	-0.05225407
219	0xbc37dd39	-0.011222177
220	0x3d172cae	0.036907844
221	0x3dac7f52	0.08422722
222	0x3c85530f	0.016274957
223	0xbd846c65	-0.06465987
224	0x3d3a4407	0.045475032
225	0x3bfe1fe5	0.007755267
226	0xbd11ca35	-0.03559323
227	0x3d3c0f46	0.045913003
228	0x3bad85a8	0.005295474
229	0x3c78c62b	0.015183966
230	0xbadd946a	-0.0016905193
231	0x3ccd651f	0.025072632
232	0x3d405d64	0.046964064
233	0xbd57631a	-0.052584745
234	0xbd788cf0	-0.060681283
235	0xbd57a602	-0.05264855
236	0x3d6cf113	0.057847094
237	0x3d8ba78c	0.068190664
238	0x3c501001	0.012699128
239	0x3d3466bd	0.04404329
240	0x3c643f94	0.013931174
241	0x3d878c81	0.06618596
242	0x3dad0373	0.084479235
243	0xbd026599	-0.031835172
244	0xbd91ed73	-0.07125368
245	0x3d28a825	0.04117598
246	0xbc71067f	-0.014711021
247	0xbd83c1d6	-0.06433456
248	0xbd6a274e	-0.05716639
249	0xbc682007	-0.014167792
250	0x3c8148d2	0.015781794
251	0x3cfbfd85	0.030760536
252	0xbcaa59d0	-0.020794779
253	0x3d8e45d1	0.0694691
254	0xbd82131e	-0.063513026
255	0xbcd58bbb	-0.026067605

model.6.bias f4 [128]
0	0xbd444bdd	-0.04792391
1	0xbc1fb872	-0.009748565
2	0xbc88dc0e	-0.016706493
3	0xbd10963b	-0.03529952
4	0xbc6b1359	-0.014347875
5	0x3d127d27	0.035763886
6	0xbd5e3abc	-0.054255232
7	0x3d9d2f35	0.0767502
8	0x3d485a8a	0.04891447
9	0xbd0771df	-0.03306758
10	0xbbf390e4	-0.007433044
11	0xbcbc9d30	-0.023024172
12	0xbd258446	-0.04040935
13	0x3da08a0d	0.07838831
14	0x3d623ef2	0.05523581
15	0x3d9a59f2	0.07536687
16	0xbd5c9ae6	-0.05385866
17	0xbd287aa7	-0.041132595
18	0xbb7f38db	-0.00389438
19	0x3d74415b	0.05963264
20	0xbd01aa09	-0.0316563
21	0x3d15150b	0.03639702
22	0x3d585a43	0.052820455
23	0x3d98bbb0	0.074576735
24	0xbdb2cda1	-0.08730627
25	0x3c73df3d	0.014884767
26	0xbd1961e3	-0.037446868
27	0xbce736d5	-0.028224388
28	0xbd6b90c2	-0.0575111
29	0xbd94bfcd	-0.072631456
30	0xbd014cdf	-0.03156745
31	0x3d9a8517	0.07544916
32	0xbd656627	-0.056005623
33	0xbd16fa75	-0.03685995
34	0xbc914b8e	-0.017736223
35	0xbd5feb91	-0.054668013
36	0xbd8168c2	-0.06318809
37	0x3d114bc7	0.035472658
38	0x3cdc3bcf	0.026883988
39	0xbcb238a0	-0.021755517
40	0x3d4faa57	0.050699558
41	0xbda61787	-0.08109956
42	0x3d72a568	0.059239775
43	0x3d47ec54	0.048809364
44	0xbd996116	-0.07489221
45	0xbd877214	-0.066135556
46	0xbcff81e7	-0.031189872
47	0xbd735985	-0.059411544
48	0xbd13cda0	-0.03608477
49	0xbc12e8a4	-0.008966599
50	0x3ca32bc1	0.019918324
51	0xbc9a9beb	-0.018873176
52	0x3a861c24	0.0010231775
53	0xbda6e40c	-0.08148965
54	0xbda6109b	-0.08108636
55	0xbd8a9c45	-0.06768087
56	0x3d16dbe4	0.036830798
57	0x3db6a898	0.089188755
58	0xbc49abc3	-0.012309018
59	0xbd24084c	-0.040046975
60	0xbd3d9de5	-0.046293158
61	0xbdb954c2	-0.090493694
62	0x3d8fa91e	0.070146784
63	0x3db2b415	0.08725754
64	0xbd35be54	-0.044370964
65	0x3d195b73	0.03744073
66	0xbd995727	-0.07487326
67	0x3da4809e	0.08032344
68	0xbd7278a5	-0.059197087
69	0x3d2b825c	0.041872367
70	0xbc168248	-0.009186335
71	0x3cc89355	0.024484316
72	0x3d8747d8	0.066055
73	0x3db03f08	0.08605772
74	0xbbf67b10	-0.0075219944
75	0xbc9a57cd	-0.018840695
76	0xbd173999	-0.036920164
77	0x3d61428e	0.054995112
78	0x3cd108dd	0.025516922
79	0xbd1f6612	-0.0389157
80	0x3cbb22f7	0.022843821
81	0xbc7ad9ae	-0.015310688
82	0xbd927268	-0.071507275
83	0xbd4c0c6e	-0.04981654
84	0xbd8510c9	-0.06497342
85	0x3d74ae2c	0.059736416
86	0x3ba3dd92	0.0050007785
87	0x3d6e480c	0.058174178
88	0xbd89247d	-0.06696413
89	0xbd11415f	-0.035462733
90	0x3d5ecab7	0.054392543
91	0x3da2eb44	0.079550296
92	0xbcbe3e97	-0.023223205
93	0x3ca865f7	0.020556433
94	0xbd825893	-0.063645504
95	0xbd891c0f	-0.06694805
96	0x3d96e74d	0.07368336
97	0xbd41a711	-0.047278468
98	0x3d9828cf	0.074296586
99	0x3d8c2afb	0.068441354
100	0x3d33acd4	0.043865994
101	0x3d11beaf	0.03558224
102	0x3cf09d23	0.029371804
103	0xbccc13eb	-0.024911841
104	0xbc0d3bc6	-0.008620208
105	0x3cb683d5	0.02227966
106	0x3dab6272	0.08368386
107	0xbd4fd75f	-0.050742503
108	0xbdbbdc21	-0.09172846
109	0xbd88fe40	-0.06689119
110	0xbd9ae265	-0.075627126
111	0x3d95e68b	0.07319363
112	0xbb9ba9e1	-0.0047504758
113	0xbb910a56	-0.004426281
114	0xbd9182dd	-0.07105038
115	0x3d8d1102	0.068880096
116	0xbd4d49d7	-0.050119247
117	0x3c0c19b6	0.008551052
118	0xbd719cdb	-0.05898748
119	0xbd2aae8a	-0.04167036
120	0xbcf0ac84	-0.029379137
121	0x37549270	1.267028e-05
122	0xbd537076	-0.051620923
123	0x3c60f369	0.0137299085
124	0x3be3a050	0.006946601
125	0xbc1e3512	-0.009656208
126	0x3a3071ef	0.00067308446
127	0x3d178bcb	0.03699855

model.8.weight f4 [128, 128]
0	0xbd87e80d	-0.06636057
1	0x3d363e13	0.044492792
2	0x3da2c883	0.07948401
3	0x3db02a22	0.08601786
4	0xbd13cd7c	-0.036084637
5	0x3bdc5353	0.0067238
6	0x3d96b182	0.07358076
7	0xbda81b99	-0.08208389
8	0x3d43d468	0.04780999
9	0xbd920226	-0.07129316
10	0x3d65f414	0.056140974
11	0x3c63f5e5	0.013913606
12	0x3b9ac92d	0.004723689
13	0xbd694c2a	-0.0569574
14	0xbd8b374c	-0.067976564
15	0xbd7078c0	-0.058708906
16	0xbb8c0994	-0.0042736027
17	0xbd8b9c5f	-0.06816935
18	0x3cf8f399	0.030389594
19	0xbced6f00	-0.028983593
20	0xbcff5a3a	-0.031170953
21	0xbc417f36	-0.011810115
22	0xbd3e27a7	-0.046424534
23	0x3da9897c	0.08278176
24	0x3d962536	0.07331316
25	0xbd0ba916	-0.0340968
26	0xbd01d363	-0.031695735
27	0x3d23e95d	0.040017474
28	0xbc5a4642	-0.013322415
29	0xbbe1f927	-0.0068961564
30	0xbd85cdfa	-0.065334275
31	0xbdaeb45a	-0.08530493
32	0x3d350cd5	0.04420169
33	0xbd50ef0b	-0.05100922
34	0xbd04a110	-0.032380164
35	0xbd294d68	-0.041333586
36	0xbcb6f872	-0.022335265
37	0x3d936daf	0.07198655
38	0xbc505791	-0.01271619
39	0x3d66e1e4	0.05636777
40	0x3c9a01b9	0.01879965
41	0x3d9ba9e2	0.07600762
42	0x3d513bf7	0.051082578
43	0x3ca88df1	0.020575495
44	0x3d7eb18b	0.062181037
45	0x3d743061	0.05961645
46	0xbd8e3d21	-0.06945253
47	0x3d8dca16	0.069233105
48	0x3cecf46d	0.028925145
49	0x3d521eb8	0.051298827
50	0xbd9c3a19	-0.07628269
51	0xbdaccb8d	-0.08437262
52	0xbc9d7e4d	-0.019225264
53	0x3d07cd67	0.03315487
54	0xbc16cf77	-0.009204737
55	0x3d95572d	0.07292018
56	0xbd4dd095	-0.050247747
57	0x3c4885cf	0.012238934
58	0x3c2df12c	0.010616582
59	0x3d804620	0.06263375
60	0xbd989d27	-0.074518494
61	0xbcfd0736	-0.030887228
62	0x3d8fce50	0.07021773
63	0x3cfcea27	0.030873371
64	0x3da3c5f1	0.07996739
65	0x3cfa10cb	0.030525586
66	0x3a2d324c	0.0006606921
67	0xbd6fc412	-0.058536597
68	0x3cbf61d7	0.023362083
69	0x3d0ee6fb	0.03488825
70	0xbd43e52e	-0.047825985
71	0x3c53b9ae	0.012922687
72	0x3d7e5900	0.062096596
73	0x3d2ac442	0.041691072
74	0x3d46a948	0.048501283
75	0x3cfbe5bd	0.030749196
76	0xbd849334	-0.06473389
77	0x3d13a15f	0.036042567
78	0x3d755df8	0.05990407
79	0x3d064fe4	0.032791033
80	0xbd7568dc	-0.059914455
81	0xbc1440f1	-0.009048686
82	0x3dafd48e	0.085854635
83	0xbd8d0279	-0.06885237
84	0x3d24914f	0.04017764
85	0x3d3bdbba	0.045863844
86	0x3cdace10	0.026709586
87	0xbd9b4fb9	-0.07583565
88	0x3ce5a71e	0.02803379
89	0xbd357ec2	-0.04431034
90	0x3d1784c8	0.036991864
91	0xbd03145a	-0.03200183
92	0x3bef033b	0.0072940863
93	0xbb97bb19	-0.004630458
94	0x3d968268	0.07349092
95	0xbd75e497	-0.060032453
96	0xbda70b06	-0.081563994
97	0xbc3dd97b	-0.011587496
98	0xbce52cae	-0.027975406
99	0xbb03efba	-0.0020131902
100	0xbc80cf18	-0.01572375
101	0x3cf2a110	0.029617816
102	0xbdae622c	-0.085148185
103	0x3ce68e1a	0.028143931
104	0xbd8fd625	-0.07023267
105	0xbd28138c	-0.041034266
106	0xbd0263e8	-0.03183356
107	0x3d314686	0.043280147
108	0x3c90afb1	0.017661901
109	0x3d049560	0.032369018
110	0x3d83759c	0.064189166
111	0xbc0bc3c3	-0.00853056
112	0x3da2e54f	0.079538934
113	0x3da11153	0.078646325
114	0xbbf26157	-0.0073968577
115	0x3d4bdd5b	0.049771648
116	0x3d67e93f	0.056618925
117	0x3d960ebb	0.07327028
118	0xbd1cd395	-0.038287718
119	0xbd810d21	-0.06301332
120	0xbc824b4e	-0.015905049
121	0x3d8f950f	0.070108525
122	0x3c1c3161	0.009533257
123	0x3c0dc732	0.008653449
124	0xbd3689d1	-0.044565026
125	0xbd796998	-0.060891718
126	0x3cd677bf	0.026180146
127	0x3d104c9f	0.03522932
128	0xbd101f5b	-0.035186153
129	0xbdaf8344	-0.08569959
130	0x3d89d16b	0.067293964
131	0x3c3c08cd	0.011476708
132	0xbc913dc9	-0.017729657
133	0x3d4a3a3d	0.049371947
134	0xba34f0a0	-0.0006902311
135	0x3d163c91	0.036678854
136	0xbc9bdec4	-0.019027121
137	0x3d86e279	0.06586165
138	0xbd28c100	-0.041199684
139	0xbd77c74e	-0.060492806
140	0xbcfe869b	-0.031070044
141	0x3bc7663a	0.0060851844
142	0xbd8fba3c	-0.07017943
143	0xbd0e9648	-0.034811288
144	0xbd7efded	-0.06225388
145	0x3d93849e	0.07203029
146	0x3d36e3d3	0.044650864
147	0x3d99856b	0.074961506
148	0x3d99249b	0.07477685
149	0xbd5f3b92	-0.05450017
150	0xbc19c2ea	-0.00938485
151	0x3d46ec01	0.048564915
152	0xbc600142	-0.013672175
153	0xbd97635f	-0.073920004
154	0xbd901e25	-0.070369996
155	0x3d82110d	0.063509084
156	0xbcedbd16	-0.029020827
157	0xbc775174	-0.0150951035
158	0x3cece2db	0.028916767
159	0xbda1f6b7	-0.07908385
160	0x3c0820a3	0.008308562
161	0xbd871ad7	-0.06596916
162	0xbd5cd5ea	-0.05391494
163	0x3d029e9b	0.03188954
164	0xbc2bf122	-0.010494502
165	0x3d9266ca	0.07148512
166	0x3d2d5853	0.04232056
167	0xbc343ac7	-0.011000342
168	0xbca3b23f	-0.019982455
169	0xbd5af773	-0.053458642
170	0xbd63190e	-0.055443816
171	0xbd829c86	-0.06377511
172	0xbd95f2ac	-0.073216766
173	0x3d54e07d	0.0519719
174	0x3aade370	0.0013266634
175	0x3d7272f8	0.059191674
176	0xbb9237b3	-0.0044622063
177	0x3d64b985	0.055840988
178	0xbd35b5b2	-0.04436273
179	0xbc9ef549	-0.01940407
180	0x3db56cbe	0.088586316
181	0xbcc05047	-0.02347578
182	0x3d9050b2	0.070466414
183	0xbd7e7b01	-0.062129024
184	0x3d5afc53	0.05346329
185	0xbd44e861	-0.048073176
186	0x3d1093ab	0.035297077
187	0xbd7514aa	-0.05983416
188	0x3d39557d	0.045247544
189	0x3d563c27	0.05230346
190	0xbd4a8ab6	-0.04944869
191	0xbd75b4ea	-0.059986986
192	0x3d9996ff	0.07499503
193	0xbc0657f4	-0.008199681
194	0x3ca3caa3	0.019994086
195	0xbd2a5fee	-0.041595392
196	0x3d92d640	0.07169771
197	0x3c80e6c7	0.015735043
198	0x3bcc195c	0.006228609
199	0xbcaf762e	-0.021418657
200	0x3da1beef	0.07897746
201	0xbbca0493	-0.006165096
202	0xbca0d3ff	-0.019632338
203	0x3d8e35d2	0.06943859
204	0xbc61f884	-0.013792161
205	0xbd612c37	-0.054973807
206	0x3d6a89f1	0.057260457
207	0x3d93384a	0.07188471
208	0x3d9db7f6	0.077011034
209	0xbd9373c5	-0.07199816
210	0xbcdef28c	-0.027215265
211	0xbd3f0262	-0.04663313
212	0x3d1dc854	0.038521126
213	0xbda6dcea	-0.08147605
214	0x3bd3cdea	0.006463756
215	0x3d27102e	0.040786915
216	0x3c83ffbc	0.016113155
217	0xbd0b013a	-0.033936717
218	0x3d0c71e9	0.03428832
219	0xbd9a5eeb	-0.075376354
220	0x3cb99bea	0.022657353
221	0xbd56c321	-0.052432183
222	0x3bdb853a	0.0066992315
223	0x3d6fb287	0.058519866
224	0x3d53e39a	0.05173073
225	0xbd7373af	-0.059436496
226	0x3b6e97ee	0.0036406475
227	0x3d96b28b	0.07358273
228	0x3db4bb94	0.0882484
229	0x3d33d717	0.043906298
230	0xbc56cf93	-0.013111013
231	0x3d20c925	0.039254326
232	0xbc8ebeb9	-0.017424928
233	0xbd83b19d	-0.064303614
234	0x3d4956d1	0.04915506
235	0x3c650dcb	0.013980339
236	0x3d09fbc2	0.03368736
237	0xbdb1642f	-0.08661687
238	0xbd3d600a	-0.046234168
239	0x3d178b87	0.036998298
240	0xbda26b11	-0.079305775
241	0x3d2f0057	0.042724933
242	0xbc30f392	-0.010800259
243	0x3d3b36dd	0.04570662
244	0xbc25e101	-0.010124446
245	0xbd3cb6bc	-0.046072707
246	0xbb859a3d	-0.0040772245
247	0x3d8b4ece	0.0680214
248	0xbb396f85	-0.002829523
249	0x3c1c266e	0.009530647
250	0x3d8c3754	0.068464905
251	0x3a8483be	0.0010110063
252	0x3db529d2	0.08845867
253	0xbd5c04df	-0.053715583
254	0xbc9df0b8	-0.019279823
255	0x3d218b69	0.039439593

model.8.bias f4 [128]
0	0x3bf4b019	0.0074672815
1	0xbcebe9e8	-0.028798059
2	0x3d49d305	0.04927351
3	0x3d7459d1	0.059655968
4	0xbcbde4e8	-0.02318044
5	0x3c4b283a	0.0123997275
6	0x3d84b3de	0.064796194
7	0x3c885ce1	0.01664585
8	0xbc7775c7	-0.015103764
9	0xbd5659ce	-0.05233174
10	0x3d4d7e59	0.050169323
11	0x3a37a87f	0.0007006004
12	0x3c8cae08	0.017172828
13	0x3d9f1940	0.07768488
14	0xbd268a06	-0.040658973
15	0x3db9fd7c	0.090815514
16	0x3d47960e	0.048727088
17	0xbca9fec3	-0.020751363
18	0xbda4a84c	-0.080399126
19	0xbd96f619	-0.07371158
20	0x3d0bfcf6	0.03417679
21	0xbd55a011	-0.052154604
22	0x3d86c923	0.065813325
23	0x3d7be616	0.061498724
24	0x3d88a491	0.066720136
25	0x3ceef45f	0.02916926
26	0xbd3f1a35	-0.046655852
27	0x3c833ca8	0.016020134
28	0xbd0ed666	-0.034872435
29	0xbd435030	-0.047683895
30	0x3d4d7295	0.050158102
31	0xbd982199	-0.07428283
32	0xbc87069e	-0.016482648
33	0xbd825228	-0.06363326
34	0xbd943527	-0.072367005
35	0xbd665926	-0.056237362
36	0x3d41f952	0.04735691
37	0xbd9a811d	-0.07544158
38	0x3dab14c8	0.08353573
39	0x3d2df9df	0.042474624
40	0x3d8dcc2b	0.069237076
41	0x3d85aee3	0.065274976
42	0x3d802573	0.06257143
43	0xbcbe3fde	-0.023223814
44	0x3d8488a6	0.06471376
45	0xbd14dc51	-0.036342923
46	0x3da9b295	0.08286015
47	0xbcc11592	-0.023569856
48	0xbd245dd1	-0.040128533
49	0x3da6cfe9	0.081451245
50	0xbd74d1cc	-0.05977039
51	0xbd615d0a	-0.05502037
52	0xbd838ac5	-0.064229526
53	0x3c0ea1fb	0.008705611
54	0x3cde5a17	0.027142568
55	0xbb27039a	-0.0025484324
56	0x3c7a9e61	0.01529655
57	0x3daa1602	0.08304979
58	0x3c8ede92	0.017440114
59	0x3d2ff2c9	0.042956147
60	0x3d414d53	0.047192883
61	0xbd35a66a	-0.044348158
62	0xbd141e40	-0.03616166
63	0x3c392180	0.011299491
64	0xbcbceee3	-0.023063129
65	0x3d4bea79	0.049784157
66	0xbbf387b4	-0.0074319486
67	0x3d61e856	0.055153213
68	0xbbeea590	-0.00728292
69	0xbd8e14a8	-0.069375336
70	0x3d084980	0.03327322
71	0x3d1c13e4	0.038104907
72	0xbd5e07d4	-0.054206684
73	0x3d357b39	0.044306967
74	0x3d8bcece	0.06826554
75	0x3d2aaae6	0.041666888
76	0x3d62a1e5	0.055330176
77	0xbd4b7c2f	-0.049678978
78	0x3bb766f6	0.0055969907
79	0xbd80e189	-0.062930174
80	0x3cf0a24b	0.029374262
81	0x3d94e4b9	0.07270188
82	0xbd7509ff	-0.059823986
83	0xbd4cc9d4	-0.049997166
84	0xbd88b492	-0.06675066
85	0xbd1084b0	-0.03528279
86	0x3cf8e8d3	0.030384457
87	0xbb254175	-0.0025216017
88	0xbd746f10	-0.05967623
89	0x3d234a1a	0.03986559
90	0x3db54400	0.088508606
91	0xbcf4d6d5	-0.029887596
92	0xbd0b3d66	-0.0339941
93	0xbd7cbd1b	-0.061703783
94	0x3d3dacf5	0.046307523
95	0xbd34a56a	-0.044103064
96	0x3d8d2c6c	0.068932384
97	0xbd3b4a8f	-0.0457254
98	0xbd8b75ea	-0.068096
99	0xbd0cb7d0	-0.034354985
100	0x3dabfd0c	0.08397874
101	0xbdb32b01	-0.08748437
102	0xbc701496	-0.014653346
103	0xbc64ee77	-0.01397287
104	0x3d8d2a6e	0.068928584
105	0xbd4cb170	-0.049973905
106	0x3b53d5f8	0.003232358
107	0xbbbb2390	-0.0057110265
108	0x3997de17	0.00028966434
109	0x3d09979e	0.03359186
110	0xbd4b27bd	-0.049598444
111	0xbc84c3e7	-0.016206695
112	0xbc320ffc	-0.010868069
113	0x3d8f5b40	0.069998264
114	0xbd64f7d0	-0.055900395
115	0xbd9bb240	-0.07602358
116	0x3c8a984b	0.016918322
117	0x3af07236	0.0018344584
118	0xbda98f3e	-0.082792744
119	0xbce7b1b3	-0.028282976
120	0xbcf103a1	-0.029420676
121	0xbd5eabe6	-0.054363154
122	0x3d1f4720	0.03888619
123	0x3b5263fa	0.0032103048
124	0x3d29cab3	0.041453075
125	0xbc16a092	-0.009193556
126	0x3ca24938	0.019810304
127	0xbdb69655	-0.08915392
