experiments/dispersion_pinn.pth (torch, 940940 bytes, 35 tensors)

model.0.weight f4 [128, 1]
0	0xbf3f72ac	-0.7478435
1	0x3da3fc94	0.0800716
2	0x3f4586f7	0.77159065
3	0x3f734755	0.9503072
4	0x3f7aa9b2	0.97915184
5	0xbe45b5c4	-0.1930762
6	0xbe69bb4d	-0.22825356
7	0x3f29e221	0.6636067
8	0x3d9ec0d7	0.07751625
9	0x3f5a0a9f	0.85172457
10	0x3f6cb45d	0.9246271
11	0xbf6cae1a	-0.9245316
12	0x3f0a85e9	0.5411058
13	0x3eccc279	0.3999212
14	0xbeb7598e	-0.35810512
15	0x3f6afd34	0.9179261
16	0x3ec08dbc	0.37608135
17	0xbf189266	-0.59598386
18	0x3f38c733	0.72178954
19	0x3f1a250d	0.60212785
20	0x3f3a98cc	0.728894
21	0xbf0eb486	-0.55744207
22	0x3dd29017	0.10281389
23	0x3f459a63	0.771887
24	0xbef9ca7a	-0.4878729
25	0x3f4b0e1c	0.79318404
26	0xbf5ae3a3	-0.85503596
27	0x3f0822e8	0.5317826
28	0x3f2e3775	0.6805337
29	0xbf06c868	-0.52649546
30	0x3f67f601	0.9060975
31	0x3f3068c6	0.6890987
32	0x3ca350a3	0.019935912
33	0xbf02781a	-0.5096451
34	0x3f06c620	0.52646065
35	0x3f4c9265	0.7991088
36	0xbf267cef	-0.65034384
37	0x3edd78fb	0.43256363
38	0x3f598b77	0.8497843
39	0xbf4b8612	-0.7950145
40	0x3e080aad	0.13285322
41	0x3ddd1da5	0.1079667
42	0xbe47ecec	-0.19523972
43	0x3e97ced0	0.29649973
44	0x3ed0183f	0.40643498
45	0xbe9d8cd7	-0.30771515
46	0xbe9bbc2d	-0.30417004
47	0xbd384a46	-0.044992708
48	0x3effd52e	0.4996733
49	0x3f613aba	0.87980235
50	0x3dd684a1	0.10474516
51	0xbc79f74f	-0.015256717
52	0x3e9e3b97	0.30904838
53	0x3e0cb77f	0.13741873
54	0x3f740ecf	0.95335096
55	0x3cfcbaf6	0.030850869
56	0x3f455f41	0.7709847
57	0xbf2c7ee4	-0.6738112
58	0x3e3cd72b	0.18441455
59	0xbd09bfb2	-0.03363008
60	0x3f6fcfe7	0.9367661
61	0x3f2c43a8	0.67290735
62	0xbf5dc938	-0.8663516
63	0xbe2a49d0	-0.1662972
64	0xbf43da50	-0.76504993
65	0xbf3700bd	-0.714855
66	0x3f1ba0b8	0.6079211
67	0xbf410aba	-0.7540699
68	0x3d2372fc	0.03990458
69	0x3f3909a0	0.7228031
70	0xbf763c4f	-0.96185774
71	0x3ea48f5b	0.32140622
72	0x3ea83722	0.32854563
73	0x3f037d38	0.51362944
74	0xbbc87f06	-0.006118658
75	0xbf742d9a	-0.9538208
76	0xbce6cb87	-0.028173221
77	0x3f4ff735	0.81236583
78	0x3e819cdd	0.2531499
79	0xbf64f9d8	-0.8944373
80	0x3f7c6584	0.985924
81	0x3e92f081	0.28699115
82	0xbf69bb1c	-0.9130113
83	0xbf5bac86	-0.85810125
84	0xbe9d9f8a	-0.3078578
85	0x3e63a03e	0.22229096
86	0x3e42cc09	0.19023146
87	0x3de3faca	0.111318186
88	0xbf169194	-0.58815885
89	0xbee0e754	-0.4392649
90	0xbeeee5de	-0.4665975
91	0xbda5a56b	-0.080881916
92	0x3e617821	0.22018482
93	0xbf4a0cf0	-0.7892599
94	0x3e910519	0.28324202
95	0x3e3970ec	0.18109483
96	0xbef61f7b	-0.48070893
97	0xbd0c3efa	-0.034239747
98	0xbf669249	-0.90066963
99	0xbf3c7e3f	-0.73630136
100	0x3f03d4f8	0.5149684
101	0x3eca0096	0.39453572
102	0xbf1aaa1a	-0.60415804
103	0x3f3493eb	0.70538205
104	0x3de2544f	0.11051237
105	0xbedd37f2	-0.43206745
106	0xbee9ca03	-0.45661935
107	0x3f601334	0.875293
108	0xbe838d5e	-0.25693792
109	0x3f05537c	0.5208051
110	0xbccfe51d	-0.025377804
111	0xbe3b60c6	-0.18298635
112	0xbd14c49a	-0.036320306
113	0x3f5ffc6d	0.87494546
114	0xbe21ad46	-0.15788755
115	0x3f09e3e8	0.5386338
116	0x3c6a21d5	0.014290293
117	0x3f44ec05	0.7692264
118	0x3eb12a1e	0.34602445
119	0xbe045bd1	-0.1292565
120	0xbf208bdd	-0.62713414
121	0x3f73ad4d	0.9518631
122	0xbf3ffb07	-0.7499241
123	0xbe52c1fb	-0.2058181
124	0x3f79574f	0.9739885
125	0xbf425be2	-0.7592145
126	0x3f3f2f85	0.74681884
127	0x3eef7f07	0.46776602

model.0.bias f4 [128]
0	0xbeefff54	-0.46874487
1	0x3d07e10f	0.033173617
2	0x3ed14ca9	0.408788
3	0x3f23dacb	0.64005727
4	0xbf3d8ceb	-0.7404315
5	0xbe9b051f	-0.30277345
6	0xbf6b4e2d	-0.9191616
7	0xbf7989ca	-0.97475874
8	0xbd98b832	-0.074570075
9	0x3f051b7a	0.5199505
10	0xbf542145	-0.82863265
11	0xbddc2e81	-0.107510574
12	0xbea4606b	-0.3210481
13	0x3f59fc9a	0.85151064
14	0xbf5bd099	-0.8586517
15	0x3f12da34	0.573642
16	0xbec81153	-0.39075717
17	0xbf694e73	-0.9113533
18	0xbf3f8fd8	-0.74828863
19	0xbf6303c5	-0.88677627
20	0x3f34f22f	0.7068204
21	0xbf4feb3b	-0.8121831
22	0x3f677046	0.9040569
23	0x3e6e88aa	0.2329432
24	0x3f0dbc12	0.553651
25	0xbe5cb97a	-0.21555129
26	0x3f573465	0.8406432
27	0x3f5a9d62	0.853964
28	0x3efe140c	0.4962467
29	0x3e8c8b97	0.2745025
30	0x3dd2d763	0.10294988
31	0xbef9250f	-0.48661086
32	0x3ec3fa7f	0.3827705
33	0xbeb4e2a1	-0.35329154
34	0xbe6ea214	-0.23304015
35	0xbf063440	-0.5242348
36	0xbeb7a322	-0.35866648
37	0xbf0bbbe3	-0.5458357
38	0xbf661668	-0.8987794
39	0xbe8b38db	-0.27191815
40	0xbf79503e	-0.97388065
41	0xbf2bdeb9	-0.6713672
42	0x3edbe801	0.42950442
43	0xbf03964e	-0.5140122
44	0x3f028405	0.50982696
45	0x3f530232	0.82425225
46	0x3e32334d	0.17402382
47	0xbf807f5b	-1.0038866
48	0x3ed3ded9	0.41380957
49	0xbf082de9	-0.53195053
50	0x3f074035	0.5283235
51	0xbf4c227a	-0.7974011
52	0xbeebaaab	-0.46028647
53	0xbe6d2a21	-0.23160602
54	0xbeb8fc68	-0.3613007
55	0x3f0c22d1	0.54740626
56	0x3efea69a	0.49736482
57	0x3f577ddc	0.8417642
58	0xbf3c0e82	-0.7345964
59	0xbe7eab72	-0.24870089
60	0x3ea28bf7	0.3174741
61	0x3ea02145	0.31275383
62	0xbd6c7dc7	-0.057737138
63	0xbe3e4d84	-0.18584257
64	0x3f11b940	0.56923294
65	0xbf4cbf21	-0.7997914
66	0xbf6c6568	-0.92342234
67	0x3f25b289	0.6472555
68	0x3e2a2f4a	0.16619602
69	0x3eee99b7	0.4660165
70	0x3e01c396	0.12672266
71	0x3eb0b216	0.3451087
72	0xbf0e165b	-0.5550286
73	0xbe8cbe30	-0.27488852
74	0x3f1dc703	0.6163179
75	0xbd9a7328	-0.075414956
76	0x3e26a773	0.16274814
77	0x3f18f7d4	0.59753156
78	0xbebafd3a	-0.36521322
79	0xbf04f34e	-0.51933753
80	0xbf145498	-0.5794158
81	0x3f07ecdc	0.53095794
82	0x3f537aa0	0.82608986
83	0xbef1f514	-0.47257292
84	0x3e9e5617	0.30925056
85	0x3ec268f4	0.37970698
86	0xbdaa6122	-0.08319308
87	0x3f4dc92f	0.80385107
88	0xbf1f5596	-0.6223997
89	0x3f6d3306	0.9265598
90	0x3e40070c	0.18752688
91	0x3f16fefb	0.5898282
92	0xbe91271c	-0.2835015
93	0xbe02e145	-0.12781246
94	0x3f0967a9	0.536738
95	0x3d3faf2e	0.046797924
96	0xbe5bcb33	-0.21464233
97	0x3ee5c4e8	0.4487679
98	0xbf384301	-0.7197724
99	0xbf09b201	-0.5378724
100	0x3dccd571	0.10001648
101	0x3cb50d3b	0.022101035
102	0x3d9e9915	0.07744042
103	0xbeb9c5f2	-0.36283833
104	0xbf5366cd	-0.82578737
105	0xbf224a47	-0.6339459
106	0xbf730036	-0.94922197
107	0x3ef3d79b	0.4762543
108	0xbf6120fd	-0.8794096
109	0xbca48fd4	-0.020088114
110	0x3f29ee64	0.6637938
111	0x3e869130	0.26282644
112	0x3e9506e0	0.29106808
113	0x3edf0610	0.43559313
114	0x3ee5b76a	0.44866496
115	0xbf52ba93	-0.8231594
116	0x3e971d55	0.29514566
117	0xbf164e54	-0.5871327
118	0x3f4ac19d	0.7920168
119	0x3eca9c6f	0.39572474
120	0xbf581954	-0.8441365
121	0x3d7e0647	0.062017705
122	0xbec7aee4	-0.39000618
123	0xbed6b8fb	-0.41938004
124	0x3e78f5f5	0.24312575
125	0x3ea720de	0.32642263
126	0x3f2edb37	0.68303245
127	0xbf500ae7	-0.81266636

model.2.weight f4 [128, 128]
0	0x3d0483e9	0.03235236
1	0x3d5235bf	0.051320788
2	0xbc9f0165	-0.019409845
3	0x394d627b	0.0001958701
4	0xbd68be94	-0.056822374
5	0x3d46566b	0.04842226
6	0x3d14053d	0.036137808
7	0x3d9e690a	0.07734878
8	0xbc1dc294	-0.009628911
9	0xbda0ec62	-0.078575864
10	0x3d8e452b	0.069467865
11	0x3d217b79	0.039424393
12	0x3cc6a774	0.02424977
13	0x3ae83daf	0.0017718578
14	0xbd5ad16f	-0.053422388
15	0x3cbe8b70	0.023259848
16	0x3d258e60	0.040418983
17	0xbcd4b625	-0.02596576
18	0xbd97b9c8	-0.07408482
19	0xbcd5572d	-0.026042545
20	0x3dbfb6c0	0.09361029
21	0xbd383e81	-0.044981483
22	0x3d3fc856	0.046821915
23	0x3c51550a	0.012776623
24	0xbd862a77	-0.06551068
25	0x3c6b8f8d	0.014377487
26	0x3bb3ddf8	0.005489107
27	0xbbed6969	-0.007245232
28	0x3d6599df	0.056054946
29	0x3c07c8bc	0.008287605
30	0xbd310bdf	-0.04322421
31	0xbd4c1795	-0.049827177
32	0x3d9a7aab	0.07542928
33	0x3ce77dea	0.028258283
34	0x3da9da0d	0.08293543
35	0x3d65fd7c	0.056149945
36	0xbd9fcea2	-0.07803084
37	0x3d896c7e	0.06710146
38	0x3d5d0849	0.05396298
39	0xbd990664	-0.07471922
40	0x3abeb1ea	0.0014548872
41	0xbcf22c6f	-0.029562203
42	0x3d8fd06c	0.07022175
43	0x3d14784e	0.036247544
44	0x3c32e3c3	0.01091856
45	0xbc0495d7	-0.008092365
46	0xbd9f0453	-0.07764497
47	0x3d878830	0.066177726
48	0xbcf16cc5	-0.02947081
49	0xbcfabb86	-0.030606996
50	0x3d2f283f	0.04276299
51	0xbd70f6e6	-0.05882921
52	0xbda3762a	-0.079815224
53	0x3db6b545	0.08921293
54	0x3d87f54c	0.066385835
55	0x3db5914f	0.08865606
56	0x3cf52122	0.029923026
57	0xbd32944f	-0.04359847
58	0xbda8a462	-0.082344785
59	0x3c87d1e9	0.016579585
60	0xbd164fc4	-0.036697164
61	0xbda2094e	-0.07911931
62	0x3d30d77c	0.043174252
63	0xbc4e80d5	-0.012603958
64	0x3d471441	0.0486033
65	0x3d954f15	0.07290474
66	0xbd11984b	-0.03554563
67	0x3b8b9acc	0.0042603966
68	0xbd120fec	-0.035659716
69	0x3a9f65fd	0.0012161132
70	0x3d62b7ce	0.05535107
71	0x3d9c53cf	0.07633173
72	0xbd4d6a28	-0.050150067
73	0x3d81532a	0.063146904
74	0x3d196549	0.03745011
75	0x3d81b946	0.06334166
76	0x3d3dcc1e	0.04633724
77	0xbd7fd334	-0.06245728
78	0x3cf97971	0.030453416
79	0x3d0fd084	0.035110965
80	0x3d01d9df	0.03170192
81	0xbd88e132	-0.066835776
82	0xbd668a34	-0.056284145
83	0xbbd3520c	-0.0064489897
84	0x3d92838a	0.07153995
85	0x399ff120	0.00030506495
86	0xbd65c563	-0.056096446
87	0x3c84af7d	0.01619696
88	0x3d4c5446	0.049885057
89	0xbd4e8107	-0.05041602
90	0xbb4f63cd	-0.003164518
91	0x3d252012	0.040313788
92	0xbc912db7	-0.017721994
93	0x3c98b855	0.018642584
94	0x3d8c2916	0.06843774
95	0xbcb2b7a8	-0.02181609
96	0xbda20501	-0.07911111
97	0x3c10546e	0.008809192
98	0x3ce63902	0.028103355
99	0x3c70b5fd	0.014691827
100	0x3b66d5d9	0.0035222678
101	0xbd45b5ed	-0.0482692
102	0x3d1b18ce	0.037865452
103	0x3c3efc62	0.011656852
104	0xbd212653	-0.03934319
105	0xbc595d85	-0.013266926
106	0xbd97aa7e	-0.07405566
107	0x3d8a429a	0.067509845
108	0x3cb63bed	0.022245372
109	0xbbd4a34f	-0.0064891945
110	0x3d7e6426	0.062107228
111	0x3a560ea7	0.00081656355
112	0x3b5dc229	0.0033837652
113	0x3d2d254a	0.04227189
114	0xbcf93bb6	-0.03042398
115	0x3d4cb7a0	0.049979806
116	0xbc596b52	-0.013270216
117	0x3c291254	0.010319311
118	0xbd833cf3	-0.064081095
119	0xbc6b9b06	-0.014380222
120	0xbd7d180f	-0.061790522
121	0x3d5e603f	0.054291006
122	0x3cbbaaf0	0.022908658
123	0xbd9ede91	-0.07757295
124	0xbd379808	-0.044822723
125	0xbcec328c	-0.028832696
126	0xbd963eeb	-0.073362194
127	0x3a1d9f4a	0.00060128106
128	0x3d90925f	0.07059168
129	0x3d3a0eb0	0.045424163
130	0x3bd02945	0.006352576
131	0xbd945b5a	-0.072439864
132	0xbc35f1a0	-0.011104971
133	0x3d421ae3	0.047388922
134	0xbd58f101	-0.052964214
135	0x3d16b849	0.03679684
136	0xbd1b086e	-0.037849836
137	0xbd8f2e79	-0.06991286
138	0xbd4c1639	-0.04982588
139	0x3d12a3ed	0.035800863
140	0xbd000a59	-0.03125987
141	0xbc4cf0c7	-0.012508578
142	0x3cd4b459	0.025964903
143	0x3b86f474	0.0041184966
144	0x3db378c5	0.08763269
145	0xbd7619bf	-0.060083147
146	0x3d10c4c6	0.035343908
147	0x3cb0b495	0.021570483
148	0xbccadf29	-0.024764614
149	0x3d31ebca	0.043437757
150	0x3d88bb57	0.06676357
151	0xbc3b75b1	-0.011441634
152	0xbdaae6f8	-0.08344835
153	0x3d156a11	0.036478106
154	0xbb9d936c	-0.004808834
155	0xbd3b9f81	-0.04580641
156	0xba1f6626	-0.000608059
157	0xbd4231c6	-0.04741075
158	0x3db4f6cc	0.08836135
159	0xbd533980	-0.05156851
160	0xbcb0eadf	-0.02159637
161	0xb88de951	-6.7668625e-05
162	0x3d2cd2a5	0.042193074
163	0xbd8d90da	-0.06912394
164	0xbd126cf8	-0.035748452
165	0xbd2e08ea	-0.04248897
166	0x3da1dbe5	0.0790327
167	0xbb4c5fe4	-0.0031185085
168	0x3cbba90f	0.022907762
169	0x3da6d593	0.08146205
170	0x3d691417	0.056903925
171	0xbc849cf3	-0.01618812
172	0xbd69c8ef	-0.05707639
173	0x3daa792a	0.083238915
174	0x3d4966c4	0.04917027
175	0x3d6c83bc	0.05774282
176	0x3d798b0c	0.06092362
177	0xbcd937b6	-0.026515823
178	0x3c637f7f	0.013885378
179	0x3da4909f	0.08035397
180	0xbd82a0af	-0.06378304
181	0x3b73013c	0.0037079593
182	0x3d719e72	0.058988996
183	0x3d3db5d7	0.046315994
184	0x3d3d2a9a	0.046183206
185	0xbce31ea3	-0.02772457
186	0xbc9bd824	-0.019023962
187	0xbc0cb4b0	-0.008588001
188	0x3d4264d8	0.047459453
189	0xbd7bb7c4	-0.06145455
190	0x3d61e758	0.055152267
191	0x3d08b7ee	0.033378534
192	0x3c3570e1	0.011074276
193	0x3c01175b	0.0078791035
194	0xbd9d7b87	-0.076895766
195	0x3bbe1f53	0.005802074
196	0x3d91ce41	0.07119418
197	0x3d025474	0.031818822
198	0x3d48385f	0.048881885
199	0xbda88caf	-0.08229958
200	0x3cbc1977	0.022961361
201	0x3cd53efd	0.026031012
202	0xbd9354d7	-0.07193916
203	0x3ceb8482	0.028749708
204	0x3cd6bcdc	0.026213102
205	0xbd8f8748	-0.07008225
206	0xbd83a5e3	-0.06428125
207	0xbb9ba496	-0.004749845
208	0xbd062522	-0.032750256
209	0x3dbaae3d	0.091152646
210	0xbd62c3e5	-0.0553626
211	0xbcca4a10	-0.024693519
212	0x3d89b894	0.067246586
213	0xbd05a463	-0.032627475
214	0x3d98aaad	0.07454429
215	0x3d675f64	0.056487456
216	0xbdbac380	-0.0911932
217	0x3d5db2ef	0.054125722
218	0xbd45d7da	-0.048301555
219	0x3dbdce51	0.09267867
220	0x3d0a4f99	0.033767316
221	0x3d421b34	0.047389224
222	0x3da32714	0.07966438
223	0xbc558416	-0.01303198
224	0xbd448e15	-0.047987062
225	0xbd1bca32	-0.038034625
226	0xbb552f2f	-0.0032529344
227	0xbda92466	-0.082588956
228	0x3db229cd	0.08699379
229	0x3d144777	0.036200967
230	0xbd4388be	-0.04773783
231	0x3ccc6882	0.024952177
232	0x3b80e0fe	0.003933071
233	0xbdb23c2e	-0.087028846
234	0x3d01c0f1	0.031678144
235	0xbda113a5	-0.07865075
236	0x3d5365ad	0.051610637
237	0x3d226a23	0.039652
238	0x3d53cad5	0.051707108
239	0x3d9fc607	0.078014426
240	0xbd9f4742	-0.07777263
241	0x3d279e42	0.04092241
242	0xbd99526c	-0.07486424
243	0xbd9d9133	-0.0769371
244	0x3db57e08	0.08861929
245	0x3d89bf3c	0.06725928
246	0xbc61a2e8	-0.01377175
247	0x3da64676	0.08118908
248	0xbd39efca	-0.045394696
249	0xbd66d354	-0.056353882
250	0x3ca5e654	0.02025143
251	0xbbca4a73	-0.006173426
252	0xbda3407c	-0.07971284
253	0x3d958fc1	0.073028095
254	0x3cf075a0	0.029352963
255	0x3c97722f	0.018487064

model.2.bias f4 [128]
0	0x3d7f3dc7	0.062314775
1	0xbc98e9e1	-0.01866621
2	0x3d2e8bd0	0.042613804
3	0xbb96fc37	-0.004607703
4	0x3d3b7ecf	0.04577523
5	0xbd2628bf	-0.040566202
6	0xbd6986f2	-0.05701346
7	0xbc50bcf9	-0.012740367
8	0xbb118963	-0.0022207133
9	0xbd778146	-0.06042602
10	0xbd7a2aca	-0.061075963
11	0x3d4805ba	0.048833586
12	0x3d6c7431	0.057727996
13	0x3cf89840	0.030346036
14	0x3d97a4dc	0.07404491
15	0xbda0b1c4	-0.07846406
16	0xbcb53b70	-0.022123069
17	0x3d5bab2e	0.053630047
18	0xbd11e554	-0.035619095
19	0xbdb7a046	-0.089661166
20	0xbd81cb09	-0.06337554
21	0x3d6e85e6	0.058233164
22	0xbd3bfe08	-0.04589656
23	0xbb6c8957	-0.0036092603
24	0x3d430a7e	0.047617428
25	0x3ce7182b	0.028209766
26	0xbd419dbc	-0.047269568
27	0x3d869ffc	0.06573483
28	0x3c305fbb	0.010765011
29	0x3d65f2e9	0.05613986
30	0x3d9835cb	0.07432135
31	0x3d778f09	0.060439143
32	0x3d5af18d	0.053453017
33	0xbd79c19a	-0.06097565
34	0x3d6e5a6a	0.058191694
35	0x3d373bf8	0.044734925
36	0x3d0a6024	0.033783093
37	0x3cab21a2	0.02089006
38	0xbd56b821	-0.052421693
39	0x3a90c630	0.0011045393
40	0x3db7dbf3	0.08977499
41	0xbd9fe366	-0.07807045
42	0xbcf254c8	-0.029581442
43	0xbd262058	-0.04055819
44	0x3cae3bde	0.021268781
45	0xbd8fae05	-0.070156135
46	0xbc393623	-0.011304411
47	0xbd8ebdc8	-0.06969792
48	0x3c50a8b2	0.012735533
49	0x3d77c403	0.060489666
50	0xbc46e005	-0.012138371
51	0x3dbaba44	0.091175586
52	0x3c90e411	0.017686876
53	0xbd3c7787	-0.046012428
54	0xbd4bbb09	-0.049738917
55	0xbc4c0b51	-0.01245387
56	0xbd45ea47	-0.048319127
57	0xbc09f7d4	-0.008420903
58	0xbd4b7998	-0.049676508
59	0x3d3c2757	0.045935955
60	0x3c7cb980	0.015425086
61	0x3d9b7685	0.07590965
62	0xbd4d60fe	-0.050141327
63	0xbd84b1fe	-0.06479262
64	0xbd6dfdfe	-0.058103554
65	0xbc5e69b7	-0.013575009
66	0x3dc9866e	0.098400936
67	0xbd28a197	-0.04116973
68	0xbcb165a4	-0.021654911
69	0xbdb40c4a	-0.087914065
70	0xbc75bd98	-0.014998816
71	0x3cabb15a	0.020958591
72	0x3d821312	0.063512936
73	0x3d98bef9	0.074583
74	0xbcf63a4c	-0.030057095
75	0xbdbe15c4	-0.09281495
76	0x3d65e5f3	0.0561275
77	0xbd850d2b	-0.06496652
78	0x3be700e4	0.0070496667
79	0x3c2679c9	0.010160872
80	0xbcdea66a	-0.027178962
81	0xbcf5addf	-0.029990135
82	0x3da31ed9	0.07964868
83	0xbcc85c03	-0.024457937
84	0xba853a7c	-0.0010164524
85	0x3d9e2567	0.07721978
86	0xbd35533f	-0.044268843
87	0xbdcde3a2	-0.10053183
88	0x3d142553	0.036168408
89	0x3d913f4e	0.070921525
90	0xbcad3cf5	-0.02114723
91	0x3dc7a5ee	0.097484455
92	0x3d57105e	0.052505843
93	0xbd806cac	-0.062707275
94	0x3c17d288	0.009266503
95	0xbcffe8d4	-0.03123895
96	0xbb89409a	-0.0041886093
97	0x3d5d5311	0.054034296
98	0xbd52954d	-0.051411916
99	0xbd6c182c	-0.05764024
100	0x3d388c74	0.04505582
101	0x3d211374	0.039325193
102	0xbd15c39f	-0.036563512
103	0xbd3fcaf7	-0.04682442
104	0xbd1191e9	-0.03553954
105	0xbd9e61f0	-0.07733524
106	0xbca9c950	-0.020725876
107	0xbd946589	-0.07245929
108	0xbd5aa241	-0.053377394
109	0x3c8718e6	0.016491365
110	0xbd07120c	-0.032976195
111	0xbd8f326b	-0.06992038
112	0x3ca9035b	0.020631483
113	0xbdbee09a	-0.09320183
114	0x3d010e8b	0.03150801
115	0xbd6baf1f	-0.057540055
116	0x3ceb2d48	0.028708115
117	0x3d45a785	0.048255462
118	0xbd780250	-0.06054908
119	0x3d893df2	0.06701268
120	0xbdcd5fff	-0.100280754
121	0xbd35bb31	-0.044367973
122	0xbd92340a	-0.07138832
123	0xbc89f80c	-0.01684191
124	0xbdb6ae5a	-0.08919974
125	0x3d20af31	0.039229576
126	0x3da6ab81	0.081381805
127	0x3d6c0a11	0.057626788

model.4.weight f4 [128, 128]
0	0x3d57b4f0	0.05266279
1	0xbd6cd5bc	-0.05782102
2	0x3da8625b	0.08221885
3	0x3c2ad003	0.01042557
4	0xbd4777be	-0.04869818
5	0x3d758cfd	0.05994891
6	0x3cb7cf1f	0.02243763
7	0x3d7d0656	0.06177362
8	0xbd283350	-0.04106456
9	0x3d9b043a	0.075691655
10	0x3c4fb7ab	0.012678067
11	0xbd25b43c	-0.040455088
12	0x3db37e2a	0.08764298
13	0xbdb23e3b	-0.08703276
14	0x3d4ad99f	0.049523946
15	0xbd9f57d3	-0.07780423
16	0xbdacd741	-0.08439494
17	0xbd9315ee	-0.07181917
18	0xbd9b138d	-0.075720884
19	0xbc4f5cef	-0.012656434
20	0x3da10690	0.0786258
21	0x3ccb5e7e	0.02482533
22	0xbcb5c324	-0.022187777
23	0xbd9ea96a	-0.07747157
24	0xbdb52758	-0.08845395
25	0x3c875ab0	0.016522735
26	0x3d96c97e	0.0736265
27	0x3d6e2cae	0.05814808
28	0xbc9c8ec5	-0.019111047
29	0x3dac3cf4	0.084100634
30	0x3b54710b	0.0032416012
31	0x3d916ae7	0.07100468
32	0xbd5b778d	-0.05358081
33	0xbd276e65	-0.040876765
34	0xbd843079	-0.06454558
35	0x3d9df6cd	0.07713089
36	0x3c6ae4db	0.01433679
37	0x3d40cffa	0.047073342
38	0xbce628e9	-0.02809568
39	0x3d9ef244	0.07761052
40	0xbd946ce8	-0.07247335
41	0x3d2adf1e	0.041716687
42	0xbc4b86a7	-0.01242224
43	0x3d55a600	0.052160263
44	0x3d8a6e7e	0.06759356
45	0x3d660d4d	0.05616503
46	0x3d92511b	0.07144376
47	0x3d69cbe6	0.05707922
48	0x3d0361f6	0.032075845
49	0xbd69ee17	-0.057111826
50	0x3c96c1c4	0.018402942
51	0x3d73d8fb	0.0595331
52	0xbd99f657	-0.07517689
53	0x3d5a4c81	0.053295616
54	0x3d8dd43f	0.06925248
55	0xbcd4bba6	-0.025968384
56	0x3d500582	0.050786503
57	0x3d44acab	0.04801623
58	0x3b073a79	0.0020634218
59	0x3d7d57b3	0.061851215
60	0xbd995012	-0.07485975
61	0x3d55181f	0.052024957
62	0xbdb00a41	-0.08595706
63	0x3d463394	0.048389032
64	0xbc909e5a	-0.017653633
65	0x3cd313e0	0.025766313
66	0x3d88149f	0.06644558
67	0x3d2ca0e8	0.04214564
68	0x3d7e0ff5	0.062026937
69	0x3c924eba	0.017859805
70	0x3bf4a53e	0.0074659875
71	0x3d3d5267	0.046221163
72	0xbbfe782f	-0.007765792
73	0x3cd905d7	0.026492042
74	0x3cf2c3a5	0.029634306
75	0xbd74fbb0	-0.05981034
76	0xbce183c9	-0.02752866
77	0xbb8a5ceb	-0.0042225025
78	0x3ca927ca	0.020648856
79	0xbdab7c23	-0.083732866
80	0x3d47151a	0.04860411
81	0x3d64e67d	0.055883873
82	0xbd2e6b49	-0.042582784
83	0x3b9de53a	0.0048185857
84	0x3a4b8477	0.0007763574
85	0xbd011244	-0.03151156
86	0x3d8ae765	0.06782416
87	0x3d1c9b03	0.03823377
88	0xbc9a125b	-0.01880758
89	0xbd57e93b	-0.05271266
90	0x3d90f3c0	0.070777416
91	0x3d2be0b3	0.041962337
92	0x3d16bd25	0.036801476
93	0x3d657976	0.056024037
94	0x3d254215	0.040346224
95	0xbd2c5a12	-0.042078085
96	0x3d0a4b06	0.033762954
97	0x3d03f64d	0.032217313
98	0x3dade386	0.08490662
99	0x3c80e03d	0.015731925
100	0xbd410264	-0.04712142
101	0xbdba288b	-0.09089764
102	0x3d5ede55	0.05441125
103	0x3d3071e2	0.043077357
104	0xbd50086c	-0.05078928
105	0xbd2144d2	-0.039372273
106	0x3d080e44	0.03321673
107	0xbd28a1cb	-0.041169923
108	0xbcaf254d	-0.021380091
109	0xbcae14bd	-0.021250123
110	0xbdab018d	-0.08349905
111	0x3d0cdf22	0.034392484
112	0x3cf07471	0.029352399
113	0xbd6ea5b9	-0.058263514
114	0x3c98a56f	0.018633572
115	0xbda86c1e	-0.08223747
116	0xbd73c959	-0.059518192
117	0x3c9d2b29	0.01918562
118	0xbd743fcc	-0.059631154
119	0xbd3e5c1e	-0.04647457
120	0x3d27445b	0.040836673
121	0x3cee2ef2	0.02907512
122	0x3ce40c7a	0.02783798
123	0xbd860c49	-0.06545312
124	0xbd8f5dd0	-0.07000315
125	0x3bb9f8bf	0.005675405
126	0x3cf22d72	0.029562686
127	0x3cc8a125	0.024490902
128	0xbd91fcdf	-0.071283095
129	0xbd88fd03	-0.06688883
130	0xbdad68cb	-0.08467253
131	0xbd949e53	-0.072567604
132	0xbd8c7561	-0.06858326
133	0x3cfe1b4b	0.031018874
134	0xbc447996	-0.011991879
135	0x3c8052b9	0.015664445
136	0xbcf8c07a	-0.030365217
137	0x3db338f3	0.087510966
138	0xbd181457	-0.037128773
139	0xbd301337	-0.042987075
140	0xbdb7904b	-0.089630686
141	0xbda32553	-0.079661034
142	0x3c6d3d8e	0.014480008
143	0xbd0e4ca1	-0.034741048
144	0xbd015359	-0.031573627
145	0xbb93ee99	-0.004514527
146	0x3d366d8b	0.044538062
147	0x3bf25540	0.0073954165
148	0xbdb5786e	-0.08860861
149	0xbd891538	-0.066935
150	0xbce97696	-0.028498929
151	0x3d21f3ef	0.039539274
152	0x3d85990b	0.06523331
153	0xbd8cf450	-0.068825364
154	0xbd34dbe9	-0.044155035
155	0x3d6468dd	0.055764068
156	0x3d048ddd	0.032361854
157	0xbd8a6630	-0.06757772
158	0xbd0f9528	-0.035054356
159	0xbd24372f	-0.04009169
160	0xbd67c0fa	-0.05658052
161	0xbd28d3ac	-0.04121749
162	0xbc58e459	-0.013238036
163	0x3a09226e	0.00052312657
164	0xbd88976c	-0.066695064
165	0x3d825b92	0.06365122
166	0xbd7f4632	-0.062322803
167	0xbd8d4107	-0.068971686
168	0x3c7a5af4	0.015280474
169	0xbd3bad78	-0.04581973
170	0xbd41671b	-0.04721747
171	0x3d508572	0.050908513
172	0xbd255363	-0.040362727
173	0x3bce9889	0.0063048047
174	0xbda58fc2	-0.0808406
175	0x3726327c	9.906125e-06
176	0x3d1a6870	0.037697256
177	0x3da9f494	0.08298603
178	0xbc87a59f	-0.016558466
179	0xbd619ba8	-0.055080086
180	0x3d8b2952	0.067949906
181	0x3d97052e	0.07374035
182	0x3ba21b98	0.004947137
183	0x3d0b4140	0.033997774
184	0x3d98f80b	0.074691854
185	0xbd46226c	-0.04837267
186	0x3d83b488	0.06430918
187	0x3cb628da	0.022236276
188	0xbd41857b	-0.047246438
189	0x3d9e89a2	0.07741095
190	0x3c1be0a2	0.009514006
191	0xbd79cda0	-0.060987115
192	0x3cd4e3d6	0.025987547
193	0xbd498897	-0.049202528
194	0xbc4230ac	-0.011852425
195	0x3d2cb3e4	0.042163745
196	0xbda7106f	-0.08157431
197	0xbcc653f5	-0.024209956
198	0xbb9a8b81	-0.004716337
199	0xbd3e2e2b	-0.046430748
200	0x3d6e13d5	0.058124382
201	0xbb708514	-0.0036700414
202	0x3c9121d1	0.01771632
203	0x3d2e408e	0.042542033
204	0x3dbcd08e	0.09219466
205	0x3dadd159	0.084871955
206	0xbc0295e7	-0.00797031
207	0xbd96d4ea	-0.07364829
208	0xbd8145e4	-0.06312159
209	0x3d986576	0.07441227
210	0x3c847a98	0.016171739
211	0x3c232bc6	0.009959167
212	0xbcf97618	-0.03045182
213	0x3dbb1b21	0.09136034
214	0x3cbb3df4	0.02285669
215	0x3d278687	0.04089978
216	0xbae498d6	-0.0017440568
217	0xbd228cd7	-0.039685097
218	0x3dbdbfe3	0.09265115
219	0xbd585938	-0.05281946
220	0xbca1b0d2	-0.019737635
221	0x3db55cf5	0.08855621
222	0xbd4b583d	-0.049644697
223	0xbcc19ff2	-0.023635838
224	0xbcdcb7b0	-0.026943058
225	0x3d24a448	0.040195733
226	0x39fc193b	0.00048083984
227	0x3d2fa800	0.042884827
228	0xbcd0446a	-0.025423247
229	0x3c7e874c	0.015535187
230	0xbc7116df	-0.014714926
231	0xbd0c3eab	-0.034239452
232	0x3dac0803	0.083999656
233	0xbd8fc5ba	-0.07020135
234	0xbc20df5b	-0.009818877
235	0x3cf9b698	0.030482575
236	0x3d8aff86	0.067870185
237	0xbd0a827c	-0.033815846
238	0xbd0bfdc1	-0.034177545
239	0xbc88a909	-0.016682165
240	0x3d386358	0.045016617
241	0x3c78b225	0.015179192
242	0xbd7d7819	-0.061882112
243	0xbd911bbd	-0.07085369
244	0xbd15e431	-0.036594573
245	0x3d96a284	0.07355216
246	0x3d51d224	0.051225796
247	0xbd832b28	-0.06404716
248	0xbc920877	-0.017826302
249	0x3c2ec5f5	0.010667314
250	0xbd1073fd	-0.035266865
251	0xbd9f741b	-0.07785817
252	0x3b9205de	0.004456266
253	0xbd4b0b45	-0.049571294
254	0x3da3eea2	0.080045
255	0x3d414a5e	0.047190063

model.4.bias f4 [128]
0	0xbd16e521	-0.036839608
1	0x3c7a944c	0.015294146
2	0x3b0e73cf	0.0021736508
3	0xbda4cb31	-0.08046568
4	0xbcc84b37	-0.024449928
5	0xbd8db54d	-0.06919346
6	0x3d61a4ce	0.05508881
7	0xbd3b2f10	-0.04569918
8	0x3dbb6810	0.09150708
9	0x3d45de59	0.04830775
10	0xbdc382f6	-0.09546463
11	0x3d4a560b	0.049398463
12	0x3d68848e	0.05676704
13	0xbcfbcf0c	-0.030738376
14	0x3d32dd04	0.04366781
15	0x3cf01603	0.029307371
16	0xbd17ca99	-0.037058447
17	0xbcb0590c	-0.021526836
18	0xbdb9b8ea	-0.09068473
19	0xbcae7ff6	-0.02130125
20	0x3d8a4510	0.06751454
21	0x3c80f99e	0.015744027
22	0xbd953b21	-0.072866686
23	0xbc9ab796	-0.018886369
24	0xbcd30334	-0.025758363
25	0x3d91300f	0.070892446
26	0xbb76c9ec	-0.0037656976
27	0x3d84590a	0.06462295
28	0xbd8b6781	-0.06806851
29	0xbd3b2e29	-0.04569832
30	0x3d512981	0.05106497
31	0x3b0ae7f2	0.002119538
32	0xbca60385	-0.02026535
33	0xbd1cecb8	-0.03831169
34	0x3dc2aa9b	0.09505197
35	0xbc2477d6	-0.010038337
36	0xbd9c7f7f	-0.076415055
37	0xbc47d3a2	-0.012196453
38	0x3c6ecb1b	0.014574791
39	0xbb554137	-0.0032540092
40	0x3c1cd631	0.009572552
41	0x3d1533b6	0.03642627
42	0xbd759850	-0.05995971
43	0xbd36e339	-0.04465029
44	0xbd8973a2	-0.06711508
45	0xbd7a228c	-0.061068103
46	0xbd52db3f	-0.05147862
47	0x3d2ccedc	0.042189464
48	0xbd39d2ad	-0.04536693
49	0xbd4835f6	-0.048879586
50	0x3cfdda83	0.030987984
51	0x3dae26a1	0.08503462
52	0xbd45ee02	-0.048322685
53	0x3cd3fa68	0.025876239
54	0xbd9f8398	-0.077887714
55	0xbd88f4f1	-0.06687344
56	0x3cc5c1b9	0.024140226
57	0x3d85cd3b	0.06533285
58	0xbcb0072b	-0.021487793
59	0xbbaeb42f	-0.005331538
60	0x3d57bc92	0.05267007
61	0xbd73a6b2	-0.059485145
62	0xbd6ea541	-0.058263067
63	0x3d9875c1	0.07444335
64	0x3d8942b5	0.067021765
65	0xbc8f375d	-0.017482454
66	0x3da8ec17	0.082481556
67	0xbd07f46b	-0.03319208
68	0x3d0cfeb4	0.03442259
69	0x3d0bf8c8	0.034172803
70	0xbdca4d10	-0.0987798
71	0x3d1bee56	0.03806909
72	0x3cd14fb2	0.025550697
73	0xbd043b06	-0.03228285
74	0x3d5631c0	0.05229354
75	0x3d2629c9	0.040567193
76	0x3d717def	0.05895799
77	0x3d8ea163	0.06964376
78	0x3ced1225	0.028939316
79	0x3da470a4	0.08029297
80	0x3d55e94e	0.05222445
81	0xbd8bd2f6	-0.06827347
82	0x3cca0f24	0.024665423
83	0xbda6d8cc	-0.081468195
84	0xbcee1181	-0.02906108
85	0xbd33760c	-0.04381375
86	0x3aed40a3	0.0018100928
87	0xbc78f221	-0.015194447
88	0xbd2b72a9	-0.041857395
89	0xbd3f3483	-0.04668094
90	0xbdb405f9	-0.08790202
91	0xbd300e3c	-0.042982325
92	0xbc0a8191	-0.008453743
93	0x3d2da101	0.042389873
94	0x3db8e763	0.090285085
95	0x3d415211	0.047197405
96	0x3dadf1c4	0.08493379
97	0xbce087e2	-0.027408544
98	0x3d54a607	0.05191615
99	0xbd5fb568	-0.05461636
100	0x3b7dc446	0.0038721724
101	0x3d9935e6	0.074809834
102	0x3ddd9cd8	0.10820931
103	0xbc0b7b06	-0.008513218
104	0xbcdaf987	-0.026730312
105	0x3cd4d094	0.025978364
106	0x3d0fed44	0.035138384
107	0xbcdc3aa1	-0.026883425
108	0x3d0bd618	0.034139723
109	0x3da36569	0.07978327
110	0x3d8b3297	0.067967586
111	0x3d9d6350	0.07684958
112	0x3da995ad	0.082805015
113	0xbd9c4a5e	-0.07631372
114	0x3d5f1b9a	0.054469682
115	0xbdaaedd2	-0.08346142
116	0xbd61d297	-0.055132475
117	0x3d8b2514	0.067941815
118	0xbd7b5a82	-0.06136561
119	0xbd834969	-0.06410486
120	0xbd7f1a74	-0.062281087
121	0x3d9f1dfc	0.07769391
122	0x3cf07ccb	0.02935638
123	0xbc9c48d3	-0.019077694
124	0xbd93a04f	-0.07208311
125	0x3c55c07c	0.01304638
126	0x3cedd229	0.029030876
127	0x3d98c8aa	0.07460149

model.6.weight f4 [128, 128]
0	0xbce3e479	-0.027818905
1	0xbdaa1d0d	-0.08306322
2	0x3caec26c	0.021332942
3	0xbdb3c0bb	-0.08776995
4	0x3d1b2ed0	0.03788644
5	0x3d8505c7	0.064952426
6	0x3ce8ee6e	0.028434005
7	0x3dae3a1a	0.08507176
8	0xbd755c63	-0.05990256
9	0x3c8f0c41	0.017461898
10	0xbc7dcaec	-0.015490275
11	0xbcf26199	-0.029587554
12	0x3cf00abd	0.029301995
13	0xbd274e1e	-0.040845983
14	0xbd384918	-0.044991583
15	0x3c2f91ca	0.010715911
16	0x3d95e35a	0.073187545
17	0xbcd23beb	-0.025663337
18	0xbd9b2963	-0.07576253
19	0xbce3c997	-0.027806086
20	0xbd432d05	-0.047650356
21	0x3d77bf03	0.060484897
22	0xbd806cee	-0.06270777
23	0x3d949a58	0.07256001
24	0x3d8c9b9a	0.06865616
25	0xbd31b219	-0.043382738
26	0xbd587d0a	-0.05285362
27	0xbbf51d6e	-0.007480315
28	0xbcb48ff7	-0.022041304
29	0xbdacab4b	-0.08431109
30	0xbd19a500	-0.037510872
31	0xbdb1f20f	-0.08688747
32	0x3d9b7290	0.075902104
33	0x3d7c78b2	0.06163854
34	0xbd5aa5ad	-0.053380657
35	0xbd78edb0	-0.06077355
36	0xbda8ecb2	-0.08248271
37	0x3c9a417f	0.01883006
38	0x3b1df297	0.0024100894
39	0xbd6064e5	-0.05478372
40	0x3d0c4187	0.03424218
41	0x39f3ff23	0.00046538663
42	0xbba0cc10	-0.0049071386
43	0xbd01642a	-0.031589665
44	0xbca1260f	-0.019671468
45	0xbd6007f9	-0.054695103
46	0xbd9b85be	-0.07593869
47	0x3d22d936	0.03975793
48	0xbd42229f	-0.0473963
49	0xbce68b38	-0.028142557
50	0x3cbc01bd	0.022950048
51	0xbd84d813	-0.064865254
52	0x3d51d155	0.051225025
53	0xbd8ca469	-0.06867296
54	0xbd8bb658	-0.06821889
55	0xbda180a6	-0.07885866
56	0xbd827751	-0.06370414
57	0xbd61f1f5	-0.05516239
58	0x3d6c6676	0.057714902
59	0xbd916df3	-0.07101049
60	0x3d27913d	0.040909994
61	0x3c3700eb	0.011169652
62	0xbd40b2e2	-0.047045596
63	0xbcc4ff42	-0.024047498
64	0xbd309f84	-0.043120876
65	0xbd81dc1f	-0.06340813
66	0xbcf24de3	-0.029578155
67	0xbd870771	-0.06593216
68	0x3cd93ea0	0.02651912
69	0x3d6e6d41	0.05820966
70	0xbd9506f7	-0.07276719
71	0xba65b8bb	-0.0008763184
72	0xbbffe4b5	-0.0078092464
73	0x3c8cd485	0.017191181
74	0xbce9624a	-0.02848925
75	0x3c744c73	0.014910805
76	0xbcc37ad1	-0.023862274
77	0xbd342ecd	-0.043989945
78	0x3d850d31	0.06496657
79	0xbd408319	-0.047000024
80	0xbd89803b	-0.06713911
81	0xbdac0ffe	-0.08401488
82	0x3d1822e3	0.037142646
83	0x3d6e6e4d	0.05821066
84	0x3d72095a	0.05909095
85	0x3d08c50f	0.033391055
86	0xbd3bc8d6	-0.04584583
87	0x3bfbd0f9	0.0076848236
88	0xbd59658d	-0.053075362
89	0xbc7e1adb	-0.0155093325
90	0xbd460224	-0.048341885
91	0xbd625acb	-0.05526237
92	0x3ab2b121	0.0013633111
93	0x3d9cdfbc	0.076598614
94	0xbd8a3c6d	-0.067498066
95	0xbd9d09e8	-0.07667905
96	0xbd5ceacb	-0.053934854
97	0xbc9aafcd	-0.018882656
98	0xbd0c99ee	-0.034326486
99	0xbd9154c1	-0.07096244
100	0xbcc3597e	-0.023846384
101	0xbd78c97b	-0.06073902
102	0x3c86e9dd	0.016468937
103	0x3ca6da6c	0.020367824
104	0x3d9dea7f	0.07710742
105	0x3c904ed8	0.01761572
106	0x3d659c9b	0.056057554
107	0xbbcfd774	-0.0063428227
108	0xbdb1712b	-0.08664163
109	0xbb1b20dc	-0.0023670709
110	0xbd40ce21	-0.04707158
111	0x3d0a2d87	0.033734825
112	0xbda7c223	-0.081913255
113	0x3d994071	0.07482994
114	0xbd30c531	-0.043156806
115	0xbd00cc68	-0.031444937
116	0x3dac0125	0.08398656
117	0x3cbebb78	0.023282751
118	0x3c5e33bb	0.013562138
119	0xbc9bdb86	-0.019025575
120	0x3d028a68	0.031870276
121	0xbdc41353	-0.09573998
122	0x3cb88d6c	0.022528373
123	0xbcf5eb10	-0.030019313
124	0x3da1a08f	0.07891952
125	0xb7604311	-1.33670555e-05
126	0xbd8d8a88	-0.06911188
127	0x3d5d98f4	0.054100946
128	0x3cb97aa0	0.02264148
129	0xbd7de9aa	-0.061990418
130	0x3d381312	0.044940062
131	0x3ce5dfde	0.02806085
132	0x3d6fb72a	0.05852429
133	0x3d898705	0.06715206
134	0xbcf1330f	-0.029443292
135	0x3cfe57b0	0.031047672
136	0x3c61ea33	0.013788748
137	0xbd939af6	-0.07207291
138	0xbc9ceff0	-0.01915738
139	0xbda0fefb	-0.07861134
140	0xbcaa746e	-0.020807471
141	0x3b1ed051	0.0024233053
142	0x3ca4e2c6	0.020127665
143	0x3db6b4cc	0.08921203
144	0xbd2bac7c	-0.04191254
145	0x3d9e9a60	0.077442884
146	0xbd226a0b	-0.03965191
147	0xbdac1c08	-0.08403784
148	0xbd8989d0	-0.06715739
149	0x3d188c9f	0.03724348
150	0xbd9d6f68	-0.07687265
151	0x3d7af46b	0.06126825
152	0xbce50627	-0.027957035
153	0xbb8cd66b	-0.0042980216
154	0xbc23f5af	-0.010007306
155	0xbd834247	-0.06409126
156	0x3c832f10	0.016013652
157	0x3d6a9911	0.05727488
158	0x3d2c2bad	0.04203384
159	0x3d7fefcd	0.06248455
160	0x3d81afc8	0.06332356
161	0xbc83d263	-0.016091531
162	0xbd8875dc	-0.06663105
163	0xbdb51514	-0.08841911
164	0xbc99b328	-0.018762186
165	0x3d1c247b	0.038120728
166	0xbc2ca1c7	-0.010536618
167	0x3cae92a5	0.02131016
168	0xbd93d556	-0.07218425
169	0xbdb6de89	-0.08929164
170	0xbd91c2ff	-0.07117271
171	0x3bf8e91a	0.0075961472
172	0xbd204045	-0.039123792
173	0xbd30f208	-0.04319957
174	0xbd820768	-0.06349069
175	0xbc42d905	-0.011892562
176	0x3c933ccb	0.017973324
177	0x3d5c44ab	0.053776424
178	0x3d3d0577	0.04614779
179	0xbccda057	-0.02510087
180	0x3d234d95	0.03986891
181	0x3c563bf8	0.013075821
182	0x3d83708f	0.06417953
183	0x3d73b590	0.059499323
184	0x3c9d301a	0.019187976
185	0xbdade0be	-0.08490132
186	0x3d24f135	0.040269095
187	0x3b94b620	0.0045383126
188	0x3d9f11e8	0.07767087
189	0x3d73b684	0.059500232
190	0xbdac03ba	-0.08399148
191	0xbd4f6f2f	-0.050643142
192	0x3d8fd58f	0.07023155
193	0x3d7f2ce7	0.06229868
194	0xbd66b359	-0.056323383
195	0xbd294ab4	-0.041331008
196	0xbcf53129	-0.029930668
197	0x3cf02a13	0.029316938
198	0x3cfd06be	0.030887004
199	0xbd2ea7ae	-0.04264038
200	0xbc58a1ad	-0.01322214
201	0x3d355597	0.044271078
202	0xbdac066f	-0.083996646
203	0x3bfcc17b	0.0077134944
204	0xbda22901	-0.07917977
205	0x3c923f51	0.017852457
206	0x3af46acf	0.0018647554
207	0x3d2531d0	0.040330708
208	0x3d951224	0.07278851
209	0x3db20649	0.08692605
210	0x3d1cd92b	0.038293045
211	0xbd8d665b	-0.069042884
212	0xbd8f75e8	-0.07004911
213	0x3db1b49c	0.08677027
214	0xbda336c5	-0.07969431
215	0x3bf20fd7	0.007387142
216	0xbd9f7873	-0.07786646
217	0xbaa54043	-0.0012607652
218	0x3dacd342	0.08438732
219	0xbd37126f	-0.044695314
220	0x3c74b6c3	0.014936152
221	0xbc892d54	-0.016745247
222	0x3d422ea2	0.047407754
223	0x3db5b5c3	0.08872559
224	0xbd117ef7	-0.035521474
225	0x3d8fed59	0.07027692
226	0x3cccc044	0.024994023
227	0xbd8425d9	-0.06452531
228	0x3d96770b	0.073469244
229	0xbc79de02	-0.015250685
230	0x3bbc5fc0	0.005748719
231	0x3caf0dcc	0.021368884
232	0xbd4ee334	-0.050509647
233	0x3c8aa6b5	0.016925195
234	0xbc058675	-0.008149733
235	0xbd249507	-0.040181186
236	0x3d3dcdfe	0.046339028
237	0x3da2c8cd	0.07948456
238	0x3c727288	0.014797814
239	0x3baf0f20	0.005342379
240	0x3d3045a4	0.043035164
241	0x3dac6308	0.08417326
242	0xbce617dc	-0.028087549
243	0xbcfe0aec	-0.031011067
244	0x3d45e2f9	0.04831216
245	0xbd8ee594	-0.06977382
246	0xbcc1b9af	-0.023648111
247	0x3d4d2ba2	0.05009044
248	0x3b30defa	0.0026988373
249	0xbae1b1fa	-0.0017219179
250	0xbc77928a	-0.015110621
251	0xbc2aa821	-0.010416062
252	0xbbb0ba8b	-0.0053933314
253	0xbdb0b6f0	-0.086286426
254	0x3d171f9d	0.036895383
255	0x3c1c1c05	0.009528165

model.6.bias f4 [128]
0	0xbdb87717	-0.090070896
1	0x3d773ac0	0.060358763
2	0xbcc6d5b4	-0.024271823
3	0xbcd8a715	-0.026446858
4	0xbce2ccde	-0.027685579
5	0x3cc2894e	0.023747113
6	0x3cbeb425	0.023279259
7	0x3d0fb6fc	0.035086617
8	0xbd068cab	-0.032848995
9	0xbda9b4e7	-0.082864575
10	0x3d5df9fc	0.05419348
11	0xbd01bd6a	-0.03167478
12	0xbd8785c9	-0.06617314
13	0xbdd11b2f	-0.10210263
14	0xbdc71f86	-0.097228095
15	0x3cfb9525	0.030710766
16	0xbd8053e3	-0.06266
17	0x3d958e70	0.073025584
18	0xbd59ee13	-0.05320556
19	0xbdb37391	-0.08762277
20	0xbc80104e	-0.015632775
21	0xbbafd53e	-0.0053659966
22	0x3d7dd617	0.06197175
23	0xbcfb99d0	-0.030712992
24	0x3d68ecc3	0.05686642
25	0xbd60901e	-0.05482494
26	0x3ca2964b	0.019847056
27	0xbda808b0	-0.08204782
28	0x3da15024	0.07876614
29	0x3d1afe83	0.037840378
30	0xbc4d6977	-0.012537352
31	0x3d8d3dec	0.06896576
32	0xbdc3c9b3	-0.095599554
33	0xbc96b8ff	-0.01839876
34	0x3ce9dd10	0.028547794
35	0xbca9cee8	-0.020728543
36	0x3cd2801f	0.025695859
37	0xbd98c86c	-0.074601024
38	0xbd7f89d2	-0.062387295
39	0x3d6ac2e7	0.05731478
40	0x3cd867d9	0.026416706
41	0x3d564d5c	0.05231987
42	0xbd335870	-0.043785512
43	0x3c357bee	0.01107691
44	0xbd9d19ce	-0.076709375
45	0xbd1f21d4	-0.03885062
46	0x3dcedec4	0.10101083
47	0x3db3688a	0.087601736
48	0xbd1d1bbf	-0.03835654
49	0xbda2dd5f	-0.079523794
50	0xbd980ea6	-0.07424669
51	0x3d3459c0	0.044030905
52	0x3c7cff55	0.015441735
53	0xbca5d10e	-0.020241287
54	0xbd6188a8	-0.055061966
55	0xbd86a74f	-0.0657488
56	0x3cb0539b	0.021524241
57	0xbdb34466	-0.0875328
58	0x3d92e37e	0.07172297
59	0x3cda581f	0.026653348
60	0xbd8e2624	-0.069408685
61	0x3c69f95a	0.014280641
62	0xbd89a12d	-0.06720195
63	0xbd8912b5	-0.06693021
64	0x3d9011e3	0.070346616
65	0xbcf45828	-0.029827192
66	0x3d53b48e	0.051685862
67	0x3c43b513	0.011945027
68	0xba38c501	-0.0007048399
69	0xbc9f8b01	-0.019475462
70	0x3dcbc1e5	0.09949092
71	0xbd83882b	-0.06422456
72	0xbd667987	-0.05626824
73	0xbd082ecb	-0.03324775
74	0xbcad0bea	-0.021123845
75	0xbb4c920e	-0.0031214985
76	0xbd3f81bb	-0.04675458
77	0xbd885c8e	-0.066582784
78	0xbda943e7	-0.082649045
79	0xbdafcfaf	-0.085845344
80	0x3cc43ab8	0.02395378
81	0x3c35e0a6	0.011100924
82	0xbd18926c	-0.037249014
83	0x3ce3a239	0.027787315
84	0x3c2487d7	0.010042152
85	0xbdbadfe2	-0.091247335
86	0x3d071906	0.03298285
87	0x3d4a8a5e	0.049448363
88	0x3d358668	0.044317633
89	0xbcb26034	-0.021774389
90	0xbb2a7fcd	-0.0026016117
91	0xbd27ee61	-0.04099882
92	0xbacc910b	-0.0015607191
93	0xbd09d1a8	-0.03364721
94	0xbd99fc05	-0.07518772
95	0xbc6c10e0	-0.01440832
96	0x3b92e480	0.0044828057
97	0x3d2edeca	0.042692937
98	0xbd8bcc75	-0.068261065
99	0xbb062116	-0.0020466498
100	0x3db07942	0.08616878
101	0x3cd29ae8	0.02570863
102	0xbc8dd623	-0.017314022
103	0xbdc600ba	-0.09668107
104	0xbda530e9	-0.080659695
105	0x3cc8c670	0.024508685
106	0xbcc7049f	-0.024294196
107	0xbc0dc984	-0.008654002
108	0xbd2bf548	-0.041981965
109	0xbddeffed	-0.10888658
110	0x3c9da728	0.019244745
111	0xbdae8fae	-0.085234985
112	0xbc9b5aca	-0.01896419
113	0x3c4c19e0	0.012457341
114	0x3da706de	0.08155607
115	0xbca254de	-0.019815858
116	0xbd7a07c7	-0.061042573
117	0xbbd931e7	-0.0066282633
118	0x3da50f08	0.080595076
119	0xbd99f7bf	-0.07517957
120	0xbc6e5b23	-0.014548096
121	0x3c40134d	0.011723352
122	0x3d8aa4d8	0.06769723
123	0xbd6825f6	-0.056676827
124	0xbdcff70a	-0.10154541
125	0xbd276428	-0.040867
126	0xbd7fe575	-0.062474687
127	0xbd947c31	-0.0725025

model.8.weight f4 [128, 128]
0	0x3b9222b7	0.0044597047
1	0xbd8c5b62	-0.068533674
2	0x3c11a664	0.008889768
3	0xbb9a9d85	-0.004718485
4	0x3cba589e	0.022747334
5	0xbd93574e	-0.071943864
6	0x3b5c2f48	0.0033597518
7	0xbd806e33	-0.06271019
8	0x3d9d2be2	0.076743856
9	0x3d56d5c7	0.052449968
10	0xbd4e40c6	-0.05035474
11	0xbda349ee	-0.07973085
12	0xbd5ab051	-0.053390805
13	0xbcc6ee14	-0.024283446
14	0xbbe3fe41	-0.0069577997
15	0xbda5e509	-0.081003256
16	0xbdc6a12d	-0.096987106
17	0x3d56bdc7	0.05242708
18	0x3ce507a0	0.027957737
19	0xbd9e3ccb	-0.07726439
20	0x3c9f327b	0.01943325
21	0x3cbe436e	0.023225512
22	0xbd90463e	-0.07044648
23	0xbdbb8665	-0.09156493
24	0xbd8d7a20	-0.06908059
25	0xbd171690	-0.03688675
26	0x3c16be8f	0.009200706
27	0xbd2b42eb	-0.041811865
28	0xbc9ec768	-0.019382194
29	0x3d6a0c16	0.057140432
30	0x3d98db4a	0.07463701
31	0x3da42381	0.08014584
32	0x3cf15ca1	0.029463114
33	0x3ca4e10a	0.020126838
34	0x3d14ea37	0.036356177
35	0x3d81e9d7	0.063434295
36	0x3c8adebf	0.016951917
37	0x3d2d8453	0.042362522
38	0xbd4fa045	-0.050689954
39	0xbda4cfa9	-0.080474205
40	0xbc41c5b9	-0.011826926
41	0xbc96159b	-0.01832085
42	0x3c67e669	0.014154055
43	0x3c9f7e82	0.019469503
44	0x3c63be53	0.013900357
45	0x3d7e3daa	0.062070526
46	0xbcd2b63d	-0.025721664
47	0x3d96463c	0.07337615
48	0x3d6f363f	0.058401342
49	0xbc37a131	-0.011207865
50	0xbd86c92b	-0.065813385
51	0xbd90d180	-0.07071209
52	0x3d0bce0e	0.034132056
53	0x3d62ea32	0.055399127
54	0x3bfe24cb	0.007755851
55	0x3d8da3d7	0.069160156
56	0x3d4fa1eb	0.050691526
57	0xbd2c31c2	-0.04203964
58	0xbd8eda3d	-0.069752194
59	0x3ca87f6e	0.020568576
60	0x3d378d0d	0.04481225
61	0xbd64a65c	-0.055822715
62	0x3d6f19a5	0.058374066
63	0xbc97c99a	-0.018528748
64	0xbccc12e6	-0.024911355
65	0x3b782434	0.0037863376
66	0xbda23a00	-0.07921219
67	0xbd77e3cc	-0.06051998
68	0x3d4c1853	0.049827885
69	0xbd9d430e	-0.07678805
70	0x3d2f86fb	0.042853337
71	0xbbe43f39	-0.0069655445
72	0x3daff683	0.0859194
73	0x39aaf540	0.00032607652
74	0xbb03c3ee	-0.0020105797
75	0xbda46616	-0.08027284
76	0x3d7de760	0.061988235
77	0xbb22073f	-0.0024723557
78	0xbd54932b	-0.051898163
79	0xbc1cd828	-0.00957302
80	0xbd5f187c	-0.05446671
81	0x3c4620c7	0.012092776
82	0x3d31e494	0.04343088
83	0xbc837d12	-0.01605085
84	0x3ccb859f	0.024843989
85	0xbdb05736	-0.08610384
86	0xbd133256	-0.035936676
87	0x3cad6eec	0.021171056
88	0xbd83118f	-0.063998334
89	0x3db333ff	0.08750152
90	0xbd45458e	-0.048162036
91	0xbd4cbd8b	-0.04998545
92	0xbd32814b	-0.043580335
93	0xbc3060c4	-0.010765258
94	0xbd900ac2	-0.07033302
95	0x3c2f7224	0.010708366
96	0x3c503b45	0.012709443
97	0xbcfe77eb	-0.03106304
98	0x3d9f2327	0.07770377
99	0xbd52cf3b	-0.05146716
100	0xbd3baee4	-0.045821086
101	0xbd6b0dc3	-0.05738617
102	0x3d16a48e	0.036778025
103	0x3da6642e	0.081245765
104	0x3db80614	0.08985534
105	0xbc9c8e73	-0.019110894
106	0x3cc73c5c	0.024320774
107	0xbc94369d	-0.018092448
108	0x3cb40d69	0.02197905
109	0xbd131dde	-0.035917155
110	0x3d3ec79f	0.046577092
111	0x3d99e100	0.075136185
112	0x380f7570	3.420323e-05
113	0xbbd35ab4	-0.0064500216
114	0x3dbdf47e	0.09275149
115	0xbc9dc231	-0.019257637
116	0x3d9b2b7f	0.075766556
117	0xbd43f382	-0.04783965
118	0x3cae4e0c	0.02127745
119	0x3d73d7be	0.05953192
120	0xbd414029	-0.04718033
121	0x3c8a806a	0.016906936
122	0x3d9fb2e2	0.07797791
123	0xbd974f9b	-0.073882304
124	0xbd8a6ffe	-0.06759642
125	0xbcf2d5cd	-0.029642964
126	0xbcea0856	-0.028568428
127	0x3ca0b905	0.019619474
128	0xbb8e7062	-0.004346893
129	0x3da2a54f	0.07941686
130	0x3cccf950	0.025021225
131	0xbd134a7c	-0.035959706
132	0xbd8b65c9	-0.06806523
133	0x3d241149	0.040055547
134	0x3da33417	0.0796892
135	0xbd0d2008	-0.034454376
136	0xbcc6e10e	-0.024277236
137	0xbbd8ca51	-0.006615915
138	0x3d6c72e5	0.05772676
139	0x3d9dfc9f	0.07714199
140	0x3d671aa7	0.056421902
141	0xbc3828ab	-0.011240165
142	0xbcb4f4e6	-0.022089433
143	0x3d4a9fb2	0.049468704
144	0x3d9f64d5	0.07782904
145	0xbcf78a3b	-0.03021728
146	0x3bab0a18	0.005219709
147	0x3d62a375	0.055331666
148	0xbd99883b	-0.07496687
149	0x3d8ee8e7	0.06978016
150	0xbc92c4ad	-0.017916048
151	0xbcf409b3	-0.029789781
152	0xbd9f619d	-0.0778229
153	0xbd997ce5	-0.07494525
154	0xbd95154a	-0.07279451
155	0xbbfb1e5c	-0.007663531
156	0x3d630fe1	0.055435065
157	0xbc7d76b2	-0.015470194
158	0xbc5495d8	-0.012975179
159	0x3c1a2d89	0.0094102705
160	0xbd54ef90	-0.051986277
161	0x3d9ad20c	0.075595945
162	0xbd524b19	-0.05134115
163	0xbd3c22a4	-0.045931473
164	0x3cc4fecf	0.024047283
165	0xbc16f4e5	-0.009213661
166	0x3cf463d4	0.029832758
167	0xbc6daf6d	-0.014507157
168	0x3d409307	0.047015216
169	0x3d91e341	0.07123423
170	0x3d6885d6	0.05676826
171	0x3cc2e55e	0.023791011
172	0xbdb40f2a	-0.08791955
173	0x3d606704	0.054785743
174	0xbbbbaaa3	-0.0057271286
175	0xbd2290f5	-0.039689023
176	0xbd8ee2c6	-0.06976847
177	0x3d498a21	0.049203996
178	0xbd589bc5	-0.05288293
179	0x3d646bb8	0.05576679
180	0x3acebbf9	0.0015772573
181	0xbd8628a8	-0.06550723
182	0xbd1f47d6	-0.038886867
183	0xbd8ca714	-0.06867805
184	0x3da550b2	0.08072032
185	0xbcd62f28	-0.026145533
186	0xbc56431b	-0.013077523
187	0x3d2ebbbf	0.042659517
188	0x3da738cd	0.08165131
189	0xbd3325e5	-0.04373731
190	0xbda064d4	-0.078317314
191	0xbce438e4	-0.027859159
192	0x3d882f0a	0.06649597
193	0xbc7d5f5b	-0.015464629
194	0xbd854730	-0.065077186
195	0x3d90a3a0	0.07062459
196	0xbd2a01d4	-0.04150565
197	0x3d4f3997	0.05059203
198	0xbd8b6411	-0.068061955
199	0x3d674b7b	0.05646847
200	0xbce8462f	-0.028353779
201	0xbb1c4569	-0.0023845083
202	0xbda41f94	-0.080138355
203	0xbc7da98d	-0.015482319
204	0x3d5db6b0	0.054129303
205	0x3d053ae1	0.032526854
206	0xbbeae09e	-0.0071678897
207	0x3d883ab5	0.066518225
208	0xbd97472c	-0.07386622
209	0xbda54fdb	-0.08071872
210	0x3d06bb7d	0.032893647
211	0xbce1be3e	-0.027556535
212	0x3d80e87b	0.06294342
213	0x3d9294fe	0.07157324
214	0xbd28a8dd	-0.041176666
215	0x3d290995	0.041268904
216	0xbce6db39	-0.028180705
217	0x3d9a3029	0.07528717
218	0x3d806668	0.062695324
219	0x3c0549e6	0.008135295
220	0xbd1e6f9f	-0.03868067
221	0x3ccf8d35	0.025335887
222	0x3c0e6b83	0.008692625
223	0x3db02894	0.0860149
224	0xbd3472e2	-0.044054873
225	0xbcf82387	-0.030290378
226	0xbd3d0e21	-0.046156053
227	0x3ca88379	0.020570504
228	0x3d892647	0.06696754
229	0xbd72a01d	-0.059234727
230	0xbd419156	-0.047257744
231	0x3d57323a	0.052538134
232	0x3ca817d0	0.020519167
233	0x3d46806d	0.04846232
234	0x3c1237a2	0.008924397
235	0xbc869e7b	-0.016432991
236	0x3c978fa8	0.018501118
237	0xbd7f1ff9	-0.06228635
238	0xbc2f2a54	-0.010691244
239	0x3d52e687	0.05148938
240	0x3d46e383	0.048556816
241	0x3cd38ede	0.02582496
242	0xbdad6048	-0.0846563
243	0x3d9b47df	0.07582068
244	0xbc9d9aec	-0.019238912
245	0x3d04785e	0.032341354
246	0xbd38d361	-0.04512346
247	0x3cc2f4eb	0.023798427
248	0xbd88e01b	-0.0668337
249	0x3c3b919f	0.011448293
250	0x3d9c152d	0.076212265
251	0xbd146fea	-0.036239542
252	0x3c108069	0.008819678
253	0x3d523a3e	0.051325075
254	0xbd65bc2a	-0.05608765
255	0xbd9c875c	-0.07643005

model.8.bias f4 [128]
0	0x3d39e1ea	0.045381464
1	0xbdb1e0fa	-0.08685489
2	0x3da138b3	0.07872143
3	0x3cdc0dc4	0.026862033
4	0xbcc7820f	-0.024354009
5	0x3d761633	0.060079765
6	0xbd4fa703	-0.050696384
7	0xbd9936ac	-0.07481131
8	0x3d4fcf72	0.050734945
9	0x3d460c1a	0.048351385
10	0x3bd0e1fe	0.0063745966
11	0x3dc50d66	0.09621696
12	0x3c1c67f7	0.0095462715
13	0xbd5a6ed8	-0.053328365
14	0xbd742e54	-0.059614494
15	0xbbfe6f36	-0.007764722
16	0x3d50c31e	0.05096733
17	0x3d54035b	0.051761013
18	0xbd9499bb	-0.07255884
19	0x3d82c3a6	0.06384973
20	0xbd2f492d	-0.042794395
21	0xbd168b0e	-0.036753707
22	0xbd852a41	-0.065022
23	0xbd93b5e0	-0.07212424
24	0x3d0c6182	0.03427268
25	0xbd7fa259	-0.062410686
26	0xbdc3684f	-0.0954138
27	0x3d5c9e81	0.0538621
28	0x3da69c99	0.081353374
29	0x3d14ee61	0.03636015
30	0x3b3020ac	0.0026874943
31	0x3d89ecce	0.0673462
32	0xbd1932f5	-0.037402112
33	0x3d199c0d	0.037502337
34	0x3c59875f	0.013276904
35	0x3d87969f	0.066205256
36	0xbd47bf59	-0.048766468
37	0x3d2200d7	0.039551582
38	0xbd5b5787	-0.05355027
39	0x3d5bca18	0.05365953
40	0x3bacfa91	0.0052788933
41	0x3d8e3248	0.06943184
42	0xbdb261fb	-0.087100945
43	0x3ac29d05	0.0014847821
44	0x3da89ed3	0.08233418
45	0x39d10f04	0.00039874774
46	0xbdcc5ded	-0.099788524
47	0x3d88e961	0.066851385
48	0xbd9e5d72	-0.07732667
49	0x3da5fa12	0.08104338
50	0x3d824379	0.06360526
51	0x3cd6969d	0.026194865
52	0x3cdd76b6	0.027034145
53	0x3d623ef8	0.055235833
54	0xbd2d0103	-0.042237293
55	0xbd22db00	-0.039759636
56	0xbd7075bb	-0.058706027
57	0xbd989cda	-0.07451792
58	0x3d761493	0.060078215
59	0xbc434303	-0.011917832
60	0x3d2eae71	0.04264683
61	0xba4a79e5	-0.0007723852
62	0xbd94314e	-0.072359666
63	0xbd888401	-0.06665803
64	0xbc7a7a0c	-0.015287887
65	0xbd8cd63a	-0.06876798
66	0xbd722692	-0.059118815
67	0x3db36c55	0.08760897
68	0x3d90ca23	0.070698045
69	0x3b9cff6c	0.004791191
70	0x3d499700	0.04921627
71	0x3d9ca884	0.07649329
72	0xbd6ac274	-0.05731435
73	0x3d1fab55	0.038981754
74	0x3d842a68	0.06453401
75	0xbd412a33	-0.047159385
76	0xbdb09320	-0.08621812
77	0xbdca073a	-0.098646596
78	0x3db4ebd2	0.08834042
79	0xbd1250af	-0.035721477
80	0x3db7e6e0	0.08979583
81	0x3d4bd642	0.04976488
82	0x3d69fde7	0.057126906
83	0xbdafb97e	-0.08580302
84	0xbd8690b4	-0.06570569
85	0x3da8efc8	0.0824886
86	0x3c8d35b6	0.017237525
87	0xbc9d8862	-0.019230071
88	0x3da2654b	0.07929476
89	0xbd84bf55	-0.06481806
90	0x3c476dcd	0.012172175
91	0xbd05beb5	-0.032652576
92	0xbd606d77	-0.054791894
93	0x3c87580e	0.01652148
94	0xbd9f2d1c	-0.07772276
95	0x3d003f1b	0.031310182
96	0x3ad112ce	0.0015951039
97	0xbd231713	-0.039816927
98	0xbd030a86	-0.031992458
99	0xbd3c9963	-0.04604472
100	0x3daacbb7	0.08339637
101	0x3d6bb7a2	0.057548173
102	0xbd8b0623	-0.0678828
103	0x3cb4e0f5	0.022079924
104	0xbd3d7880	-0.046257496
105	0xbd23877f	-0.03992414
106	0xbd21067d	-0.03931283
107	0x3c551d2c	0.013007443
108	0x3da4626a	0.080265835
109	0x3d63a155	0.05557378
110	0xbc0f516e	-0.008747442
111	0x3a42fb58	0.0007437966
112	0xbdaae2ec	-0.08344063
113	0xbdae3009	-0.08505256
114	0x3dc55c6b	0.09636768
115	0xbd229961	-0.039697055
116	0xbd087e0a	-0.033323325
117	0x3d7e2dc7	0.062055375
118	0x3d95ef06	0.07320981
119	0xbb92fb08	-0.0044854917
120	0x3d20efcd	0.03929119
121	0xbcbe6d16	-0.023245376
122	0x3ca0dc5c	0.019636326
123	0xbda2ae93	-0.07943454
124	0xbd7fecac	-0.062481567
125	0x3d9e6861	0.077347524
126	0xbd97dd0a	-0.07415207
127	0xbd250d38	-0.04029581
