experiments/dispersion_pinn.pth (torch, 940940 bytes, 35 tensors)

model.0.weight f4 [128, 1]
-0.8725396 0.117219836 -0.2683723 -0.7867677 -0.61624324 -0.40379238 0.78404576 -0.6440811
0.6854973 0.11092906 -0.9193439 0.18065773 -0.81539047 -0.62614805 0.20180914 0.34932727
-0.51027536 -0.5399579 -0.89343697 0.6770145 -0.17332047 0.22730805 -0.3799238 -0.6643892
-0.04392678 -0.8274647 -0.47996157 -0.2310034 0.13161854 0.17645837 0.42929524 0.6943534
0.53847194 0.3012557 0.13123485 0.846961 -0.78862375 -0.58360744 0.4155159 -0.6612764
-0.87079805 -0.77113533 0.22227114 0.83966255 -0.6118181 -0.8936081 -0.82285327 -0.99529076
0.30433276 0.8372424 -0.8539718 -0.29339224 -0.09500472 0.40362343 -0.40110853 -0.75610894
0.4763522 -0.9808395 -0.12914127 0.3263645 0.005566369 0.5417165 0.588465 -0.90137476
0.41825575 0.3359787 0.040393386 0.95155394 -0.12308636 -0.53681654 -0.8248952 0.113893434
-0.7034798 -0.91366243 -0.99346614 -0.45165464 0.22111568 -0.007510834 -0.819279 0.28264734
0.13036528 -0.13593334 -0.9313285 0.30938864 -0.8685607 0.87440115 0.24323767 0.92675793
0.36822385 0.29124793 -0.32422337 -0.62563366 0.37680686 0.054207217 0.42852953 -0.6837085
0.91693383 -0.12952061 0.3516356 0.42425457 -0.80350333 0.08168111 -0.8801864 0.7995625
0.80364007 -0.6589792 -0.17026536 0.95019954 0.50716585 0.56169343 0.8969642 0.15838262
-0.46837124 0.042622764 -0.4862365 -0.9305574 0.5555484 -0.59855163 -0.3491552 0.15663917
-0.6380495 -0.06335459 -0.5049934 0.54018396 0.36235684 0.09952993 0.16555366 0.920305
00000000: c15e 5fbf f410 f03d 1868 89be 9c69 49bf
00000010: 1ec2 1dbf e0bd cebe 39b7 483f 80e2 24bf
00000020: c07c 2f3f c62e e33d 1f5a 6bbf 57fe 383e
00000030: 6ebd 50bf 3d4b 20bf 0ea7 4e3e 06db b23e
00000040: 68a1 02bf ae3a 0abf 49b8 64bf d350 2d3f
00000050: ec7a 31be 71c3 683e 5f85 c2be 6915 2abf
00000060: 91ec 33bd bad4 53bf 86bd f5be 288c 6cbe
00000070: 03c7 063e 81b1 343e 96cc db3e 25c1 313f
00000080: 4cd9 093f 303e 9a3e 6e62 063e 70d2 583f
00000090: 3fe3 49bf 4c67 15bf 80be d43e 6949 29bf
000000a0: 9fec 5ebf 2069 45bf 0c9b 633e 20f4 563f
000000b0: 1ca0 1cbf 80c3 64bf 83a6 52bf 60cb 7ebf
000000c0: 81d1 9b3e 8555 563f e59d 5abf 8237 96be
000000d0: d691 c2bd bba7 ce3e 195e cdbe 5b90 41bf
000000e0: 70e4 f33e 4c18 7bbf 9c3d 04be 3f19 a73e
000000f0: 1666 b63b efad 0a3f a4a5 163f 7fc0 66bf
00000100: 9e25 d63e 6605 ac3e 8973 253d 0a99 733f
00000110: b414 fcbd cf6c 09bf 552c 53bf f640 e93d
00000120: 4117 34bf c8e5 69bf cc53 7ebf 473f e7be
00000130: 266c 623e 711d f6bb 45bc 51bf 27b7 903e
00000140: 7a7e 053e 1c32 0bbe 8b6b 6ebf 3068 9e3e
00000150: fe59 5ebf c1d8 5f3f 4c13 793e 0240 6d3f
00000160: d687 bc3e 731e 953e 9b00 a6be 8729 20bf
00000170: d4ec c03e 6308 5e3d 3968 db3e 8507 2fbf
00000180: 2dbc 6a3f 0da1 04be 9509 b43e e537 d93e
00000190: 65b2 4dbf 6d48 a73d e553 61bf 21b0 4c3f
000001a0: 5bbb 4d3f dcb2 28bf 0b5a 2ebe 4740 733f
000001b0: 9fd5 013f 24cb 0f3f 729f 653f 0e2f 223e
000001c0: 5bce efbe 3595 2e3d fef3 f8be 0339 6ebf
000001d0: 6c38 0e3f ae3a 19bf 78c4 b2be 0566 203e
000001e0: 3657 23bf 0dc0 81bd 3f47 01bf 7f49 0a3f
000001f0: d686 b93e 59d6 cb3d e686 293e 1c99 6b3f

model.0.bias f4 [128]
-0.19966118 0.24628606 0.3984255 -0.75419885 0.40470803 -0.048555523 0.21610385 -0.30650386
0.68493766 0.34566945 -0.32625073 0.695457 0.019984929 0.46107292 0.45488283 -0.68930084
0.4445235 0.7402644 0.786069 -0.84351283 -0.8960874 0.3564495 0.15702574 -0.55990696
-0.33226764 0.11033582 0.8606897 0.91344845 -0.22910982 0.054178454 -0.2321983 -0.4023228
0.18341933 0.027330153 -0.5304492 -0.38836068 -0.4140471 -0.8799216 0.6824754 0.09725946
0.15640739 0.84122586 -0.713677 0.05419229 -0.509245 -0.055295095 0.30297947 -0.40620896
0.26589593 -0.824223 -0.6550546 0.31985822 0.034382485 -0.44319814 -0.28808278 0.66960204
-0.8473135 -0.45770323 -0.66312486 0.061735027 -0.531088 0.26268938 0.21342461 -0.344594
0.07000969 -0.9190999 -0.34566572 0.23536755 -0.90582496 -0.90655154 0.26321292 -0.506405
-0.10653614 0.13135518 -0.7959092 0.71478295 -0.57506573 -0.19496886 -0.9433121 0.3899313
0.923784 0.4034134 0.15450703 -0.39987683 -0.052951586 0.2772979 0.44980645 -0.1442294
-0.24531673 0.34540173 -0.65381324 -0.56779015 -0.9159193 -0.6939986 0.52879786 -0.9644463
0.25522882 0.5677446 0.34986383 -0.9024074 -0.23200071 0.6351117 -0.59266055 -0.32805842
0.9424267 -0.47676367 -0.3945545 -0.31046712 0.61479896 -0.23637986 0.60769415 -0.727702
-0.023592785 -0.22763318 0.90834355 0.015504278 -0.063910395 -0.76447606 0.727096 0.79850143
-0.64355296 -0.47683692 0.87646765 0.095138915 -0.73987484 0.5775424 0.42641336 -0.7405839
00000000: fb73 4cbe 6a32 7c3e 6dfe cb3e 2d13 41bf
00000010: e435 cf3e 28e2 46bd 544a 5d3e 13ee 9cbe
00000020: 1358 2f3f 96fb b03e 560a a7be 7809 323f
00000030: 6fb7 a33c c011 ec3e 67e6 e83e 0576 30bf
00000040: 9698 e33e f881 3d3f d13b 493f 75f0 57bf
00000050: fc65 65bf 8d80 b63e 5bcb 203e 1056 0fbf
00000060: fc1e aabe bff7 e13d 2956 5c3f c2d7 693f
00000070: c49b 6abe 3aea 5d3d 64c5 6dbe 41fd cdbe
00000080: 47d2 3b3e 7ce3 df3c 85cb 07bf 36d7 c6be
00000090: fbfd d3be 8b42 61bf b5b6 2e3f f82f c73d
000000a0: 4229 203e 945a 573f 89b3 36bf bcf8 5d3d
000000b0: e15d 02bf 1c7d 62bd 2020 9b3e 9ffa cfbe
000000c0: 8323 883e 4700 53bf a9b1 27bf 75c4 a33e
000000d0: a6d4 0c3d deea e2be 967f 93be 0a6b 2b3f
000000e0: 8ae9 58bf 1458 eabe 8dc2 29bf dedd 7c3d
000000f0: 62f5 07bf 397f 863e fb8b 5a3e a06e b0be
00000100: 3e61 8f3d 224a 6bbf 19fb b0be 3104 713e
00000110: 25e4 67bf c313 68bf d8c3 863e c2a3 01bf
00000120: 9f2f dabd f981 063e b5c0 4bbf 04fc 363f
00000130: 8237 13bf eba5 47be e77c 71bf 13a5 c73e
00000140: 1c7d 6c3f 338c ce3e 1737 1e3e a8bc ccbe
00000150: c3e3 58bd fef9 8d3e 084d e63e dfb0 13be
00000160: 4f34 7bbe 7fd8 b03e 4e60 27bf b25a 11bf
00000170: b079 6abf e4a9 31bf 4c5f 073f f4e5 76bf
00000180: 5aad 823e b657 113f 5a21 b33e 2c04 67bf
00000190: 9891 6dbe ae96 223f 9ab8 17bf 46f7 a7be
000001a0: e042 713f 5e1a f4be 0c03 cabe 8cf5 9ebe
000001b0: 7763 1d3f 900d 72be d891 1b3f ae4a 3abf
000001c0: a845 c1bc ac18 69be 3489 683f a805 7e3c
000001d0: 74e3 82bd b4b4 43bf f722 3a3f 976a 4c3f
000001e0: e3bf 24bf f823 f4be 2f60 603f 31d8 c23d
000001f0: 7068 3dbf d2d9 133f da52 da3e e896 3dbf

model.2.weight f4 [128, 128]
-0.05076726 -0.05559212 -0.06576542 -0.02421402 -0.021607565 0.07094268 0.05407 0.03411581
0.08585326 -0.020169754 -0.05912365 -0.071905546 0.092302844 -0.035862964 -0.024752114 -0.08485642
-0.020430312 0.03579377 0.018354991 0.0659617 -0.028476205 -0.0014942545 -0.007150874 -0.01698177
-0.047411263 0.049980238 0.08714174 -0.029177405 -0.047292963 -0.0041285935 0.06949088 0.041503835
-0.04374224 -0.08274962 0.06876858 -0.055701323 -0.081428245 -0.011911001 0.0713556 -0.06191473
-0.052722134 -0.016908487 -0.0051902053 0.024003932 -0.04359829 -0.047117926 0.0043893214 0.008404542
-0.05579795 0.07807543 0.08010031 -0.052924924 0.0056745745 -0.03863108 0.0026040764 -0.03382919
0.027735692 0.06567861 -0.09020231 0.018098418 -0.004273747 -0.06765701 -0.03776876 -0.026276508
-0.050110627 0.032482658 0.08323663 0.053145494 0.070702605 0.014571189 -0.06337749 0.07502705
-0.046388585 -0.025862215 -0.018354654 -0.0013195843 0.019872261 0.0012789001 0.0052562454 -0.019375633
0.03846765 -0.015087907 -0.017671684 -0.027590588 -0.055320334 0.039690558 0.04012093 -0.08804626
0.0125842225 0.0063717975 0.018409347 0.07626476 0.029572874 -0.08934488 0.09032005 0.017474694
-0.055800933 0.059703134 -0.023122195 -0.07690557 0.005774383 -0.05738011 -0.041639496 0.038205173
0.08014381 0.060032815 -0.09075021 -0.07671692 -0.019774621 -0.059510265 0.034467038 -0.07325267
0.036237344 0.048604496 -0.056606717 0.054453097 0.010987357 -0.076697454 -0.07063835 0.051017933
0.00014481731 -0.021039829 -0.037863538 0.022929685 -0.05685299 -0.024249984 -0.047859784 0.052392423
0.03753454 0.0053620934 0.030774677 0.06760839 -0.0069423853 0.09617466 -0.030180976 0.034163322
-0.06673328 0.012069499 -0.031789664 0.016222024 0.01341948 -0.0479932 0.015486351 0.07020478
0.0063225073 -0.015702497 -0.017090658 0.076291405 -0.043477353 0.087661095 -0.009503358 0.026918331
-0.018486792 0.022018507 0.06218474 -0.06083145 0.068892345 0.037813928 0.01608777 0.06926754
-0.025689283 -0.012696798 -0.016742526 0.07469947 -0.020990092 -0.080526836 -0.056009635 0.020749118
0.03127189 0.01669938 -0.015428115 0.02606258 -0.0029049262 -0.042479035 -0.056878425 0.08974333
0.0821352 0.06326203 -0.07359229 -0.07820931 -0.005816319 -0.06843927 -0.015902067 0.079621136
-0.07321397 0.0031771332 0.0109684495 0.06911771 0.07598198 0.044787668 -0.0046500205 0.008125287
-0.05380413 0.061166406 0.068687975 0.059310876 0.067500085 -0.06804224 0.09013385 0.06281593
0.04424786 -0.02598534 0.020941615 0.050087776 -0.0428854 -0.055617463 0.021580068 -0.02420053
0.02126099 -0.043952286 0.0597423 0.07975774 -0.0020925475 0.021111589 -0.07832833 0.060924653
0.04157161 -0.009830964 -0.07809006 -0.023402605 -0.047562838 0.0015323979 0.031705886 -0.013985879
0.009016517 0.050332606 -0.083497204 -0.008469922 0.045073688 0.06283354 -0.020328488 0.019034605
0.08766515 0.0468376 -0.081306614 0.018980447 -0.0117510045 -0.075831756 -0.03742591 0.019535068
-0.013151438 -0.07188563 -0.046550896 -0.044160247 -0.07273432 -0.04438213 -0.08165783 0.087615274
-0.01267671 0.070603326 0.0086100325 -0.013661727 0.074565634 0.06055905 0.08073902 -0.09020025
00000000: 55f1 4fbd 90b4 63bd 05b0 86bd 7b5c c6bc
00000010: 5902 b1bc 654a 913d 8178 5d3d 05bd 0b3d
00000020: d5d3 af3d 0a3b a5bc a42b 72bd 3743 93bd
00000030: 4609 bd3d 0be5 12bd f2c4 cabc 34c9 adbd
00000040: 785d a7bc 7d9c 123d 355d 963c ee16 873d
00000050: ee46 e9bc dcda c3ba e151 eabb 5a1d 8bbc
00000060: 5032 42bd 14b8 4c3d 5e77 b23d 7405 efbc
00000070: 44b6 41bd 2749 87bb 3c51 8e3d edff 293d
00000080: 102b 33bd a278 a9bd 8bd6 8c3d 1227 64bd
00000090: dac3 a6bd 5c26 43bc e322 923d 4d9a 7dbd
000000a0: 2af3 57bd ab83 8abc 9912 aabb e5a3 c43c
000000b0: 1f94 32bd bafe 40bd 4cd4 8f3b 34b3 093c
000000c0: 648c 64bd 03e6 9f3d a20b a43d cec7 58bd
000000d0: c8f1 b93b a03b 1ebd 27a9 2a3b 7a90 0abd
000000e0: f635 e33c 8282 863d fdbb b8bd 2243 943c
000000f0: ca0a 8cbb c28f 8abd 6ab3 1abd d541 d7bc
00000100: cd40 4dbd 890c 053d f777 aa3d 17af 593d
00000110: 87cc 903d ffbb 6e3c 0fcc 81bd c8a7 993d
00000120: f501 3ebd ffdc d3bc 805c 96bc e7f5 acba
00000130: 27cb a23c c4a0 a73a 953c ac3b a6b9 9ebc
00000140: 4190 1d3d 4533 77bc 35c4 90bc a805 e2bc
00000150: 9397 62bd 9192 223d d855 243d 9951 b4bd
00000160: 0e2e 4e3c 83ca d03b 33cf 963c b330 9c3d
00000170: d042 f23c 73fa b6bd b8f9 b83d 1727 8f3c
00000180: 858f 64bd 468b 743d c26a bdbc ab80 9dbd
00000190: 0937 bd3b 6807 6bbd 2d8e 2abd 077d 1c3d
000001a0: 7022 a43d f8e4 753d 3fdb b9bd c31d 9dbd
000001b0: 63fe a1bc 09c1 73bd 4f2d 0d3d 7f05 96bd
000001c0: 9c6d 143d 8215 473d 72dc 67bd 360a 5f3d
000001d0: 5104 343c 8e13 9dbd d7aa 90bd 2ef8 503d
000001e0: 1ada 1739 b85b acbc cc16 1bbd 09d7 bb3c
000001f0: aede 68bd e7a7 c6bc 9f08 44bd 7099 563d
00000200: d1bd 193d 80b4 af3b 2d1b fc3c 4476 8a3d
00000210: f37c e3bb 38f7 c43d 183e f7bc d7ee 0b3d
00000220: 75ab 88bd 26bf 453c e135 02bd 0de4 843c
00000230: 61dd 5b3c 8594 44bd 77ba 7d3c 86c7 8f3d
00000240: 092d cf3b 86a2 80bc b501 8cbc ab3e 9c3d
00000250: 4f15 32bd a987 b33d f9b3 1bbc d583 dc3c
00000260: 9d71 97bc 2860 b43c 6db5 7e3d 662a 79bd
00000270: 6e17 8d3d c7e2 1a3d 80ca 833c 24dc 8d3d
00000280: 5572 d2bc 3b06 50bc 9f27 89bc 09fc 983d
00000290: 6af3 abbc 41eb a4bd 5c6a 65bd 0efa a93c
000002a0: f416 003d 23cd 883c 34c6 7cbc 3181 d53c
000002b0: 9360 3ebb 7ffe 2dbd 5af9 68bd 5acb b73d
000002c0: 8036 a83d 868f 813d 8eb7 96bd 342c a0bd
000002d0: d296 bebb e329 8cbd 0d45 82bc 6810 a33d
000002e0: 35f1 95bd 7337 503b 03b5 333c 968d 8d3d
000002f0: 719c 9b3d 4673 373d 335f 98bb ec1f 053c
00000300: b861 5cbd a089 7a3d 48ac 8c3d f6ef 723d
00000310: 7c3d 8a3d bb59 8bbd 1998 b83d a3a5 803d
00000320: 3e3d 353d 35df d4bc c08d ab3c d728 4d3d
00000330: 9aa8 2fbd 23cf 63bd afc8 b03c 3140 c6bc
00000340: 872b ae3c 5007 34bd 58b4 743d 0758 a33d
00000350: 1f23 09bb 36f2 ac3c 9a6a a0bd 218c 793d
00000360: fe46 2a3d 0d12 21bc aeed 9fbd d2b6 bfbc
00000370: 40d1 42bd beda c83a 08de 013d 0725 65bc
00000380: 03ba 133c 9029 4e3d 9500 abbd 6dc5 0abc
00000390: 309f 383d dfae 803d ee87 a6bc 76ee 9b3c
000003a0: c989 b33d c9d8 3f3d 1584 a6bd e27c 9b3c
000003b0: 4987 40bc ae4d 9bbd e94b 19bd 0208 a03c
000003c0: 2179 57bc c638 93bd 27ac 3ebd 60e1 34bd
000003d0: bbf5 94bd 09ca 35bd 383c a7bd a36f b33d
000003e0: fab1 4fbc 7a98 903d 1811 0d3c 70d5 5fbc
000003f0: deb5 983d c40c 783d 805a a53d e9ba b8bd

model.2.bias f4 [128]
0.008424516 -0.036908284 -0.016661465 0.024743784 -0.0042585167 0.053219583 0.021750648 0.0132777225
-0.037353724 0.044249177 0.03569669 -0.045371283 -0.008148419 -0.011059511 -0.048973866 -0.057227205
0.09770873 0.069690384 0.056997508 -0.020332854 -0.04988456 -0.079429366 0.07402018 -0.063305475
0.0049549723 0.06936389 0.01955932 0.08204748 0.046488732 0.02260508 -0.0024598602 0.082284294
0.06836461 0.06368538 0.02952798 -0.011180351 0.059753817 -0.0797218 -0.0046755048 -0.07160473
-0.027162414 -0.055568364 -0.0729074 0.018820066 0.047802314 0.08970704 -0.0286985 0.081061356
0.01938601 -0.08912413 0.056535132 -0.0007452784 0.062483348 -0.00093891256 -0.041283064 -0.00047976637
-0.0778724 -0.05223631 -0.010232664 0.07895508 -0.07835725 -0.030784033 0.041555345 0.05516496
0.0692131 -0.023040403 0.011329245 0.04965102 0.0284897 0.024627388 0.039734848 -0.05642279
-0.009986672 -0.030457256 0.0043310714 -0.023632491 0.0049237683 0.08009922 0.033413276 -0.02982763
-0.07220779 -0.0688855 -0.018606424 -0.020903299 -0.06175815 0.01611871 0.0571933 0.010891329
5.7845828e-05 -0.060655996 0.08292834 0.044857483 -0.06345146 0.017463874 -0.076137476 0.03597622
0.06972548 0.035942424 -0.05191898 -0.08102242 -0.013565295 0.08751737 -0.028326621 0.05733387
-0.052733816 0.03999404 0.078293785 0.06711901 -0.08312735 0.004778926 -0.071823396 -0.029200224
-0.013253128 -0.013760332 -0.015354734 0.0604049 0.07209523 0.01989501 -0.010713651 0.08016846
-0.033926193 0.03738239 0.06737405 0.08312242 -0.060116824 -0.040856607 -0.030922007 0.017988263
00000000: fb06 0a3c 242d 17bd a07d 88bc 7ab3 ca3c
00000010: 078b 8bbb c7fc 593d 6a2e b23c ce8a 593c
00000020: 3800 19bd a03e 353d b136 123d 3dd7 39bd
00000030: f280 05bc f432 35bc d298 48bd 1367 6abd
00000040: 841b c83d d5b9 8e3d 3876 693d 1691 a6bc
00000050: c153 4cbd ddab a2bd e497 973d 4da6 81bd
00000060: 525d a23b a80e 8e3d de3a a03c 8208 a83d
00000070: f86a 3e3d 4a2e b93c 9b35 21bb ab84 a83d
00000080: bf02 8c3d 7b6d 823d aae4 f13c ca2d 37bc
00000090: 6bc0 743d 2f45 a3bd fa34 99bb 80a5 92bd
000000a0: b683 debc a79b 63bd 7a50 95bd 8a2c 9a3c
000000b0: 5ccc 433d 53b8 b73d 1e19 ebbc 7f03 a63d
000000c0: 69cf 9e3c b686 b6bd 6291 673d c95e 43ba
000000d0: 8aee 7f3d 5b21 76ba 6e18 29bd 2789 fbb9
000000e0: 917b 9fbd bef5 55bd e7a6 27bc 33b3 a13d
000000f0: c479 a0bd cc2e fcbc f035 2a3d a7f4 613d
00000100: 99bf 8d3d 3abf bcbc 4c9e 393c de5e 4b3d
00000110: 3b63 e93c 60bf c93c 02c1 223d 951b 67bd
00000120: 239f 23bc 7f81 f9bc a9eb 8d3b ed98 c1bc
00000130: 9057 a13b 0f0b a43d 5cdc 083d 1359 f4bc
00000140: aee1 93bd d713 8dbd 806c 98bc 653d abbc
00000150: 1df6 7cbd 630b 843c 8643 6a3d 8b71 323c
00000160: 7c9f 7238 6c72 78bd 55d6 a93d 7bbc 373d
00000170: d7f2 81bd 6610 8f3c f7ed 9bbd cd5b 133d
00000180: 3ccc 8e3d 5d38 133d ffa8 54bd 15ef a5bd
00000190: f940 5ebc 4f3c b33d 3b0d e8bc ecd6 6a3d
000001a0: 6aff 57bd cad0 233d 7e58 a03d b175 893d
000001b0: ac3e aabd 8998 9c3b 2518 93bd 4f35 efbc
000001c0: a623 59bc 0473 61bc 6c92 7bbc 216b 773d
000001d0: aaa6 933d dcfa a23c 4f88 2fbc 5d2f a43d
000001e0: 31f6 0abd 471e 193d 68fb 893d 163c aa3d
000001f0: 0f3d 76bd 4259 27bd 2650 fdbc 1f5c 933c

model.4.weight f4 [128, 128]
-0.014462136 -0.038417954 -0.08068824 -0.05239168 0.050758775 -0.03268685 -0.037190944 0.0020488945
0.019855533 0.03006531 -0.03569104 -0.057445586 -0.052447263 0.0050293836 0.03184615 0.05061933
-0.07061494 -0.04052932 0.05133375 -0.023331506 -0.058459967 0.0013574793 0.031868834 -0.043348346
0.031774428 0.003498192 0.03700396 -0.08574029 0.00533345 -0.05269053 0.07111776 -0.071828425
0.049938153 -0.02846421 -0.008497548 -0.036551654 0.01259801 0.059772942 -0.003095183 -0.019551074
-0.010525557 0.052410048 -0.0041031684 -0.021656748 -0.054008212 -0.052229438 -0.039521705 0.06642822
0.06261636 -0.08943185 -0.10785289 -0.008677529 0.017588232 0.0032454703 0.0120002385 -0.054815765
0.033591878 -0.07676216 0.08386245 -0.01796593 -0.025166798 -0.015549921 -0.078230806 0.0067423177
-0.060996167 0.023771163 0.069975145 0.03855267 0.042614505 0.029146073 0.0036216 -0.08564412
0.024230748 -0.030829685 0.083856896 -0.064332105 0.06129856 0.03665271 0.024529634 -0.042398546
0.012797234 -0.020892335 -0.05277426 -0.095572956 0.046313636 -0.061690204 -0.004592235 -0.060977884
-0.022006566 -0.015453002 -0.017550949 -0.023299381 -0.028046362 0.051136017 -0.011087823 -0.035610117
0.0024456661 -0.079876356 0.0011151582 0.026454506 0.012630321 0.035685014 -0.072101496 0.00706856
-0.002752675 -0.031126516 0.027481893 0.052679196 0.029460687 0.05091228 -0.033488274 -0.023794146
0.0047246525 -0.081168756 0.014137286 -0.021699864 -0.055629052 -0.06770863 0.015150877 -0.031403523
0.0024907654 0.05412453 0.027171295 -0.04818509 -0.022132015 -0.038677588 0.077248685 -0.07941461
0.01760017 0.05061919 0.040670957 0.003448764 -0.058072492 -0.05413435 0.076976776 0.046573147
0.028420037 -0.058030237 -0.02269648 -0.042450123 -0.010392813 -0.07695792 0.066212595 0.0018723919
-0.04229814 -0.07358764 0.015282136 0.042623147 0.040154483 0.02150767 0.015785204 -0.043942288
0.052865513 0.06629629 0.08309171 -0.012696531 -0.03272267 -0.021970302 0.06562409 0.0093169985
-0.038349036 -0.049404558 0.0748261 0.045179322 -0.08230739 0.0077847643 -0.026935756 0.037539523
0.060061377 -0.03985498 0.002987584 -0.036531486 -0.039613757 -0.017528916 0.018964142 0.033772755
-0.0140678855 0.07179583 0.028748283 -0.0044773244 -0.008765852 -0.05443206 -0.043630484 -0.076708145
-0.026902061 0.04245696 0.08472837 0.065629855 -0.044921968 -0.05485049 -0.052267864 0.064722724
0.043079138 0.049377438 -0.012998914 -0.04301127 -0.014238246 0.058432914 0.022337558 0.0661106
-0.06202497 -0.006707577 -0.0074524055 0.051376227 -0.0068081925 -0.03906435 -0.002868824 -0.013926994
0.054370716 0.049020186 -0.01744572 -0.03400986 -0.008199188 -0.021999609 -0.005146297 0.017091153
0.038847033 0.062401764 -0.040498022 -0.0030964084 -0.005520252 -0.0206928 0.05838907 0.052534226
-0.042408917 0.008161383 0.052313197 -0.031843074 0.0689136 0.06677286 -0.025884716 0.042450458
-0.028460858 -0.0041711424 -0.032723367 -0.044883303 0.053206947 -0.011310723 0.030403167 0.010469719
0.0408538 0.027254911 -0.07773875 0.07733243 -0.058166645 -0.05417191 -0.044425357 0.05736969
0.040132217 -0.004325576 0.032696385 0.057102688 -0.04856849 0.08627345 0.041037444 0.08410779
00000000: 98f2 6cbc 255c 1dbd e03f a5bd a998 56bd
00000010: 6fe8 4f3d a5e2 05bd 8855 18bd bf46 063b
00000020: 12a8 a23c 864b f63c c530 12bd 104c 6bbd
00000030: f1d2 56bd 87cd a43b 1c71 023d 3756 4f3d
00000040: 919e 90bd 1202 26bd 5743 523d b721 bfbc
00000050: b873 6fbd 72ed b13a e588 023d 098e 31bd
00000060: e725 023d ec41 653b 7791 173d 9b98 afbd
00000070: 39c4 ae3b 06d2 57bd 30a6 913d c81a 93bd
00000080: f38b 4c3d c62d e9bc 4d39 0bbc 30b7 15bd
00000090: e267 4e3c 79d4 743d 8ed8 4abb 9329 a0bc
000000a0: 6373 2cbc ebab 563d df73 86bb 7e69 b1bc
000000b0: b737 5dbd 89ee 55bd 83e1 21bd 850b 883d
000000c0: 023d 803d 0c28 b7bd fae1 dcbd 322c 0ebc
000000d0: 3215 903c f5b1 543b a69c 443c 7f86 60bd
000000e0: a397 093d 7b35 9dbd 14c0 ab3d 492d 93bc
000000f0: 9a2a cebc 19c5 7ebc 7937 a0bd a9ee dc3b
00000100: 1ed7 79bd bebb c23c 214f 8f3d 68e9 1d3d
00000110: 8c8c 2e3d bfc3 ee3c 5e58 6d3b 2f66 afbd
00000120: 907f c63c 898e fcbc 2abd ab3d 8dc0 83bd
00000130: 3314 7b3d 2721 163d 5ff2 c83c 19aa 2dbd
00000140: 7dab 513c 6726 abbc d329 58bd c1bb c3bd
00000150: 5eb3 3d3d deae 7cbd 767a 96bb f2c3 79bd
00000160: 1d47 b4bc 972e 7dbc 02c7 8fbc 58de bebc
00000170: 7cc1 e5bc 0074 513d b3a9 35bc eadb 11bd
00000180: 7847 203b 3796 a3bd 802a 923a 1fb7 d83c
00000190: 68ef 4e3c 732a 123d f3a9 93bd 619f e73b
000001a0: 3966 34bb 09fd febc b521 e13c 24c6 573d
000001b0: 8a57 f13c 6589 503d 002b 09bd f1eb c2bc
000001c0: 42d1 9a3b ce3b a6bd 13a0 673c eac3 b1bc
000001d0: 4adb 63bd d2aa 8abd 623b 783c fba0 00bd
000001e0: 1c3c 233b afb1 5d3d 5696 de3c bb5d 45bd
000001f0: 334e b5bc 646c 1ebd 8f34 9e3d 21a4 a2bd
00000200: 3b2e 903c 1156 4f3d 9796 263d a904 623b
00000210: 6cdd 6dbd fbbb 5dbd 00a6 9d3d 7cc3 3e3d
00000220: 23d1 e83c 1db1 6dbd f8ed b9bc 2ee0 2dbd
00000230: 9e46 2abc 1d9c 9dbd 789a 873d 0c6b f53a
00000240: d040 2dbd 1eb5 96bd ed61 7a3c 9c95 2e3d
00000250: 0779 243d da30 b03c f94f 813c d4fc 33bd
00000260: 8289 583d 59c6 873d fd2b aa3d 1c05 50bc
00000270: 3508 06bd 10fb b3bc ec65 863d 53a6 183c
00000280: e113 1dbd 6f5c 4abd 6d3e 993d f40d 393d
00000290: c790 a8bd 5617 ff3b 60a8 dcbc 0bc3 193d
000002a0: eb02 763d fa3e 23bd 58cb 433b 0aa2 15bd
000002b0: 0942 22bd cd98 8fbc b05a 9b3c 4d55 0a3d
000002c0: fd7c 66bc b109 933d 8581 eb3c 85b6 92bb
000002d0: a69e 0fbc 27f4 5ebd e1b5 32bd 2919 9dbd
000002e0: b661 dcbc 59e7 2d3d 1186 ad3d f268 863d
000002f0: 1900 38bd e8aa 60bd d416 56bd 598d 843d
00000300: c073 303d ff3f 4a3d 66f9 54bc 962c 30bd
00000310: 8847 69bc 5a57 6f3d 41fd b63c ff64 873d
00000320: e50d 7ebd 3ccb dbbb 4f33 f4bb e16f 523d
00000330: 4217 dfbb f101 20bd e102 3cbb 0c2e 64bc
00000340: d4b3 5e3d 64c9 483d 54ea 8ebc ec4d 0bbd
00000350: e355 06bc 8638 b4bc 45a2 a8bb bf02 8c3c
00000360: 111e 1f3d fe98 7f3d 41e1 25bd 1ded 4abb
00000370: 3be3 b4bb f283 a9bc 6129 6f3d 212e 573d
00000380: f9b4 2dbd 52b7 053c 5d46 563d e26d 02bd
00000390: 9322 8d3d 36c0 883d 2f0c d4bc 88e0 2d3d
000003a0: bf26 e9bc 14ae 88bb f008 06bd 8ed7 37bd
000003b0: 87ef 593d 9c50 39bc 1010 f93c 2f89 2b3c
000003c0: 5056 273d b145 df3c 7e35 9fbd 7760 9e3d
000003d0: 2640 6ebd 5de3 5dbd 5df7 35bd 7bfc 6a3d
000003e0: ae61 243d 90bd 8dbb a5ec 053d 82e4 693d
000003f0: c1ef 46bd 22b0 b03d e116 283d b440 ac3d

model.4.bias f4 [128]
0.07837107 0.03417875 0.05204906 -0.0075243544 0.050809015 0.049876608 -0.031454884 -0.01385471
0.015763693 0.04836823 0.047712043 0.05779525 -0.0067112446 -0.018207287 -0.0063527734 -0.04692961
-0.08198739 -0.050348606 0.060914982 -0.053792436 0.06781352 -0.037971873 -0.023924252 -0.0669767
-0.068551205 0.06844929 -0.0420356 0.060088616 0.020191628 -0.015631286 0.04071143 0.07292777
0.05766274 -0.019494005 -0.04368536 0.047849856 0.05535662 -0.029159212 -0.06703768 0.017390791
0.03515013 -0.03391454 0.068412945 -0.027264662 0.012389153 -0.016672721 0.07776081 -0.059637036
-0.008556744 -0.04480252 0.019360349 -0.035319928 -0.08437564 -0.06649906 0.0019211019 -0.014027708
0.06831452 0.07024836 -0.069860615 -0.061123878 0.025883542 0.059424125 -0.02531821 -0.05836983
0.04853751 0.042284723 -0.047108296 0.041074075 0.0027575206 0.03937083 0.047370873 -0.011771672
-0.07548329 0.020281924 0.062903486 -0.06425182 0.020623486 -0.06811241 0.049761005 0.013239166
-0.029090965 0.023620032 0.055786554 -0.0064277234 -0.06133003 0.028747348 0.026090829 -0.007841618
-0.0087744035 0.058025345 -0.04595698 -0.009252942 0.0441761 -0.0009507732 0.043503996 0.031707145
0.017330086 0.00027450573 0.05734237 -0.044948786 0.010865392 -0.03290416 0.042562257 0.0074429675
0.02493169 -0.0016582976 -0.060219355 0.009158084 0.06988214 -0.0849605 -0.0007464204 0.05892324
0.018937841 -0.024342537 -0.021801557 0.02149926 -0.044712365 0.031447127 0.054721482 0.057016727
-0.0630796 -0.07097463 -0.0017261994 -0.047295433 0.006040953 -0.043680843 0.012773836 0.0015787672
00000000: 0381 a03d 04ff 0b3d 6531 553d dc8e f6bb
00000010: 1d1d 503d 6a4b 4c3d d6d6 00bd defe 62bc
00000020: dc22 813c c41d 463d b46d 433d b6ba 6c3d
00000030: 00ea dbbb 7327 95bc ed2a d0bb 4339 40bd
00000040: 01e9 a7bd 573a 4ebd fd81 793d 7555 5cbd
00000050: d1e1 8a3d 6588 1bbd cbfc c3bc 152b 89bd
00000060: 9364 8cbd 242f 8c3d 852d 2cbd 7b1f 763d
00000070: ea68 a53c 2f0d 80bc 07c1 263d 285b 953d
00000080: c42f 6c3d e4b1 9fbc 6cef 32bd 36fe 433d
00000090: a0bd 623d 4ddf eebc 0d4b 89bd 2277 8e3c
000000a0: 95f9 0f3d f9e9 0abd 161c 8c3d 245a dfbc
000000b0: e0fb 4a3c 3b95 88bc 0f41 9f3d f745 74bd
000000c0: 9631 0cbc d982 37bd 9899 9e3c a1ab 10bd
000000d0: 23cd acbd a930 88bd 7ccd fb3a 79d4 65bc
000000e0: 7ce8 8b3d 5fde 8f3d 1513 8fbd 085d 7abd
000000f0: b909 d43c b666 733d 2268 cfbc 3415 6fbd
00000100: 45cf 463d bf32 2d3d a1f4 40bd 4a3d 283d
00000110: 85b7 343b 4f43 213d f607 423d f9dd 40bc
00000120: fc96 9abd 4726 a63c 8bd3 803d 7596 83bd
00000130: 96f2 a83c 857e 8bbd 32d2 4b3d 16e9 583c
00000140: 2d50 eebc cc7e c13c 7180 643d a79f d2bb
00000150: 3335 7bbd 8f7f eb3c 6fbc d53c 217a 00bc
00000160: 84c2 0fbc fcab 6d3d 633d 3cbd a799 17bc
00000170: 00f2 343d 4f3d 79ba 3f31 323d 5adf 013d
00000180: d3f7 8d3c 89eb 8f39 d5df 6a3d 381c 38bd
00000190: c204 323c 83c6 06bd c355 2e3d 23e4 f33b
000001a0: 8b3d cc3c 3c5b d9ba 92a8 76bd ca0b 163c
000001b0: 5e1e 8f3d c5ff adbd 6dab 43ba 7f59 713d
000001c0: 8823 9b3c 006a c7bc 2e99 b2bc 371f b03c
000001d0: 5024 37bd b4ce 003d a223 603d 5f8a 693d
000001e0: e12f 81bd 265b 91bd a441 e2ba dbb8 41bd
000001f0: 30f3 c53b afea 32bd 5a49 513c a3ee ce3a

model.6.weight f4 [128, 128]
0.04559099 -0.10357343 0.056976534 0.028804231 -0.03859953 0.010702959 -0.07312534 0.068297
-0.041859154 -0.07566707 -0.042003006 -0.05640085 0.061878752 0.032582074 -0.06221629 -0.065738924
-0.08954834 0.028033026 0.005135474 0.0376492 0.046884213 0.00445831 0.050889283 -0.06419132
-0.028311078 -0.02794606 -0.0716618 -0.029681245 -0.059733693 0.08702599 0.040580615 -0.022038125
0.010122298 0.0711259 -0.047566533 -0.076241344 0.050337624 0.068273805 0.03737071 -0.054147955
0.046201177 -0.06317084 -0.04879913 -0.00992282 0.017010702 0.046891976 -0.035192188 0.025142493
-0.060705952 0.0011687505 0.056079037 0.010502417 -0.0019587376 -0.008404158 0.010214256 -0.0274423
-0.002296453 -0.043628614 0.042459168 0.023930533 -0.0025025909 0.091318965 0.061029736 0.03609558
-0.0010537896 0.010887224 -0.052323133 0.029097741 -0.011676487 -0.03572501 -0.02411961 0.03308437
0.063182406 -0.027597765 0.021241417 -0.052124757 -0.036607947 -0.0054425327 0.073877655 0.10370099
-0.03404742 -0.037834797 -0.011675184 -0.09925413 0.006147311 0.033465173 0.057309724 -0.029486874
-0.06052991 0.025550123 -0.01847526 0.07694806 0.073692955 0.0604892 -0.06679288 0.045471884
0.010795054 0.08315883 0.027456654 0.010390465 -0.013851771 -0.0132212825 -0.018568879 -0.06584336
0.088902526 -0.06757741 0.0041521816 -0.11050056 -0.059423063 0.08276177 -0.040042322 0.058950078
0.010026921 -0.056586675 0.07385505 0.0027049123 0.022197215 0.03788565 0.023834478 -0.07685776
0.017835526 0.026108213 0.0042212885 0.035737764 -0.030178266 0.020249613 -0.040138576 0.006792955
0.064089194 -0.014827384 0.035725567 -0.023712607 -0.005152814 0.042801082 0.011012419 -0.02771506
-0.00089339213 -0.024315497 0.011095526 0.024065616 0.008032018 -0.019376796 0.06359407 -0.061055664
-0.07321135 -0.00047706955 -0.09282149 0.046380892 0.0404456 0.010422705 0.008399284 -0.053524893
0.07334699 -0.045177817 0.05784762 0.024987102 -0.0051104934 -0.022563472 0.009519283 0.08444372
-0.0017864023 -0.005095865 0.058896124 -0.03370134 0.07012649 -0.024307076 0.037278447 -0.017096536
0.044460773 0.057234716 0.020971486 0.049195245 -0.05258818 0.024324557 0.04862286 0.10942586
-0.03194113 0.016827673 -0.043828513 0.064007476 -0.012539623 -0.032786638 -0.037305493 0.032020766
0.047817662 0.05307042 -0.007609924 0.012971673 -0.035750765 0.032691985 -0.04874803 0.0600056
-0.07011865 -0.017304057 -0.052939236 -0.011761702 -0.0073996647 -0.02422337 -0.03339482 0.010297038
-0.004663701 -0.049549144 0.06188566 0.054470006 0.05536963 0.07525141 0.07382579 -0.03749077
-0.060977675 -0.013719564 0.06591731 -0.01941089 0.049469925 -0.047847312 0.008163415 -0.06819811
-0.03458163 0.03280182 0.023811229 -0.043819055 -0.02626527 0.073228024 -0.00060235866 0.021215532
0.033779718 -0.02766211 -0.004234664 -0.0426711 -0.07568905 -0.05751644 0.030610034 -0.08108787
0.035883922 0.04614388 0.04922755 -0.024967277 -0.02531324 -0.023046898 0.015693847 0.011125756
0.00036478645 -0.023913056 0.013778735 -0.004492418 -0.011709632 -0.051723517 0.0371367 -0.017894315
0.0016681368 -0.062272612 0.008313873 -0.030532531 -0.039846394 0.02017234 0.00071146083 0.05663562
00000000: 9ebd 3a3d 4e1e d4bd 3a60 693d daf6 eb3c
00000010: 8a1a 1ebd 775b 2f3c bdc2 95bd 4cdf 8b3d
00000020: 8174 2bbd 56f7 9abd 580b 2cbd 9404 67bd
00000030: 9374 7d3d c874 053d 82d6 7ebd 21a2 86bd
00000040: 1f65 b7bd 84a5 e53c 7a47 a83b 0c36 1a3d
00000050: a909 403d 0417 923b 4871 503d bd76 83bd
00000060: a2ec e7bc 23ef e4bc 6cc3 92bd 1526 f3bc
00000070: 51ab 74bd af3a b23d dc37 263d 4c89 b4bc
00000080: ffd7 253c 75aa 913d 20d5 42bd 6c24 9cbd
00000090: d32e 4e3d 23d3 8b3d 0812 193d 3fca 5dbd
000000a0: 723d 3d3d b75f 81bd 99e1 47bd 5393 22bc
000000b0: 075a 8b3c cd11 403d af25 10bd a1f7 cd3c
000000c0: cea6 78bd c230 993a 22b3 653d 5412 2c3c
000000d0: 2a5e 00bb 98b1 09bc b259 273c adce e0bc
000000e0: 1780 16bb ebb3 32bd aae9 2d3d f709 c43c
000000f0: 8202 24bb 7005 bb3d 51fa 793d f5d8 133d
00000100: 501f 8aba 5460 323c c850 56bd 635e ee3c
00000110: bc4e 3fbc 6354 12bd 7d96 c5bc 7a83 073d
00000120: c765 813d b514 e2bc 7b02 ae3c c580 55bd
00000130: 37f2 15bd 4657 b2bb 2b4d 973d 2f61 d43d
00000140: 4f75 0bbd a9f8 1abd 4549 3fbc c045 cbbd
00000150: 626f c93b c712 093d 9abd 6a3d 758e f1bc
00000160: 36ee 77bd 7e4e d13c 6e59 97bc f296 9d3d
00000170: 55ec 963d 86c3 773d b5ca 88bd ba40 3a3d
00000180: bddd 303c 2d4f aa3d c7ec e03c c53c 2a3c
00000190: 8af2 62bc 149e 58bc c31d 98bc e2d8 86bd
000001a0: 8712 b63d 0666 8abd 060f 883b 1e4e e2bd
000001b0: 9965 73bd 017f a93d 6b03 24bd a375 713d
000001c0: f447 243c 6ec7 67bd 5141 973d e644 313b
000001d0: efd6 b53c fc2d 1b3d 8640 c33c 9a67 9dbd
000001e0: cf1b 923c e4e0 d53c bc52 8a3b c361 123d
000001f0: 6938 f7bc 84e2 a53c 5968 24bd 7097 de3b
00000200: 3241 833d 8eee 72bc f954 123d f140 c2bc
00000210: f0d8 a8bb 3050 2f3d 6f6d 343c b20a e3bc
00000220: 8832 6aba 4b31 c7bc 02ca 353c 4125 c53c
00000230: ba98 033c 16bc 9ebc 9c3d 823d 8115 7abd
00000240: d5ef 95bd 311f fab9 3119 bebd e4f9 3d3d
00000250: 49aa 253d fec3 2a3c 279d 093c eb3c 5bbd
00000260: f236 963d 600c 39bd a0f1 6c3d c0b1 cc3c
00000270: ed75 a7bb 08d7 b8bc c4f6 1b3c d4f0 ac3d
00000280: b725 eaba 37fb a6bb 103d 713d 6b0a 0abd
00000290: 7a9e 8f3d a21f c7bc 49b1 183d 090e 8cbc
000002a0: 801c 363d f36e 6a3d 65cc ab3c f480 493d
000002b0: b466 57bd 4b44 c73c c428 473d aa1a e03d
000002c0: b4d4 02bd 30da 893c 8785 33bd 5a16 833d
000002d0: fe72 4dbc 484b 06bd a5cd 18bd 3528 033d
000002e0: 74dc 433d 5e60 593d ab5c f9bb 2487 543c
000002f0: 656f 12bd 08e8 053d 04ac 47bd 6fc8 753d
00000300: 5e9a 8fbd 3dc1 8dbc d0d6 58bd 27b4 40bc
00000310: e378 f2bb 1770 c6bc 02c9 08bd e8b4 283c
00000320: f6d1 98bb 0bf4 4abd d17b 7d3d f11b 5f3d
00000330: 44cb 623d 691d 9a3d fa31 973d ec8f 19bd
00000340: bac3 79bd 06c8 60bc a8ff 863d 9603 9fbc
00000350: faa0 4a3d 8bfb 43bd d8bf 053c 73ab 8bbd
00000360: 78a5 0dbd 345b 063d c40f c33c 9c7b 33bd
00000370: 432a d7bc 93f8 953d 9be7 1dba 32cc ad3c
00000380: 9a5c 0a3d a69b e2bc f0c2 8abb e4c7 2ebd
00000390: dc02 9bbd 5c96 6bbd e5c1 fa3c 6611 a6bd
000003a0: 05fb 123d 5d01 3d3d d4a2 493d 2d88 ccbc
000003b0: b65d cfbc d9cc bcbc 6290 803c ce48 363c
000003c0: cf40 bf39 50e5 c3bc 34c0 613c 2235 93bb
000003d0: c2d9 3fbc 0adc 53bd a71c 183d 1997 92bc
000003e0: 62a5 da3a 9111 7fbd e936 083c 5c1f fabc
000003f0: f935 23bd 7740 a53c 5481 3a3a c0fa 673d

model.6.bias f4 [128]
-0.012213121 -0.013649683 0.057418145 -0.021755297 0.030141657 0.021349253 0.024065383 -0.023373822
0.0624953 -0.039114784 -0.012412236 0.059258077 -0.022291575 0.030709807 -0.07189234 -0.044566832
-0.010230175 0.053861488 0.015238291 -0.030815514 -0.05911837 -0.06863157 0.060995404 0.064196095
0.06438523 0.07884388 0.0016968187 0.056636676 0.045404192 -0.06856556 0.02796554 0.014745839
-0.015793486 0.04383823 0.070978254 -0.017971277 -0.038689215 0.03838491 -0.05828479 -0.011722697
-0.016307818 -0.055803176 -0.00022155038 0.036402058 -0.03630827 0.02676518 0.08126899 0.01278821
0.037658308 -0.00018651308 -0.059710532 -0.0745016 -0.017663132 -0.05003748 0.029852988 0.038673144
0.070697315 -0.043122794 -0.00010375884 -0.0525656 0.011467663 0.001237107 -0.06966857 -0.072647735
-0.044810113 -0.036862288 -0.05168123 0.035403177 -0.033102524 -0.009722778 -0.023819542 -0.04672207
0.030202417 0.057872824 0.010567734 -0.07435569 0.06748295 -0.0708275 0.014280575 -0.033409655
-0.06187382 -0.04563625 -0.035264898 0.048757568 0.059962448 -0.00071262725 -0.060509685 0.019037232
-0.028745452 0.072043814 -0.0572494 0.024041185 -0.031283144 -0.06170358 -0.016070377 0.075341456
0.05343654 0.0012414823 0.088956274 0.024365975 0.021694228 0.055099893 -0.040622186 0.05344411
-0.015543003 0.036801443 0.018100288 -0.0021381879 -0.068985924 0.04091603 -0.03714054 -0.049949475
0.020061877 0.007881994 -0.06451155 0.03220357 -0.0762043 0.021281352 0.044012778 0.0027343489
0.043267615 0.057917874 0.01608442 -0.051282413 -0.04249909 -0.06837635 -0.07309619 0.03587874
00000000: 8b19 48bc eca2 5fbc 4a2f 6b3d 2a38 b2bc
00000010: a3eb f63c a1e4 ae3c c424 c53c 757a bfbc
00000020: 12fb 7f3d d336 20bd b15c 4bbc 99b8 723d
00000030: d29c b6bc 2293 fb3c 4b3c 93bd b68b 36bd
00000040: 779c 27bc dd9d 5c3d 06aa 793c d170 fcbc
00000050: 1b26 72bd b58e 8cbd 51d6 793d 3e79 833d
00000060: 67dc 833d e678 a13d ca67 de3a dcfb 673d
00000070: bff9 393d 1a6c 8cbd fd17 e53c 8898 713c
00000080: 5761 81bc b78f 333d 0c5d 913d 8038 93bc
00000090: 9578 1ebd 7f39 1d3d 08bc 6ebd 8e10 40bc
000000a0: f997 85bc df91 64bd fa4f 68b9 531a 153d
000000b0: fbb7 14bd a742 db3c 5b70 a63d a485 513c
000000c0: 993f 1a3d b992 43b9 0893 74bd 4b94 98bd
000000d0: 46b2 90bc 1af4 4cbd 418e f43c bb67 1e3d
000000e0: c1c9 903d 87a1 30bd 1a99 d9b8 074f 57bd
000000f0: dde2 3b3c 6c26 a23a 65ae 8ebd 56c8 94bd
00000100: cf8a 37bd e9fc 16bd b3af 53bd ec02 113d
00000110: 8396 07bd 494c 1fbc 3321 c3bc a45f 3fbd
00000120: 0f6b f73c 0e0c 6d3d 4a24 2d3c cc47 98bd
00000130: 8034 8a3d 020e 91bd 13f9 693c 90d8 08bd
00000140: 676f 7dbd 14ed 3abd ed71 10bd 04b6 473d
00000150: 2f9b 753d 9bcf 3aba 01d9 77bd f8f3 9b3c
00000160: 957b ebbc b58b 933d 597e 6abd 05f2 c43c
00000170: c122 00bd e5bc 7cbd 06a6 83bc 9f4c 9a3d
00000180: 46e0 5a3d 3cb9 a23a b52e b63d 279b c73c
00000190: 18b8 b13c 6db0 613d 7363 26bd 36e8 5a3d
000001a0: 14a8 7ebc 1cbd 163d 0e47 943c d720 0cbb
000001b0: 7e48 8dbd 9197 273d ae20 18bd d297 4cbd
000001c0: ce58 a43c 7b23 013c a21e 84bd e4e7 033d
000001d0: 0011 9cbd 3b56 ae3c be46 343d c332 333b
000001e0: 6239 313d 4b3b 6d3d 79c3 833c 820d 52bd
000001f0: 8713 2ebd e608 8cbd 75b3 95bd 96f5 123d

model.8.weight f4 [128, 128]
0.03936506 0.078432 -0.024172215 0.010245591 -0.049561676 0.025002249 -0.0012451324 -0.06007101
-0.004723735 -0.0625621 -0.050855163 -0.009240474 0.015910754 0.04319206 -0.064917676 -0.017336955
-0.050337486 -0.071344346 0.033675384 0.032420836 0.031183684 0.072313316 -0.0017382446 0.023781704
0.07746887 0.08114449 -0.08492475 0.016802605 0.06037177 -0.0021570437 0.07271608 -0.036718253
0.06383166 -0.009698378 0.08816345 -0.06979174 -0.05721434 -0.034436733 -0.057985064 -0.026522834
0.053596474 0.005867591 0.09518563 0.09330496 0.04247296 0.038469493 0.012607903 -0.06936208
0.07304392 -0.06892419 -0.003004152 0.015085803 0.01504598 0.053963 0.08875971 -0.03998201
0.03390611 0.021018954 -0.039361 0.054316618 -0.04173837 0.018156294 -0.06636463 0.05753684
-0.012629893 0.058961455 -0.014045804 -0.018715201 -0.0742114 0.019396521 -0.025358997 0.04375994
0.017804721 -0.024240801 0.02576288 -0.011823417 0.0340241 0.027190275 -0.018257177 0.06509218
-0.04673638 0.076839514 0.040225558 -0.0057949773 0.025632614 -0.046085157 -0.07768822 0.05164598
0.039546054 -0.054811276 -0.039592326 -0.032547485 -0.082508735 -0.036083397 0.005582241 0.08502935
0.041561637 -0.021432512 -0.05202465 0.07178861 -0.058545962 0.0044953614 -0.085508004 0.03660769
-0.009152877 0.025598349 0.07540473 0.046127804 0.03856002 -0.018030733 -0.063123345 -0.041063894
0.024639279 0.032248918 -0.021555366 -0.02965332 -0.044671983 0.023297133 0.0647257 -0.0013594901
0.08152893 0.07521084 0.053132508 -0.006606878 -0.048021324 0.026286593 -0.07824649 0.027076948
0.0395864 -0.017216517 0.009461853 0.022231534 0.043441605 0.050584044 -0.08690101 -0.05272606
0.011360306 0.08423313 -0.017946096 0.05537988 -0.038570557 0.02884761 -0.023861812 -0.053496297
-0.02762415 0.034822468 -0.026515393 -0.03236658 0.07112807 -0.01307574 -0.023840278 -0.039255645
-0.06751256 0.06339475 -0.059963956 -0.08085499 0.07015659 0.046934243 -0.010593421 -0.06956393
-0.010985809 0.015548357 -0.098463275 0.011780228 -0.043776102 0.008589467 0.05963492 -0.0046161967
0.07839412 -0.053625643 0.0148325125 0.05097842 0.015937962 -0.034868423 -0.032131556 0.025631974
0.03864852 -0.013515315 0.08098356 -0.05848388 -0.08106371 0.08276185 0.030326813 0.012567953
-0.07108084 0.057520613 0.05032297 -0.049423534 -0.06700047 -0.084555395 -0.016962351 -0.03903186
-0.057087783 0.022640722 -0.052372534 0.036099494 0.0540931 0.015196737 0.04084955 0.015887933
0.01642147 0.03433581 -0.07972286 -0.01721513 -0.013831125 0.07695607 0.06528375 0.07171988
0.050407637 0.05233716 -0.031348497 -0.0016801385 0.039331373 -0.0069043324 0.073794134 0.0052784183
0.02499777 -0.032410458 0.001408836 -0.010803045 -0.082467996 -0.072985575 -0.043675493 0.07546085
0.029597817 -0.016422711 -0.0338715 0.009461994 -0.043686684 -0.016217703 0.0461364 -0.06573174
0.0460647 0.018929958 0.078735486 -0.011502369 0.05170222 -0.04493438 -0.094337165 0.012504353
-0.07622273 -0.005612913 0.039804287 -0.066759534 0.020236047 -0.0062573883 -0.0348656 -0.077907674
-0.07009501 0.04639607 0.037893444 -0.011684988 -0.08828216 -0.03184005 0.0741853 -0.033436436
00000000: 423d 213d f5a0 a03d cf04 c6bc 20dd 273c
00000010: 2f01 4bbd 84d1 cc3c b633 a3ba 050d 76bd
00000020: 90c9 9abb 8f20 80bd 814d 50bd 5b65 17bc
00000030: 4557 823c 28ea 303d 8ff3 84bd 3b06 8ebc
00000040: ae2e 4ebd fc1c 92bd 33ef 093d b6cb 043d
00000050: ed74 ff3c 0119 943d cfd5 e3ba d9d1 c23c
00000060: 00a8 9e3d 152f a63d 07ed adbd 9ea5 893c
00000070: 6448 773d 305d 0dbb 2bec 943d e165 16bd
00000080: 2cba 823d f2e5 1ebc 0a8f b43d f9ee 8ebd
00000090: 9559 6abd 880d 0dbd bf81 6dbd 6a46 d9bc
000000a0: fa87 5b3d ec44 c03b aff0 c23d ac16 bf3d
000000b0: 20f8 2d3d 3092 1d3d 6191 4e3c b50d 8ebd
000000c0: 0d98 953d 2028 8dbd 4fe1 44bb 722a 773c
000000d0: 6a83 763c 4f08 5d3d a7c7 b53d 2dc4 23bd
000000e0: 22e1 0a3d f12f ac3c 0039 21bd 1a7b 5e3d
000000f0: daf5 2abd 82bc 943c 2eea 87bd c0ab 6b3d
00000100: 9ced 4ebc 9181 713d 5f20 66bc 9f50 99bc
00000110: 25fc 97bd 74e5 9e3c acbd cfbc 9f3d 333d
00000120: 35db 913c a594 c6bc ad0c d33c 01b7 41bc
00000130: db5c 0b3d 24be de3c 1390 95bc 0d4f 853d
00000140: a56e 3fbd 095e 9d3d 8ec3 243d cbe3 bdbb
00000150: 7dfb d13c cac3 3cbd 001b 9fbd bc8a 533d
00000160: 0bfb 213d ca81 60bd 902b 22bd 8350 05bd
00000170: 57fa a8bd 2fcc 13bd 3beb b63b de23 ae3d
00000180: 893c 2a3d 3c93 afbc cd17 55bd e805 933d
00000190: e4cd 6fbd d34d 933b d21e afbd f2f1 153d
000001a0: f3f5 15bc a1b3 d13c cc6d 9a3d 82f0 3c3d
000001b0: 1df1 1d3d 30b5 93bc d046 81bd 9d32 28bd
000001c0: 50d8 c93c 7117 043d e194 b0bc 85eb f2bc
000001d0: f8f9 36bd a1d9 be3c e88e 843d eb30 b2ba
000001e0: a4f8 a63d 2408 9a3d 79a1 593d 827e d8bb
000001f0: 02b2 44bd fb56 d73c b23f a0bd 7ad0 dd3c
00000200: 5925 223d a709 8dbc e305 1b3c e81e b63c
00000210: d3ef 313d 3731 4f3d 28f9 b1bd 48f7 57bd
00000220: 9420 3a3c 6b82 ac3d b103 93bc 03d6 623d
00000230: 29fc 1dbd d351 ec3c d979 c3bc ef1e 5bbd
00000240: 0b4c e2bc 01a2 0e3d cf36 d9bc d292 04bd
00000250: 98ab 913d a13b 56bc b04c c3bc 87ca 20bd
00000260: 0644 8abd 1bd5 813d c49c 75bd 4d97 a5bd
00000270: 42ae 8f3d 1f3e 403d 0790 2dbc 8977 8ebd
00000280: d3fd 33bc 89be 7e3c 1da7 c9bd db01 413c
00000290: 924e 33bd d6ba 0c3c bf43 743d 7743 97bb
000002a0: 198d a03d 90a6 5bbd 1104 733c bfce 503d
000002b0: 5490 823c 31d2 0ebd 619c 03bd 25fa d13c
000002c0: e94d 1e3d 576f 5dbc b5da a53d cb8c 6fbd
000002d0: bb04 a6bd 0b7f a93d f06f f83c d1e9 4d3c
000002e0: d592 91bd bc9a 6b3d 751f 4e3d 5570 4abd
000002f0: 8b37 89bd 612b adbd a1f4 8abc dfdf 1fbd
00000300: e1d4 69bd 0979 b93c 9584 56bd 10dd 133d
00000310: ba90 5d3d bcfb 783c dc51 273d 6927 823c
00000320: 5286 863c b5a3 0c3d bd45 a3bd bf06 8dbc
00000330: f19b 62bc 259b 9d3d 7db3 853d dfe1 923d
00000340: 3d78 4e3d 7d5f 563d 4867 00bd 1838 dcba
00000350: ef19 213d bd3d e2bb 6121 973d 95f6 ac3b
00000360: 20c8 cc3c d4c0 04bd b1a8 b83a 41ff 30bc
00000370: fbe4 a8bd 7679 95bd 13e5 32bd 388b 9a3d
00000380: 1f77 f23c ec88 86bc d8bc 0abd 7b06 1b3c
00000390: cff0 32bd fdda 84bc 86f9 3c3d 5d9e 86bd
000003a0: 57ae 3c3d 0013 9b3c 1240 a13d 6f74 3cbc
000003b0: b5c5 533d 1d0d 38bd d833 c1bd 0fdf 4c3c
000003c0: aa1a 9cbd 87ec b7bb d209 233d 39b9 88bd
000003d0: 11c6 a53c c70a cdbb 3bcf 0ebd 0f8e 9fbd
000003e0: f98d 8fbd ce09 3e3d 2836 1b3d 6472 3fbc
000003f0: 47cd b4bd b66a 02bd 76ee 973d a5f4 08bd

model.8.bias f4 [128]
-0.0707387 0.050995424 -0.012263653 -0.04590809 -0.015538279 -0.033939857 -0.050568365 0.07963827
-0.047024567 0.0033091544 0.042569846 -0.029975714 0.039944526 -0.050794605 0.017889222 -0.0076752533
-0.0296205 -0.029600406 -0.050578482 0.038509626 -0.04379544 0.07966741 0.057816517 -0.01433426
-0.010520017 -0.018517653 0.026107628 -0.06160494 0.047018345 -0.007926938 -0.003637009 -0.030786155
-0.031027857 -0.04286703 0.047564924 0.029425612 0.050359204 -0.030132828 -0.029262949 -0.0057519483
-0.05342482 0.07429224 0.0019824973 -0.070361 0.040132917 -0.038330473 -0.03294654 0.013366635
0.024404138 -0.026157996 -0.013668899 -0.02036409 -0.019038983 0.0066176895 0.02565584 0.00965071
0.045999233 -0.0019121959 0.0117460145 -0.055459067 0.012897533 0.05535638 0.0211964 -0.00059218757
-0.05593803 0.054714274 -0.04351324 0.042034045 -0.052137133 -0.044469245 -0.014824994 -0.010670467
0.008540565 -0.03746128 -0.023308804 0.014200583 0.06580859 -0.033146985 -0.053150725 0.045910627
0.042808298 -0.018072847 -0.045123648 -0.061642647 0.047135506 -0.0049091345 0.045142382 -0.074683234
0.050689317 0.06050808 0.013628057 -0.042931136 -0.04725409 0.020620264 0.062485002 -0.039579596
-0.02192826 0.060246065 -0.030694198 0.035417546 0.056247745 -0.045695744 0.01411769 0.04456494
0.06257265 0.03925022 -0.03162663 0.025847215 0.033037405 0.01719258 -0.05856121 0.042431876
0.032939184 0.029940048 0.023740979 -0.01141213 0.024382923 0.0048053246 0.0134216305 -0.007986837
0.018345114 0.06054958 -0.06791421 0.0073472806 0.00025446 -0.064697705 0.039856832 0.028423848
00000000: 74df 90bd 94e0 503d 7ded 48bc 1f0a 3cbd
00000010: 4494 7ebc 8504 0bbd c620 4fbd 6419 a33d
00000020: d59c 40bd 66de 583b b85d 2e3d a18f f5bc
00000030: df9c 233d 010e 50bd 6b8c 923c b180 fbbb
00000040: b1a6 f2bc 8d7c f2bc 622b 4fbd 45bc 1d3d
00000050: d962 33bd ab28 a33d 03d1 6c3d 3eda 6abc
00000060: 265c 2cbc 55b2 97bc aadf d53c 7655 7cbd
00000070: 4f96 403d fddf 01bc e35a 6ebb 3f33 fcbc
00000080: 222e febc 5795 2fbd 70d3 423d fb0d f13c
00000090: 7445 4e3d 1fd9 f6bc dab8 efbc d77a bcbb
000000a0: fcd3 5abd 8826 983d c9ec 013b 6e19 90bd
000000b0: 6a62 243d 6a00 1dbd f3f2 06bd bbff 5a3c
000000c0: 30eb c73c 4b49 d6bc 85f3 5fbc 98d2 a6bc
000000d0: a4f7 9bbc 34d9 d83b 322c d23c 031e 1e3c
000000e0: b169 3c3d a6a2 faba 5b72 403c 0c29 63bd
000000f0: 2d50 533c 5fbd 623d 13a4 ad3c 093d 1bba
00000100: 471f 65bd 131c 603d f03a 32bd e42b 2c3d
00000110: bf8d 55bd 6225 36bd 88e4 72bc 2fd3 2ebc
00000120: baed 0b3c 0071 19bd 1bf2 bebc 90a9 683c
00000130: a7c6 863d 22c5 07bd 93b4 59bd c80c 3c3d
00000140: c157 2f3d 820d 94bc 93d3 38bd 007d 7cbd
00000150: 2911 413d cedc a0bb 38e7 383d 86f3 98bd
00000160: 9a9f 4f3d 52d7 773d 3748 5f3c 8fd8 2fbd
00000170: 818d 41bd d4eb a83c 46f0 7f3d 371e 22bd
00000180: e5a2 b3bc 94c4 763d 6672 fbbc fd11 113d
00000190: 0964 663d 762b 3bbd e24d 673c ba89 363d
000001a0: 1726 803d d7c4 203d ed8a 01bd 8abd d33c
000001b0: 3b52 073d 74d7 8c3c e1dd 6fbd 0ccd 2d3d
000001c0: 3deb 063d d544 f53c 717c c23c f1f9 3abc
000001d0: b2be c73c fc75 9d3b 66e6 5b3c 39db 02bc
000001e0: 7e48 963c d602 783d 9b16 8bbd 75c1 f03b
000001f0: 0b69 8539 3b80 84bd eb40 233d 21d9 e83c
