experiments/dispersion_pinn.pth (torch, 940940 bytes, 35 tensors)

model.0.weight f4 [128, 1]
000000 c8 29 10 3f 54 6e 63 3f ed 48 eb 3c b8 17 ad bd
       0.56313753 0.8884022 0.028721297 -0.084517896
000010 a7 68 41 3f fb 9c f8 be 8d b0 31 be ab b5 ef bc
       0.7555031 -0.48557267 -0.17352505 -0.02926143
000020 64 e1 a2 be 2d de 29 bf 9e a9 d7 be 78 e7 7d bf
       -0.31812584 -0.6635464 -0.42121595 -0.9918132
000030 b3 6d 07 3e f5 12 2a bf 46 eb 29 bd ff ba bd 3e
       0.1322544 -0.66435176 -0.04148414 0.3705673
000040 71 cf 6d 3c f5 e7 54 be 04 1a 50 bf bd 78 cc be
       0.01451479 -0.2079161 -0.81289697 -0.39935866
000050 48 71 8c 3e 23 cc 0b bf 74 2b 34 bf 6d 79 1a bf
       0.27430177 -0.5460836 -0.70378804 -0.6034153
000060 ef 40 70 3f bb 0f 55 bf 6e c1 5e 3f 0d 58 9e 3e
       0.9384908 -0.8322713 0.870139 0.30926552
000070 9a 03 fb be 01 6a da bc bf fb 57 3e 49 e4 02 bf
       -0.49026185 -0.026661875 0.21092127 -0.51129586
000080 b7 7b 31 3e 02 06 a9 3e 78 fd 55 bf 61 61 22 3f
       0.1733235 0.33012396 -0.8358989 0.6342984
000090 8f 4f c2 3e 48 b7 74 3f 16 fe 86 be fb 69 45 3f
       0.37951323 0.95592165 -0.26365727 0.7711484
0000a0 70 24 9e 3e f7 25 31 3f dd 26 b8 be 75 7a 89 be
       0.30887175 0.69198555 -0.3596715 -0.2685124
0000b0 f2 24 93 3e 3c db 40 3d 34 08 d4 3e f5 27 cd be
       0.28739125 0.04708408 0.41412508 -0.40069547
0000c0 62 01 fe be e2 f3 39 be b9 03 58 3d ec 17 51 be
       -0.4961043 -0.1815944 0.052737925 -0.20419282
0000d0 03 50 9c bd 28 e7 8c 3e 47 3c 7c bf 59 45 da 3d
       -0.076324485 0.27520108 -0.98529476 0.10657758
0000e0 30 c5 99 3e f7 72 d7 be 46 c5 f9 be 95 70 3e 3d
       0.30033255 -0.420799 -0.4878332 0.046494085
0000f0 87 45 80 be 4e bb 32 bf ad b4 07 bd fa 15 e5 3e
       -0.25053045 -0.69817054 -0.03313129 0.4474333
000100 18 2f 05 bf 9d c3 17 be 7c f5 ca 3e 15 41 48 bf
       -0.52024984 -0.14820714 0.39640415 -0.7822431
000110 bd 30 74 bf ef a3 d2 3e e0 01 71 3f fe 53 70 be
       -0.9538687 0.41140696 0.94143486 -0.2346954
000120 71 82 af 3e e5 ee 90 be 0b 8d 24 3f 99 7c 85 bc
       0.34279206 -0.28307262 0.64277714 -0.016294764
000130 bd 2f 58 3e 14 2a 5c bd f1 9c 67 bf ed f6 24 3e
       0.2111196 -0.053751066 -0.9047385 0.1610982
000140 12 47 a6 be 09 5e df be 9d de 27 3f a9 75 1a 3f
       -0.32476097 -0.4362643 0.65574056 0.60335785
000150 a8 9d ad be 2f 4f 16 be ea 62 20 bf 39 b4 44 3e
       -0.33909345 -0.14678644 -0.6265093 0.19209374
000160 cc 9f 9b 3e d4 8f 21 3f b6 a2 6a 3f 55 52 dd bc
       0.30395353 0.6311009 0.9165453 -0.027016798
000170 37 eb b0 bc 08 e3 3b bf c5 40 ec 3e 2d 92 b8 bd
       -0.021596534 -0.733933 0.46143165 -0.09012256
000180 df af 7c 3e c9 1c 46 3e 77 22 10 bf ad 17 3b 3e
       0.24676464 0.19346918 -0.5630259 0.1827075
000190 e9 38 2b bf d1 87 1a bf cd c4 9e be 90 02 72 3f
       -0.66883713 -0.6036349 -0.31009522 0.9453516
0001a0 3e 1c 99 be 84 9b 5d 3e 71 af b0 be 4c f9 3a bf
       -0.2990436 0.21641356 -0.3450885 -0.73036647
0001b0 d6 2f 55 bf 05 86 0d 3f 56 88 4e bf db 7b 01 bf
       -0.83276117 0.5528262 -0.8067678 -0.50579613
0001c0 61 57 bc 3e 2b 12 34 3f 65 91 ba be 00 30 a9 be
       0.36785415 0.7034022 -0.36439052 -0.33044434
0001d0 32 b1 a8 be 57 b0 5b bf 11 27 65 be c1 54 1f bf
       -0.3294769 -0.8581595 -0.22378184 -0.622387
0001e0 94 be 64 bf ea 71 72 bf 72 3e 5b 3e 6f 7a 3b bf
       -0.893533 -0.9470507 0.2141054 -0.73233694
0001f0 8c 62 e2 be cb 65 61 bf 79 5a 75 3f 21 13 6a bf
       -0.4421581 -0.8804595 0.95841175 -0.9143544

model.0.bias f4 [128]
000000 e6 0f 72 3f eb 9b bb 3e 59 8b 81 3e b3 3d 77 bf
       0.9455551 0.36642393 0.25301626 -0.9657852
000010 a2 47 cb be 11 67 e4 bd d1 b7 eb be 71 7e 21 be
       -0.3970309 -0.11152471 -0.46038678 -0.1577089
000020 10 6d b8 3e 22 e2 4f 3f c5 ad af 3d 28 c9 39 3e
       0.36020708 0.81204426 0.08578066 0.18143141
000030 6f b1 09 bf 28 16 f8 3e d6 39 0b bd 7f bb dd bd
       -0.5378637 0.48454404 -0.033990704 -0.10826778
000040 f0 37 7f be 4a 41 6f be c5 b0 09 3f e4 70 1e bf
       -0.24923682 -0.2336475 0.53785354 -0.6189101
000050 7a 72 6a 3f 50 a8 59 3f 3d 46 1b 3f b3 ae ff 3d
       0.9158093 0.8502245 0.6065405 0.12484493
000060 f0 a0 7a 3f da 13 3d 3e 22 ff 21 3f 27 f2 4f bf
       0.9790182 0.18464604 0.63279927 -0.8122887
000070 3c 4d 66 bf cd 01 3d be f9 bf 54 bf c4 c8 86 3e
       -0.899616 -0.18457718 -0.8310543 0.26325047
000080 df 48 c1 be 67 e7 1f bf a1 00 6f 3d 0a 62 b0 3e
       -0.3775091 -0.62462467 0.05835021 0.34449798
000090 60 70 35 3f f7 67 e1 bd 17 39 ac be db 58 4d bf
       0.70874596 -0.11006158 -0.33637306 -0.8021371
0000a0 23 16 52 3f 8f fd 98 be b9 a0 30 3f ab f0 36 bf
       0.8206503 -0.2988095 0.68995243 -0.7146098
0000b0 f0 2f 84 be a9 32 56 3f 7a 03 9e bd 22 84 c6 be
       -0.25817823 0.8367105 -0.07715507 -0.38772684
0000c0 82 db 9e be 0b fa 41 bf aa f3 7a bf 74 76 f4 3e
       -0.31026846 -0.7577216 -0.9802805 0.47746623
0000d0 b8 71 16 3f fd 9d 15 3f 8e 82 2c be 70 7e b8 be
       0.5876727 0.58444196 -0.16846678 -0.36033964
0000e0 3d d8 2a be 10 a2 7a bf ae 29 0e bd 01 af 74 3f
       -0.16684051 -0.9790354 -0.034707718 0.95579535
0000f0 ee 2c 3e 3f 58 e8 66 3f a2 06 e0 be 54 72 48 3f
       0.7428731 0.9019828 -0.4375506 0.7829945
000100 7e ac 5c 3f f6 75 82 3e 5c 14 d5 3e d9 dc 63 be
       0.862007 0.25480622 0.41617095 -0.22252215
000110 08 cb 0e 3d f5 04 5e 3f cc f7 3b 3f 45 44 8c 3e
       0.034861594 0.86726314 0.73424983 0.27395836
000120 bf 28 91 be cf 8c d6 3e c7 40 32 3f de c8 ca be
       -0.283514 0.41904303 0.6963009 -0.39606375
000130 7e af 7a 3f 8d 67 5f 3f 94 49 77 bf 7a 35 3c 3e
       0.9792403 0.8726738 -0.96596646 0.18379775
000140 e1 be 29 3f de 60 41 bf 07 f6 d8 bd ac c5 8f be
       0.66306883 -0.7553843 -0.10593801 -0.280805
000150 b2 c3 28 3f 5f 18 3e bf a5 e8 86 3e 4c d5 91 3e
       0.6592361 -0.7425594 0.2634937 0.28483045
000160 d6 f2 e3 3e 8f 17 c2 3e 76 49 13 bf 22 7f 3b 3f
       0.44521207 0.379086 -0.5753397 0.73240864
000170 26 24 b9 3e cc 30 7b bf a0 dc 6e bc eb ec 25 3f
       0.36160392 -0.98121333 -0.014578968 0.64814633
000180 a0 bb 54 3f 9c 83 3a 3f 64 31 97 3e 38 f4 78 3e
       0.83098793 0.7285707 0.2952987 0.24311912
000190 0e 17 61 bf 1b 4d 6c 3f 89 a5 00 bf 5e 15 31 bf
       -0.87925804 0.92305154 -0.50252587 -0.6917323
0001a0 9f 6d 46 bf 0f e0 55 bf 7c a1 2a 3e 8e e4 63 3f
       -0.7751102 -0.8354501 0.16663164 0.8902062
0001b0 6a a6 41 3d ae 65 a9 bd d7 fe cb be 34 9b 75 3f
       0.047277845 -0.08271347 -0.39842865 0.95939946
0001c0 f0 f7 f3 3e 07 e9 58 bf ab 91 42 bf 40 2f 3c 3f
       0.476501 -0.8473057 -0.7600352 0.735096
0001d0 a9 b6 aa 3e 0b c6 4e bf 52 45 40 bf ab 98 00 bf
       0.33342484 -0.8077094 -0.75105774 -0.5023295
0001e0 95 68 6a bf 10 5c 33 bf b9 fd 13 bf 6f 59 84 be
       -0.9156583 -0.7006235 -0.57809025 -0.25849482
0001f0 48 b2 ca 3e e9 99 6a 3f 4e 68 36 3f 00 6d 61 bf
       0.39589143 0.916411 0.71252906 -0.88056946

model.2.weight f4 [128, 128]
000000 7e ad 08 bd 39 d1 0d 3d 8f 3a 8d 3d f1 f4 86 3d
       -0.03336858 0.03462336 0.06895935 0.065896876
000010 92 17 4e bd 51 2b 45 3d fa 5c 7e 3c b7 a6 ee 3c
       -0.050315447 0.048137013 0.015525097 0.02913223
000020 0e 63 8e 3d 47 89 9c bd 64 25 68 3d 0a 93 a9 bd
       0.06952487 -0.07643371 0.056676283 -0.082799986
000030 fe c5 52 3d bf b7 86 3d 9b 3e 75 bc fd 97 8d 3d
       0.05145835 0.065780155 -0.01496854 0.06913755
000040 25 ad 8b bd 8b da b7 3c d3 c9 3f 3d 4f 49 9b bd
       -0.06820134 0.022443077 0.046823334 -0.07582342
000050 c2 8a 87 3d 69 38 b1 bd a8 23 88 3d 74 a9 81 3c
       0.06618263 -0.086533375 0.06647426 0.015827872
000060 a1 71 af bc bf fc a9 3d 30 b6 95 3c 67 20 00 bd
       -0.021416487 0.083001606 0.01827535 -0.0312809
000070 9a bb 25 3d f3 2f 89 bd 00 d5 a9 3c 36 c9 e9 3c
       0.040462114 -0.06698599 0.02073145 0.028538328
000080 1b a5 92 3c af 29 73 bd ea e0 ac 3c 11 91 0a 3d
       0.017900994 -0.059365924 0.021103341 0.033829752
000090 d1 23 8a bd ad 63 11 3d 0f b1 aa 3d 4c 9d da 3c
       -0.06745113 0.03549545 0.083345525 0.026686333
0000a0 6d d7 75 3d a4 0e d8 3b 02 f7 7d 3d bf 77 09 bb
       0.0600199 0.006593542 0.062003143 -0.0020975915
0000b0 2e 96 2c bc 30 d9 d1 3c 54 b4 91 3d f4 2b 18 bd
       -0.0105338525 0.025616258 0.07114473 -0.037151292
0000c0 0a 3b 4c bd 03 5d 24 3d 24 47 1a bd 4c 77 2f bd
       -0.04986099 0.040127765 -0.0376655 -0.04283838
0000d0 72 f2 52 bb b8 db 7b bc 2c 79 cb 3c 95 d8 01 bb
       -0.0032187966 -0.015372209 0.024838053 -0.001981293
0000e0 65 bf a6 3d 32 e3 8c 3d e7 7e 01 bd e0 bf b8 3a
       0.08141974 0.068792716 -0.031615164 0.0014095269
0000f0 35 22 8f 3d d5 31 c7 bc bd 0d 89 bc bd fb 92 bc
       0.06988946 -0.024315754 -0.016730184 -0.017942304
000100 28 6f 8c 3d 05 f5 9e 3d 57 ef 92 3a 61 b7 81 3d
       0.06857139 0.077615775 0.0011210245 0.06333805
000110 01 0f a6 3d 99 31 a9 bd fe d9 20 bd d5 e5 5c 3d
       0.081083305 -0.08261413 -0.039270394 0.053930122
000120 2b a9 49 bc 3e 46 9c 3d d7 e8 65 bd 1c 74 77 3d
       -0.012308399 0.07630585 -0.056130257 0.060413465
000130 35 f7 66 3d 15 6e dc bc e1 ee 83 bb 57 45 ae bd
       0.0563881 -0.02690796 -0.0040262793 -0.08509319
000140 cc ce 5f 3d b8 7d 6d 3d 91 08 e2 bc 36 db 41 bd
       0.054640576 0.057981223 -0.027591975 -0.047328196
000150 ab 52 00 3b c4 b9 83 bd 2a 49 6e bd 8b fd 38 bd
       0.0019580524 -0.06431916 -0.058175243 -0.045163672
000160 8d a6 14 3d 81 19 a8 bc 26 5d 8e bd 0a e0 97 bd
       0.036291648 -0.020519974 -0.069513604 -0.07415779
000170 d4 33 62 bd 2a e3 4d bd f6 e9 17 3c 65 f1 12 3d
       -0.05522521 -0.05026547 0.009272089 0.035874743
000180 f5 4c b5 bd e7 83 aa 3d 6e 4e 96 bc 1e f1 a9 bd
       -0.08852569 0.083259396 -0.018347945 -0.082979426
000190 ff ec 53 bd 57 7e 1a bd da 19 71 bc bf 63 44 ba
       -0.05173969 -0.037718143 -0.014715636 -0.000749167
0001a0 35 80 b5 3d d4 03 3c 3d 56 93 ad 3c 01 c3 9b 3d
       0.08862344 0.04590209 0.02118842 0.076055534
0001b0 12 e9 35 3d 50 98 39 3d fe cd 02 3d 46 39 34 bd
       0.044411726 0.045311272 0.03193473 -0.043999933
0001c0 25 e6 88 3d 7e 28 ab bd bb ea 74 bd 28 af ae 3d
       0.066845216 -0.08357333 -0.05979417 0.08529502
0001d0 e0 0e 4e bd e8 9f b4 3d 27 c1 17 bd df d5 0c 3d
       -0.050307155 0.08819562 -0.03704944 0.03438365
0001e0 05 48 84 bd 8f c2 89 bd 52 5e 2e bd 11 4d ae 3d
       -0.06459049 -0.06726562 -0.04257042 0.08510793
0001f0 a2 d3 a9 bd 83 e6 b5 bc 1b f9 56 bb 3b cd a4 bc
       -0.08292319 -0.022204643 -0.0032802287 -0.020117393
000200 7b ad 20 3d 86 be 30 3d 52 fc 79 3c e3 09 58 bd
       0.039227944 0.043150447 0.015257912 -0.052743804
000210 1a f4 99 3c cf 58 a5 3d ba 5f 4e 3d 97 49 8a 3d
       0.018793155 0.080735795 0.05038426 0.067523174
000220 87 aa ad 3b 92 5b 67 bd 1b 7a 9d 3b e7 f1 95 bd
       0.0052998695 -0.056483813 0.004805816 -0.0732153
000230 1f 48 e8 3c 8c 9a b6 3d 71 1c 38 3d ed 39 d1 bc
       0.028354703 0.08916196 0.044949 -0.025540316
000240 9d d5 78 3d 94 e4 8f 3d 6a e7 0f bd 0f a9 4a bd
       0.060750592 0.0702602 -0.035132803 -0.049477633
000250 3a b0 aa bc 69 e7 94 bc 93 f6 3b bd 66 c1 8c 3d
       -0.020835984 -0.018176751 -0.04588945 0.06872825
000260 04 32 56 3a e1 aa 84 3d c3 63 8e 3c f4 f1 f7 bb
       0.0008170905 0.06477905 0.017381554 -0.007566685
000270 29 3b d9 3c 36 63 9a bd ee 4d c9 bb cf 76 97 bd
       0.026517468 -0.07538454 -0.006143323 -0.07395708
000280 6e 09 74 3b 28 6f b1 3b 69 45 97 bd 7c e5 26 bd
       0.0037237066 0.005414862 -0.07386286 -0.040746197
000290 8a 08 16 bd 5c f2 95 bd 1f c2 0f bd 8c 91 67 3d
       -0.036629237 -0.07321617 -0.035097238 0.05653529
0002a0 24 60 54 bd 11 8f 8a 3d 3a e5 4d 3d 93 89 87 bd
       -0.0518495 0.06765569 0.050267436 -0.06618037
0002b0 ff 13 19 bc f6 7a 65 3d 25 a3 94 bc 64 5d 88 bd
       -0.009343146 0.056025468 -0.0181442 -0.06658438
0002c0 06 01 a6 3c fc ff 9f 3d ac d9 87 3c 91 a3 a6 bd
       0.02026416 0.07812497 0.016583286 -0.081366666
0002d0 c9 71 70 bd 4e ad 34 3c e3 af 80 3d 86 18 67 3d
       -0.058702264 0.011027647 0.06283548 0.05641987
0002e0 47 94 3f 3d 20 d0 88 bd 02 38 ec 3c 0e ad fe 3c
       0.046772268 -0.06680322 0.0288353 0.031088378
0002f0 c1 1b 95 3c f1 98 92 3b 68 de 9d bd 65 42 f5 bc
       0.01820171 0.0044737984 -0.07708436 -0.029938886
000300 fb 8c 95 3d 87 0d 38 3d f2 47 ba 3d fa 53 71 3d
       0.073022805 0.044934776 0.09095754 0.058917977
000310 e8 5c 40 3d 10 dc 5b bd 1a db 3a bd 4a ea 17 3d
       0.046963602 -0.053676665 -0.045619108 0.03708867
000320 20 69 8c 3c 6d 1b 4a bc cc 05 62 bc e5 31 06 3d
       0.017139971 -0.01233564 -0.013795327 0.032762427
000330 37 36 c5 bc 2b a2 a8 3c 48 fb 99 3c f8 dc 8d bc
       -0.024073703 0.02058514 0.018796578 -0.01731728
000340 31 db ac 3c 37 04 87 3d fd 90 79 bd d2 17 91 bd
       0.021100612 0.06592601 -0.060929287 -0.070846215
000350 d1 ad 2c bc 4d c7 8b 3c 25 d6 82 3c 19 7b 72 3d
       -0.010539488 0.017062807 0.015971253 0.059199426
000360 13 47 eb bc d0 7c 4d bd 8e 00 92 3d e3 4c 23 3d
       -0.028720414 -0.05016786 0.07129012 0.039868247
000370 52 7b d4 3c 03 dd b8 bd c1 53 a9 3d 9d f6 a6 3c
       0.02593771 -0.0902653 0.08267928 0.020381266
000380 28 cb 3f 3d 9e 6a 70 bd 2d ce 82 bc 87 2b d1 3a
       0.046824604 -0.058695428 -0.015967453 0.0015958407
000390 d3 c0 a5 bd f4 91 8b bc d2 e4 a1 3d 6c ec 90 3d
       -0.08093419 -0.01703737 0.07904972 0.07076344
0003a0 0a fa a0 ba 93 1f af bd bc ad 92 3d db 9e 98 3d
       -0.0012281549 -0.08550944 0.071620435 0.07452174
0003b0 d4 9a 44 bd be 60 07 3d 9d 00 b5 bd c2 20 29 3c
       -0.047999218 0.033051245 -0.088380076 0.0103227515
0003c0 b2 dc 14 bd 6e 96 54 3c f9 de 9e 39 9c cd 55 3d
       -0.036343284 0.012975318 0.00030302236 0.052198038
0003d0 e6 dc 68 bd a9 f1 f4 bc 58 fb 5c bc b7 7b 96 bd
       -0.05685129 -0.029900389 -0.013487659 -0.073478155
0003e0 1e 09 94 3d 25 1b a1 bc 11 b1 80 bc 35 83 18 bd
       0.072283015 -0.019666264 -0.015709432 -0.037234504
0003f0 b7 ef 83 3d 1a b1 8c 3d d8 af 6b bc f2 36 01 3d
       0.06442206 0.06869717 -0.014385186 0.03154654

model.2.bias f4 [128]
000000 de 4a a1 3d 44 3b 64 bd 2b 51 51 bd 26 0a 7d 3d
       0.07875608 -0.055720583 -0.0511028 0.061777256
000010 c7 d0 82 3c 59 f4 a6 3c 44 e8 ab 3d 2a 5c b2 3d
       0.015968693 0.020380186 0.083939105 0.08708985
000020 18 6d 87 bc 76 83 a4 bd e7 e2 22 bd d2 3a f7 bc
       -0.016531512 -0.08032887 -0.039767172 -0.030179415
000030 b9 d8 f2 bc 77 d5 84 3c 50 6b 4e 3d 5a cc 1d bd
       -0.029644357 0.01621507 0.05039531 -0.038524963
000040 9c 23 40 bc 4e 4e 62 3d 17 7e 8a 3d 11 1b 39 bd
       -0.01172724 0.05525046 0.06762331 -0.04519183
000050 8f c1 7d bd 98 a6 8d bd ad 9b d5 3c 9e 29 56 bc
       -0.06195217 -0.06916541 0.026075209 -0.013071446
000060 24 41 6b 3d 48 ab 2a 3c 97 da 78 bd 4c 36 32 3d
       0.05743517 0.010416813 -0.06075534 0.043508813
000070 1f a7 67 3c ba 82 5a 3d 6d 2d 53 3d a3 0f 8e 3a
       0.014138966 0.053347327 0.051556993 0.00108384
000080 4e a9 88 bd 19 a6 18 bd d0 73 60 bd 8e f9 97 bd
       -0.06672917 -0.037267778 -0.054797947 -0.07420646
000090 ed ea 84 bd f9 f5 f4 3c ee d3 a5 3d 9d 99 69 bb
       -0.06490121 0.029902445 0.08097063 -0.003564454
0000a0 29 57 5a 3d 3b ef 3b 3d 05 d3 3d bd 6f ab 9b bd
       0.05330578 0.045882445 -0.046343822 -0.07601058
0000b0 66 e8 b6 3d e1 94 ee bc 70 15 e4 3a bc 85 14 bc
       0.08931045 -0.029123725 0.0017401408 -0.009065088
0000c0 42 8d 37 3b 8f 9d cf bb 9f e9 59 3c 06 d6 79 bd
       0.002800778 -0.006335921 0.0133003285 -0.060995124
0000d0 3d bd 29 bc 0d 5d 9f bd fe d1 c4 3c e6 65 2f 3d
       -0.010360059 -0.0778142 0.024025913 0.042821787
0000e0 a8 03 3f bd f2 00 84 3c 7b 49 a8 3d 4a 53 3c bb
       -0.046634346 0.016113732 0.0821714 -0.0028736168
0000f0 e6 f6 79 bc 7e 3a 2f bd b8 f7 c2 3c e6 f7 a6 3d
       -0.015256619 -0.042780392 0.023799762 0.081527516
000100 8b a2 ee bc 16 26 a3 3d a8 f9 fc 3c cc 33 85 bc
       -0.02913024 0.07966249 0.030880764 -0.01626005
000110 33 69 a8 3d 3d 19 9f bd 9d 05 b7 bb 81 9f 30 bd
       0.0822319 -0.07768486 -0.005585386 -0.043120865
000120 0c 7a 23 3c 31 fb 64 bd df 71 dc 3c 6b 8b 27 3d
       0.009977829 -0.055903617 0.026909767 0.040904444
000130 96 93 8a bd 3d 3d b5 3d 18 b6 1d bc a4 aa 27 3c
       -0.06766431 0.08849571 -0.009625934 0.010233555
000140 f7 1e 52 bd 51 02 02 bd 42 a7 29 3d f9 69 6a bc
       -0.05129906 -0.03174049 0.041419275 -0.014307492
000150 9f 56 19 3d c9 17 88 bd 94 f4 f4 3c c7 10 72 3d
       0.037436124 -0.06645162 0.02990178 0.05909803
000160 6e e3 d6 bb 60 fb a9 3d d4 d7 a8 3d d0 13 18 3d
       -0.0065578735 0.08299899 0.08244291 0.03712827
000170 86 ee 89 bd bb 7e d1 bc a5 bb 19 bc 62 18 38 3d
       -0.06734948 -0.025573125 -0.009383117 0.04494513
000180 fd 17 13 bd 9d 64 22 bd b6 23 f1 3c 4e d6 1c bd
       -0.03591155 -0.039646734 0.029435974 -0.038290314
000190 00 2c b1 3d fd 1f 6f 3c 32 3c 98 bd 03 be 55 bb
       0.086509705 0.014595029 -0.07433356 -0.0032614477
0001a0 18 1e 69 3c 78 20 7e 3b 31 f7 b0 3d 74 e1 36 bb
       0.014228366 0.0038776677 0.08640898 -0.0027905377
0001b0 c4 74 81 bd 90 be 4d bd 75 f0 03 3d 66 ec ad bd
       -0.063210994 -0.050230563 0.03221174 -0.08492355
0001c0 63 76 92 bd 5f fa 2a bc 47 8c 09 bd 18 ff 6e bc
       -0.07151487 -0.01043567 -0.033581045 -0.014587186
0001d0 ca 9b 93 3c fd 90 74 bc f0 b3 86 bc 97 67 9b 3d
       0.018018622 -0.014927146 -0.016443223 0.075881176
0001e0 34 ec ab bd ab c0 32 3c de 27 9a 3d 25 71 9b bd
       -0.083946615 0.010910193 0.07527135 -0.0758994
0001f0 45 96 af bd a5 a2 af 3a ec 2a bf 3b 37 2b 42 3d
       -0.085735835 0.0013399912 0.005833974 0.047404494

model.4.weight f4 [128, 128]
000000 a4 5a 93 bd 29 76 27 bc f9 c7 48 bd e1 9d 4b bd
       -0.07195023 -0.010221043 -0.049018834 -0.049711112
000010 7e 2d 8a bd 5d 83 58 bd c6 1c 39 bd f5 79 b2 bc
       -0.06746958 -0.052859653 -0.045193456 -0.02178667
000020 3b bb d4 bc ae 16 58 ba ae dd 1c 3d f9 5b 8d bc
       -0.025968185 -0.00082431256 0.038297348 -0.01725577
000030 9b 7f a6 3d f2 eb 88 3d 72 c9 b5 ba 54 46 b0 bd
       0.081298076 0.06685628 -0.001386924 -0.08607164
000040 8b 73 c5 3b 19 fa 72 3d 3a 99 73 bd b5 71 2f bd
       0.0060257367 0.059320543 -0.0594723 -0.04283305
000050 59 66 b3 bc 8a 2c 5f bd d1 47 b0 bd 80 a0 af 3d
       -0.02189939 -0.054485835 -0.08607448 0.08575535
000060 d0 fd 87 bb e2 9b dc bc 0c 71 21 bd 4d d5 17 3d
       -0.00415013 -0.0269298 -0.03941445 0.037068654
000070 19 4d ad 3d 3e 9b 2f 3d 74 33 2e 3c 35 c0 a0 bc
       0.08461971 0.04287266 0.010632385 -0.019622901
000080 f6 75 3a bd 47 2e a6 bd 52 bd a3 3d 62 09 a1 3d
       -0.045522653 -0.081142955 0.07995094 0.07863118
000090 d1 e2 5a bc d2 41 bf 3c 1b a7 ab bd ea 23 78 bc
       -0.013359741 0.023346815 -0.08381482 -0.015145281
0000a0 69 32 7d 3d b4 cc cf 3c 0a 00 37 bd 7d e9 51 bd
       0.061815653 0.025366165 -0.04467777 -0.051248062
0000b0 96 d6 b6 bc e5 da 5a 3d 02 94 70 3d 1d 61 da bc
       -0.02231912 0.05343141 0.0587349 -0.026657635
0000c0 90 8c 26 bd 42 2e 14 3d c3 6d ac bd 84 30 2b 3d
       -0.040661395 0.036176927 -0.08419373 0.041794315
0000d0 75 d8 be 3b 76 50 90 3d 1e 5c 3b 3a 5b 89 aa bd
       0.0058241435 0.07046597 0.00071472104 -0.0832698
0000e0 cc 2d 8e bd 4d ee 1c 3c ee e1 e4 bb 27 99 97 3c
       -0.06942329 0.0095783 -0.0069849407 0.018505646
0000f0 a4 a4 56 bd 28 d6 96 3d ed 0d 1e bd 79 02 50 3c
       -0.052403107 0.07365066 -0.0385875 0.012695902
000100 e1 c6 9a bd c9 30 05 3c 5c db 1a 3c 88 b0 55 bd
       -0.075574644 0.008129307 0.009451713 -0.052170306
000110 d0 73 81 bd 6a 60 84 bd dd 17 44 bd c9 cd 0a bd
       -0.063209176 -0.06463702 -0.04787432 -0.03388766
000120 5b c9 9e 3c c3 8e 5f bd 05 91 9e 3d 9b 2b 02 bd
       0.019383123 -0.054579508 0.07742504 -0.031779867
000130 56 4f f5 3c e0 88 95 bd 11 59 17 bd 4e 58 c8 3b
       0.029945057 -0.073014975 -0.036950175 0.0061140424
000140 53 65 62 bd 24 87 c4 bc fc ff 80 3b 6a 5a 1f 3d
       -0.05527241 -0.023990221 0.0039367657 0.038904585
000150 79 02 7a 3d 55 e0 6d 3d 18 d3 81 3d 4a 38 5a 3d
       0.061037514 0.058075268 0.06339091 0.053276338
000160 7e f2 c2 bc 65 18 2d bd a8 34 88 3d f6 c1 a2 3c
       -0.02379727 -0.042259593 0.066506684 0.019867878
000170 c2 da ee 3c 19 c5 59 3d 73 9f 76 3d 88 d5 0c 3d
       0.029157046 0.053166483 0.060210656 0.034383327
000180 c7 fa df 3b 11 55 9e bd 1f b7 42 3d 23 b6 0f 3d
       0.006835315 -0.07731069 0.04753792 0.03508581
000190 39 71 67 bb 43 55 17 bd 75 ad 04 bd 4f 0f 93 bd
       -0.0035315289 -0.036946546 -0.032391984 -0.07180654
0001a0 5f a2 ff 3a 1e 1b 52 3b a5 ac 87 3d d4 c5 4b bd
       0.0019503346 0.003205962 0.06624726 -0.04974921
0001b0 60 5d da 3c d3 55 87 3d f5 ff f5 3a 58 a7 b2 3c
       0.026655853 0.066081665 0.0018768298 0.021808311
0001c0 32 41 ae bb 06 26 aa bd c4 38 4e bd 3e 78 64 bd
       -0.0053178305 -0.08308034 -0.050347105 -0.055778734
0001d0 e2 62 a3 3d 04 11 18 bd 35 a5 96 3d 28 7c 4b bd
       0.07977845 -0.037125602 0.073557295 -0.04967895
0001e0 cc 98 72 3d d5 f1 e2 bc bd 17 aa 3d 44 85 a6 3c
       0.05922775 -0.027703205 0.08305309 0.020327218
0001f0 e2 6d a1 3b b9 af 86 3c 9a 12 ba bc 6a 3d 70 bc
       0.004926429 0.016441213 -0.022713948 -0.01466308
000200 d8 09 5b 3d 8f 83 4d 3d b0 e2 ac 3d 61 f9 fc 3c
       0.053476185 0.050174292 0.08441675 0.030880632
000210 a6 bf a5 3c e7 d4 ab bc ef 03 5c bd 20 74 bf 3b
       0.020232987 -0.020975543 -0.05371469 0.0058427006
000220 19 5f 69 bc 2a 8c 85 3d 54 90 a1 bc 87 49 81 3c
       -0.014243864 0.06520875 -0.019722141 0.01578213
000230 81 4a 5f bd 59 09 9f bd ac a5 9c 3d 2e 47 7a bd
       -0.05451441 -0.07765455 0.07648787 -0.06110304
000240 ff 61 7a 3c 75 8d 86 bd 03 65 ba bb d4 2b 12 bd
       0.015282153 -0.065699495 -0.005688311 -0.03568633
000250 04 e0 9c 3d 0b 3e 70 bd 80 af 5f 3c 80 9c 5e 3d
       0.07659915 -0.05865292 0.013652682 0.05434847
000260 4c f8 2c bd 1c 14 8c 3d 0b e8 0a 3c bd b3 56 3d
       -0.04222898 0.06839773 0.008478175 0.052417506
000270 29 ec a7 bd 83 09 bf bb 40 76 a2 3d 43 31 a9 bd
       -0.08199341 -0.0058299913 0.07932711 -0.08261349
000280 07 0e 37 3b 3d 4b 7b 3c 1b 64 2d bd 84 2d 84 bd
       0.0027931945 0.015337762 -0.042331796 -0.06453994
000290 d1 7b 6a bd bb 7b 5a bd ae 83 b0 bc e9 b5 97 3d
       -0.057246987 -0.053340655 -0.021547165 0.074077435
0002a0 ce 52 1c bb 43 5b 5a 3c 7b 1e 7f 3c 2f fd 86 3d
       -0.0023853066 0.013327423 0.015571232 0.0659126
0002b0 58 0d dd bc 03 f4 39 bd 96 b9 93 3d 92 c7 9b 3d
       -0.026983902 -0.045398723 0.07213132 0.076064244
0002c0 5b a1 15 3d dc 7f e0 bb eb f2 8b 3d 2c db 27 bc
       0.036530834 -0.0068511795 0.06833442 -0.010245126
0002d0 cc 5d 82 3d 50 38 c0 bc 10 e4 9c 3d b7 55 65 3d
       0.063655466 -0.023464352 0.07660687 0.055989947
0002e0 a4 37 8b 3d c3 95 18 3d ca 3f db 3b 22 79 ac bd
       0.06797722 0.0372522 0.006690954 -0.08421542
0002f0 06 2c 0f bc 17 83 fe bc 1d 70 1f bd af 47 f9 3c
       -0.008738523 -0.031068368 -0.03892528 0.03042969
000300 d9 ff b6 3c 10 02 ae 3d 46 1e 13 bd 45 83 83 3d
       0.022338795 0.08496487 -0.035917543 0.06421522
000310 df 68 fb 3c 8d 3d e8 bc 1d c4 4f 3c b4 92 ab 3d
       0.030689655 -0.028349662 0.012681034 0.08377591
000320 61 b8 0f bd 94 89 b5 bd 9b 04 4c 3d 9c 24 75 3c
       -0.035087947 -0.088641316 0.04980908 0.014962342
000330 59 53 b1 bc 5a f8 10 3c 8e 10 a9 bc 58 10 b5 3d
       -0.021646189 0.008848274 -0.020637777 0.08841008
000340 a0 4c 70 3d 07 19 95 bc 34 d7 28 3d 94 f3 55 bc
       0.058666825 -0.01820041 0.04122086 -0.013058562
000350 52 08 af 3d 06 d9 0d bd ad 52 2d bd 0a f2 14 3c
       0.08546509 -0.034630798 -0.042315174 0.00909091
000360 25 55 8b 3c ca b7 8f bc eb 0f 63 3d 88 b5 07 bd
       0.017008374 -0.017543692 0.055435102 -0.033132106
000370 0c f7 07 bc 23 e9 6a bd 22 be ae bd 07 4d 9f 3d
       -0.008298647 -0.057351243 -0.08532359 0.07778364
000380 35 64 9b 3d 48 a9 89 bc c1 e8 aa 3d 3a 04 45 bd
       0.07587472 -0.016804352 0.083451755 -0.048099734
000390 6c 96 aa 3d a0 a4 45 bd 89 b6 f9 bc 85 da 0b 3d
       0.08329472 -0.0482527 -0.030482547 0.034143943
0003a0 a2 e9 93 bc 59 d5 87 3d 12 c8 76 3d 3d 94 8a 3d
       -0.01805574 0.0663249 0.060249396 0.067665555
0003b0 ac 77 92 bd b8 3d 12 3d a1 22 a7 bc 43 ca 29 bd
       -0.07151732 0.03570339 -0.020402255 -0.041452657
0003c0 20 9f d3 bc 2b c7 0f bd 04 5a 5b bc 6c 28 85 3d
       -0.025832713 -0.03510205 -0.013388161 0.065018505
0003d0 a8 57 3f 3d ef 71 f0 3b 1b f5 b4 bd 21 37 73 3d
       0.046714455 0.0073378007 -0.08835813 0.059378747
0003e0 e8 43 fd 3c 0f f4 0a 3c 8c 99 79 3d b7 16 b7 3b
       0.03091617 0.00848104 0.06093745 0.0055874246
0003f0 cb 07 43 3d fc 5f b3 3c b0 33 80 bd 23 a2 09 3c
       0.047614854 0.021896355 -0.062598586 0.008400473

model.4.bias f4 [128]
000000 6e d0 e8 3c 41 8a 86 3d 81 ba d0 3c eb fd a6 bb
       0.0284197 0.065693386 0.025479557 -0.0050961873
000010 09 9c 03 3c 2e 08 b2 3c ce 9c a1 bc 5c ff 03 3d
       0.008032807 0.021732416 -0.01972809 0.03222595
000020 71 8d d2 3a 22 21 8e 3c 3d 16 93 bd e3 a6 1e bd
       0.0016063881 0.017349783 -0.07181976 -0.038733374
000030 2b 52 73 bd 6f bc 43 3c dd 13 a5 bd 29 d3 d5 3c
       -0.059404533 0.011946782 -0.08060429 0.026101666
000040 57 7f 85 3d 18 bd af bd 73 7a 85 bd 8f fc 6d 3d
       0.06518429 -0.08580989 -0.06517496 0.058102187
000050 e3 f4 4e 3d ad f5 81 bd 1c e7 4d bc 9d 0f 4d bd
       0.05052651 -0.06345687 -0.012567308 -0.050063718
000060 17 7a d9 3c 10 67 16 bd ee 2c 78 bc d9 90 49 bd
       0.026547475 -0.03671938 -0.015147431 -0.049210403
000070 7b 06 88 3d f3 08 86 3d 0c 77 8b 3c c5 a1 68 bd
       0.06641861 0.06544676 0.01702454 -0.0567949
000080 51 da 54 ba 32 6b 3d 3d 77 49 77 bd 1d 81 7f 3d
       -0.000811969 0.046244808 -0.060372796 0.06237899
000090 10 15 c4 bc 23 f2 be 3c bf ec 71 3d b8 eb 5b 3d
       -0.023935825 0.02330882 0.05906367 0.053691596
0000a0 77 d6 89 3d 22 ff 38 bd 90 2d 1e bd 6b 05 a5 bd
       0.06730359 -0.04516519 -0.03861767 -0.08057674
0000b0 be 43 42 3c 60 47 60 3d 33 55 32 3d 66 e5 af 3c
       0.011856971 0.05475557 0.043538284 0.02147169
0000c0 0f 55 a2 bd cd bf 44 3d a4 51 07 bc 17 59 37 3d
       -0.0792638 0.048034478 -0.008259211 0.044762697
0000d0 81 27 85 bd 6e 67 c4 3c 9f 7b c0 3c 61 97 a0 3c
       -0.065016754 0.0239751 0.023496447 0.019603433
0000e0 10 a6 0b 3d b4 0e 2a bd e2 91 09 3d 52 6a 0c bd
       0.034093916 -0.04151793 0.03358639 -0.034281082
0000f0 f8 80 59 bc 91 e6 43 bd 09 30 5e bd 75 3b 87 bd
       -0.013275377 -0.047827307 -0.05424503 -0.066031374
000100 03 63 47 bd ff bb 1b 3b 98 48 93 3d 45 52 39 3d
       -0.04867841 0.0023763177 0.071915805 0.045244474
000110 c4 ad 80 bd 4d 5d 07 3d e4 75 a8 3d ea 36 b6 3d
       -0.06283143 0.033047963 0.08225611 0.08897193
000120 bc b3 84 bd 4a 89 a6 bd 82 74 b4 3b 64 ab 19 3c
       -0.06479594 -0.081316546 0.005507053 0.009379242
000130 0f 76 41 bb 70 48 86 bd ff cf b8 3d 3b 4b 5c 3d
       -0.0029519831 -0.06556785 0.09024047 0.053782683
000140 23 97 b1 bd 6b 68 7e bc 19 5b 4c bb 22 8f a3 3d
       -0.08671405 -0.015527825 -0.0031182228 0.07986285
000150 0f b2 f3 3b 80 72 ad bd 9f 79 1f 3c 96 63 da bc
       0.0074369977 -0.08469105 0.009733587 -0.026658814
000160 fc 02 81 bd be 5d 9b 3d eb f2 14 3d cf 14 62 bd
       -0.06299397 0.07586239 0.036364477 -0.055195626
000170 37 56 d2 3c 01 12 ef bb 66 3d 17 bd 15 0c 92 bd
       0.025675876 -0.0072958474 -0.03692379 -0.07131211
000180 f0 ad 94 bd 9e 6a 18 bd ae 88 00 bd 7a 60 f9 bc
       -0.072597384 -0.037211053 -0.031380348 -0.030441511
000190 8c 72 6b bb c8 ce cf 3c 82 fc 1a 3d 52 79 52 bd
       -0.003592643 0.025367156 0.037838466 -0.05138523
0001a0 b6 3b 82 bd ba 49 bb bc 7b 48 38 bd 01 d5 af bd
       -0.06359045 -0.022862304 -0.044990998 -0.08585549
0001b0 36 c0 6b bc b0 cc 67 3d 05 70 d8 3c 8d e5 ad bd
       -0.014389088 0.05659169 0.026420603 -0.08491049
0001c0 92 d5 0b bd 57 73 86 3d 43 f4 35 bd be 98 80 bd
       -0.034139223 0.06564968 -0.0444224 -0.06279133
0001d0 7e 85 26 3d e4 ef a5 3d 25 3c 1e 3d d6 27 71 3d
       0.04065465 0.08102396 0.038631577 0.05887588
0001e0 ab e6 3d bd b6 8b 99 3d 13 4d 6d bd 54 2d 45 bd
       -0.04636256 0.07497351 -0.05793483 -0.04813893
0001f0 b7 ac e9 3c a5 16 a8 bc 7f 50 3e bd b4 05 1b 3d
       0.02852474 -0.02051861 -0.046463486 0.037847236

model.6.weight f4 [128, 128]
000000 a1 f0 8d 3d f2 3b d9 ba 1c 5c 98 3d c4 ed a8 3d
       0.06930662 -0.0016573651 0.074394435 0.08248475
000010 07 aa 51 bd e1 1d 96 bc 19 53 78 3d 45 eb 5e bd
       -0.05118754 -0.018324794 0.060626123 -0.05442359
000020 92 d8 b4 3d c6 db 35 3c 85 b8 2d 3d b6 33 bc bd
       0.0883037 0.011099761 0.0424123 -0.091895506
000030 9d 74 82 3a fa 3d 85 bd 78 4a ff 3c 3f b7 21 bd
       0.0009952966 -0.06505962 0.03116344 -0.039481398
000040 f6 cd b4 3b 8c 93 4a 3d 4c 07 dd bc 75 fd 83 3c
       0.0055177165 0.049457118 -0.026981018 0.016112069
000050 a6 f4 82 3d c5 36 6d 3d 40 25 4e 3d c7 57 8e 3d
       0.06394319 0.05791356 0.050328493 0.06950336
000060 1b 2d 45 bd 8d cc 52 3d 07 cd 1c 3d 42 ed 7a bd
       -0.04813872 0.051464606 0.038281467 -0.061261423
000070 10 4a 05 3c 36 02 7f bd 0d d9 98 3d d5 a4 53 3d
       0.008135334 -0.062257968 0.07463274 0.051670868
000080 a2 a0 b7 bd 24 4a b6 bd a1 de 38 bd 95 6a b7 bd
       -0.08966185 -0.0890086 -0.04513419 -0.08955876
000090 d8 68 86 bd 54 9a 4f 3d 1e 74 99 bd 10 ec eb bc
       -0.06562966 0.05068429 -0.07492851 -0.028799087
0000a0 bb 9b 36 3d e9 6b 8e 3d eb 84 36 3d 1d 00 36 3d
       0.04458211 0.06954176 0.044560354 0.0444337
0000b0 4c 3d 2c bd e9 59 eb bb 74 44 1c 3d 71 a7 51 bd
       -0.042050645 -0.007182349 0.03815122 -0.051185075
0000c0 4b 11 be 3b 1d 40 f8 3c ff a2 a0 bc 7e 86 bc bc
       0.0058004013 0.03030401 -0.019608973 -0.02301335
0000d0 26 7c 0b 3d c9 b4 85 bc b2 87 54 3d 78 d8 97 bd
       0.034053944 -0.016321557 0.05188722 -0.07414335
0000e0 7e 6e 98 bd dd af 27 3d f4 75 93 bd 0d fe 61 3d
       -0.0744295 0.0409392 -0.07200232 0.055173922
0000f0 72 ca 6f bd 41 c9 39 3d 17 91 52 bd e0 78 82 3d
       -0.058542676 0.045357946 -0.0514079 0.06370711
000100 e0 9b 07 3d df 4a 99 bd 4e 1d 89 bd 32 50 30 3d
       0.03310764 -0.07484984 -0.066950426 0.04304523
000110 35 13 70 bd fc a8 ee bb b7 45 54 3d 32 04 89 3d
       -0.058612067 -0.007283328 0.051824298 0.06690253
000120 19 3f 07 bd 7d 22 38 bd 84 7a 8d bd 4f 32 3c 3d
       -0.03301916 -0.044954766 -0.069081336 0.045946416
000130 04 47 5a bd 5e 49 52 bd d3 89 82 bc 8d 8c 52 3d
       -0.053290382 -0.0513395 -0.01593486 0.05140357
000140 76 1f 85 bd 5f c5 8d bd d7 9c 84 bd 68 fb 3e 3d
       -0.06500141 -0.06922411 -0.06475227 0.04662648
000150 34 6a 95 3d ba 26 68 3d 47 19 08 bd 32 5d d8 3c
       0.07295647 0.056677558 -0.03322723 0.026411626
000160 e9 e9 bb bb 93 0b 92 bd c8 c4 ab 3d 5f eb 9d 3d
       -0.0057346714 -0.07131114 0.083871424 0.07710909
000170 b8 c8 6e bd 4c df 70 bc 27 01 1b bd 53 22 74 bd
       -0.05829689 -0.014701676 -0.037842896 -0.059603047
000180 0a e5 dd 3c 8b 1e 6d bb 96 82 d6 3c 24 8a 19 3b
       0.027086753 -0.0036181535 0.026185315 0.0023428285
000190 4c 1b bc 3c 58 08 8a bd 6b f0 71 3d 36 d6 a9 3d
       0.022962235 -0.06739873 0.05906717 0.082928106
0001a0 f8 86 0a bd 0f 59 bb 3d f9 c7 e5 bc 58 81 8a 3c
       -0.033820122 0.09147846 -0.028049456 0.016907379
0001b0 9f 4f 4d bd d0 aa 75 bd 02 c1 57 bd dc 5a 94 3d
       -0.05012476 -0.059977353 -0.0526743 0.072438926
0001c0 da 87 b6 3c 8e 28 50 3d 21 10 6d bd 87 06 3d 3d
       0.022281576 0.050819926 -0.05787671 0.046148803
0001d0 5c 91 20 bd 87 27 00 3d a4 b6 60 3d 9c d6 a2 bd
       -0.039201126 0.031287696 0.05486168 -0.0795109
0001e0 98 34 89 bd cb df 6c 3c 8b ad 94 3d c7 b9 72 bd
       -0.066994846 0.014457653 0.07259663 -0.059259202
0001f0 16 f4 94 3d 0c 50 22 3d e3 db 28 3d 6d 12 9c bd
       0.07273118 0.03962712 0.041225325 -0.07620702
000200 65 ff aa bc b3 0c ad bd bb e5 9b 3c b4 cd 6c bb
       -0.020873735 -0.08449688 0.019030442 -0.003613335
000210 b5 ae 48 bc ed 17 09 bd 3a 4a a1 bd 65 b2 86 3d
       -0.012248685 -0.033470083 -0.07875486 0.06576995
000220 55 3b 95 bd 1c 3a a3 bd 0f fb d3 bc 45 74 aa 3d
       -0.07286707 -0.07970068 -0.02587655 0.08322958
000230 5a 66 af 3b a7 d6 20 bd 6f c2 48 bd 3d 56 8f 3d
       0.0053527774 -0.03926721 -0.04901355 0.069988705
000240 b7 ba 5f bd 2a 72 fa 3c 89 af e0 3a 8b b8 a3 bc
       -0.054621425 0.030572016 0.0017142157 -0.019985458
000250 f6 4f ad bc a8 19 8a 3d 58 0a 7f bd fe f0 c5 3c
       -0.021156292 0.06743175 -0.062265724 0.024162766
000260 3d 61 34 bd bd a9 4d bd 68 1d 71 bd fb f3 d0 3c
       -0.044038046 -0.050210703 -0.058865935 0.025506964
000270 e4 57 ac 3d f0 e7 cd bb af 8e b3 bc a0 36 9a bd
       0.08415201 -0.0062837526 -0.021918623 -0.0752995
000280 be f5 22 bd 65 52 f7 3b c8 ff 10 bd 83 ea 8b 3d
       -0.03978514 0.007547664 -0.035400182 0.06831839
000290 41 43 2d bd c5 7c 7e bc 96 bb 8e bb 6b b9 8d 3b
       -0.042300466 -0.015532677 -0.004355858 0.004325082
0002a0 5c a5 08 bc af 68 1b 3d b2 ad a3 bd 15 0d cd bc
       -0.008340206 0.03794163 -0.07992114 -0.025030652
0002b0 27 8f 3b bd 7e 85 a5 3d 5c d7 92 bd 35 21 50 3d
       -0.045790818 0.08082102 -0.07169983 0.05081292
0002c0 0b be d3 39 d1 73 50 bd 7d 31 20 3d dc 0e 3a 3d
       0.0004038665 -0.0508917 0.039109696 0.045424327
0002d0 41 cd d2 3b 1c 37 54 3d b3 dd 06 3b 11 a0 d1 bc
       0.0064331596 0.05181037 0.002057892 -0.02558902
0002e0 81 92 99 3d 38 2a 1d bd e2 74 6e bd d2 88 55 bd
       0.074986465 -0.03837034 -0.058216937 -0.052132435
0002f0 ca b0 8f bb 09 80 3a 3d 17 69 53 bd 4c 0e 6f bd
       -0.0043850886 0.04553226 -0.051613893 -0.058363244
000300 ec 00 a9 bd 72 12 8b bc b3 07 90 bd 49 e3 a6 3d
       -0.08252129 -0.016976569 -0.070327185 0.0814882
000310 ea d6 66 bd 41 d1 43 3c ee 0c 81 bc ea 10 0e bd
       -0.0563573 0.0119517455 -0.015753236 -0.0346841
000320 6d 53 a9 bd 2a cc 82 3c a3 48 01 3d 76 77 5a 3c
       -0.08267865 0.015966494 0.031563412 0.013334146
000330 68 ce ad 3d 94 e8 88 bc 8d f6 be bd 32 cb a0 3d
       0.084866345 -0.016712464 -0.093243696 0.078512564
000340 e6 77 97 3d 71 8b bb bc 83 40 aa bd cf 1a b5 3d
       0.07395916 -0.02289364 -0.08313086 0.08843004
000350 fb 1c 99 bd 1a 33 0e bd 58 c1 29 3d b9 6f b8 3c
       -0.07476231 -0.034716703 0.041444153 0.022514211
000360 c4 43 3f 3d d4 98 08 3c 41 db 9a bc c5 36 d6 bc
       0.046695486 0.008337218 -0.018903377 -0.026149163
000370 6c 58 27 bd 84 aa 21 bd 3a 75 82 3d e6 b2 2f 3d
       -0.04085581 -0.039469257 0.063700154 0.04289522
000380 25 eb 92 3d ce 78 43 bd 84 44 94 bd 47 26 f4 3c
       0.071737565 -0.04772263 -0.07239631 0.029803408
000390 49 bc 97 3d b6 ac 32 bd c7 06 59 bd 37 25 8d 3d
       0.074089594 -0.04362174 -0.05298498 0.06891864
0003a0 33 ad 5f 3d 30 ae b5 3d c7 85 35 bd 9b a2 5d bd
       0.054608535 0.08871114 -0.044317033 -0.05411015
0003b0 8e 13 6a bd 8c a4 13 bd 66 a5 cb bc f8 57 a5 3d
       -0.057147555 -0.036045596 -0.024859142 0.08073419
0003c0 7a 13 7d bc 1b 33 e6 bc 1c 21 11 3d 4d 0b d6 3c
       -0.015446538 -0.02810054 0.035431966 0.026128436
0003d0 26 b7 ac bc 96 6d 25 3d 3a 14 fe 3b 5f c3 84 3d
       -0.021083426 0.040387712 0.007753876 0.064825766
0003e0 07 9d 60 bd 30 7c af 3c 49 27 8c 3c da 56 28 3d
       -0.054837253 0.021421522 0.017108576 0.041098453
0003f0 9d 8d a4 3d 93 5e 4f bd 7c 85 20 3c 4a 54 1f bd
       0.08034823 -0.050627302 0.00979745 -0.038898744

model.6.bias f4 [128]
000000 0e 35 5f 3d 85 e2 76 3d 21 2b ad 3d 9a b6 b1 bd
       0.054493956 0.06027462 0.08455492 -0.086774066
000010 55 3a 8f bc 9e 83 d0 3c f9 83 e2 bc 96 0f 8e bd
       -0.01748387 0.025453385 -0.02765082 -0.069365665
000020 6a 03 6a bd 39 c4 d5 3a 10 cd 05 bd 2d e7 6e 3d
       -0.057132162 0.0016309089 -0.032666266 0.058325935
000030 a3 47 d6 bc 34 98 54 3c 99 b2 59 3d 01 aa 1f bd
       -0.026157206 0.012975741 0.05314884 -0.038980488
000040 12 50 ad 3d 8f aa d0 bb 54 3c 42 3d 5b 21 92 bd
       0.08462538 -0.0063679884 0.047420815 -0.07135268
000050 f5 47 46 3d b2 60 4a bd 51 6f c0 39 b4 f1 b7 bc
       0.048408467 -0.049408622 0.0003670403 -0.02245412
000060 8e a4 ab bd a5 2b 83 bd ee b6 4c bc 62 14 72 3d
       -0.08380996 -0.06404809 -0.012494786 0.05910147
000070 b2 fe 91 3c 1d 78 9f bd ba 9f 30 3b 3f 91 15 3d
       0.017821644 -0.07786582 0.0026950673 0.03651547
000080 e2 bc 37 3d 53 33 0c 3d 3e ba 00 bd 79 cc a2 bd
       0.044857867 0.034228634 -0.031427614 -0.07949156
000090 4d d9 a0 3d 5a 9e 72 3d 4a bc a2 3d 90 76 49 bd
       0.07853947 0.059233047 0.079460695 -0.049185336
0000a0 76 28 84 bc 17 85 80 b9 28 ae 81 bd da 81 71 3c
       -0.016132575 -0.00024513222 -0.06332046 0.014740432
0000b0 56 63 46 3d 81 00 1f 3d 69 71 a3 3b f8 a9 6c 3d
       0.048434578 0.03881884 0.004987885 0.057779282
0000c0 78 fa a6 bd 95 7b 24 bd 42 d6 00 bd a4 60 2e bc
       -0.08153242 -0.04015692 -0.031454332 -0.010643158
0000d0 c3 81 a4 3c 67 7c 8f bd ac 92 21 3d e3 80 31 bd
       0.020081406 -0.0700615 0.039446518 -0.043335807
0000e0 cf 84 01 bd b9 42 a4 3c 8c c9 80 3d ce b6 6a bd
       -0.031620797 0.020051347 0.06288442 -0.057303242
0000f0 07 d4 47 3b fd bf 85 3c de 13 f8 3c 6f fe 1d 3d
       0.0030491368 0.016326899 0.03028291 0.038572725
000100 a7 55 62 bd 5f 81 0f bd 7f 53 7d bd fc 40 53 3d
       -0.055257466 -0.035035487 -0.061847206 0.051575646
000110 ce f5 bd 3b 30 6b fa 3b 0f 7c 45 3d a1 54 a4 bd
       0.0057971245 0.0076421723 0.048214015 -0.08023954
000120 a5 b9 8a 3a df 1d 99 3d 27 bd 85 bd e0 ea 24 bd
       0.0010583891 0.074764006 -0.065302186 -0.040263057
000130 23 93 99 bd 34 1a 7e 3d 1f 11 ca 3c a9 e3 cf bc
       -0.07498767 0.062036708 0.024666367 -0.025377112
000140 dc 5f 13 3d a3 21 40 3c 12 0b 57 3c 61 b1 7a 3d
       0.03598009 0.01172677 0.013125198 0.061204318
000150 82 f2 54 bd 98 92 80 bd 16 a5 79 3d 93 e7 8e 3d
       -0.051989086 -0.062779605 0.060948454 0.06977763
000160 15 f6 8e bd b5 ea 43 bd b9 a5 33 3d 18 27 98 bc
       -0.0698053 -0.047831256 0.043859217 -0.018573329
000170 0f 8d 96 3d 2a e4 da bc dd 5c ec bc 1e 0d 32 bd
       0.073511235 -0.026720125 -0.028852874 -0.04346954
000180 e7 a9 09 3d ba 8d a6 bd f8 71 fc ba 2b ef 04 3d
       0.033609297 -0.08132501 -0.001926004 0.03245465
000190 f1 a2 9c 3d 8e ee 15 3d 16 41 18 bd 22 f1 aa 3d
       0.07648266 0.036604457 -0.037171446 0.08346774
0001a0 47 65 87 bd c5 11 57 bd e5 f5 33 3d c4 26 85 3d
       -0.06611114 -0.05250718 0.043935675 0.065015346
0001b0 29 91 9c bd 1c 47 45 bd f8 47 b8 bc e1 d4 90 3b
       -0.076448746 -0.04816352 -0.022495255 0.0044199084
0001c0 e2 b3 92 bd 54 09 14 bd 06 cd 76 3c 1f d7 af 3d
       -0.07163216 -0.03614171 0.01506353 0.08585953
0001d0 c7 6e 18 bd cd 73 6d bd a1 1b bc 3d 08 b4 70 bc
       -0.03721502 -0.057971764 0.09184957 -0.01469136
0001e0 ca b0 01 3d 90 39 d1 3c 1f e1 93 3d ac aa 01 bc
       0.03166274 0.025540143 0.07220673 -0.0079142265
0001f0 c2 d8 8f bd 59 a0 53 3d 5f 78 4f bb 41 85 48 bc
       -0.07023765 0.05166659 -0.003165744 -0.012238801

model.8.weight f4 [128, 128]
000000 a6 5a a5 bd a9 82 8f bd bd 51 d0 bc c7 1b ee bc
       -0.080739304 -0.07007343 -0.0254296 -0.02906598
000010 89 5e 32 bd 4a e3 e4 bc ce 58 7a 3d ce ca f3 3b
       -0.043547187 -0.027940411 0.061119847 0.0074399477
000020 de 4c 2e bd 8f 1e 05 3c 9b a3 9a 3d ae f1 f3 bc
       -0.042553775 0.0081249615 0.075507365 -0.029778328
000030 71 b4 21 bd b8 eb a9 bd 6c ae a5 3d 57 86 9b 3b
       -0.039478723 -0.08296913 0.08089909 0.004746239
000040 19 9d 9f bd 3d 75 77 3d d3 50 d5 3c 44 2e ae 3d
       -0.07793636 0.06041454 0.026039517 0.08504918
000050 48 ed 85 3c bd 50 5c 3d 43 0c b1 3d c3 a7 83 bc
       0.016348496 0.053787936 0.08644917 -0.016071206
000060 75 7a 93 bb 8e eb 9e 3d 80 d8 41 bd 32 76 de bc
       -0.004500682 0.07759772 -0.04732561 -0.02715597
000070 ee d0 3e bd d4 11 9a bd a0 fe fb bc 3f 7c 09 bd
       -0.04658597 -0.07522932 -0.030761063 -0.033565756
000080 21 2b 7b bd cd ec 51 3d a2 12 58 3d 65 1b a9 3d
       -0.061320428 0.05125122 0.052752145 0.08257178
000090 90 1e 14 3d e0 79 36 3d dd d0 48 3d f9 dd 95 bc
       0.03616196 0.044549823 0.049027313 -0.018294321
0000a0 10 d5 48 3d fa e8 93 bd 29 b0 9e 3c a4 78 6d 3d
       0.049031317 -0.07222171 0.01937111 0.05797638
0000b0 1b 8c 0a bd 12 62 07 3d a5 e5 59 3d 58 5a ea bc
       -0.03382502 0.03305251 0.05319752 -0.028607532
0000c0 c2 57 9c bc 6f 3d 31 bd a9 bc 0c bc 5b 84 71 3d
       -0.019084815 -0.04327148 -0.008589902 0.058964115
0000d0 87 cb 8a 3d cf 21 b7 bd 5d 1d 62 3d ec fb 40 3d
       0.06777101 -0.08941995 0.055203784 0.04711525
0000e0 3c 19 ea bc c5 b2 45 3c 16 33 d4 bc 0c e4 57 bc
       -0.028576486 0.012066548 -0.025903266 -0.013176929
0000f0 83 f2 71 bd 07 97 82 bd 62 79 ee bc 38 57 50 bd
       -0.059069168 -0.063764624 -0.029110614 -0.05086443
000100 4e ba ae bd ab 3c 17 bd bb ad af bd d0 48 45 3d
       -0.085316285 -0.03692309 -0.08578058 0.048165143
000110 c2 67 62 3d 76 8d a1 bd 01 28 7d bd 04 b4 75 3b
       0.055274732 -0.0788831 -0.06180573 0.003749133
000120 c8 13 97 3c a7 c6 ab 3d 9c 89 96 bc 4b 95 09 3d
       0.01844205 0.08387499 -0.018376164 0.033589642
000130 c7 eb 65 bd 22 50 bc bc 39 c4 94 bd c7 4c 98 bc
       -0.056133058 -0.022987429 -0.07263989 -0.018591298
000140 ed 81 33 bd 30 66 a9 bd 2d 83 85 3d f8 32 b8 3d
       -0.04382508 -0.08271444 0.065191604 0.089940965
000150 34 82 73 3d fa 6a 82 bc 2f f7 2c 3d 48 ef 7c bd
       0.059450343 -0.015920151 0.04222792 -0.061751634
000160 5f f5 eb bc 30 29 a1 bc 24 d6 0c bd 91 9f 34 bb
       -0.028803525 -0.01967296 -0.034383908 -0.002756093
000170 d8 7b f9 bb 71 08 a7 bd fb cf c4 3c a8 b9 38 3d
       -0.0076136403 -0.08155907 0.024024954 0.04509893
000180 cc d1 3d 3b ca fd 91 3d 33 c9 50 bd ad f6 7f bd
       0.002896416 0.071284845 -0.05097313 -0.062491108
000190 a2 3b d4 bb 1b 74 90 bd 47 8d e4 3c 33 8e 14 3d
       -0.0064768353 -0.07053395 0.027899398 0.036268424
0001a0 95 2a 31 3d 86 9f 9e 3d ee 7e 07 bd 10 9c 8e 3b
       0.0432535 0.077452704 -0.033080034 0.0043521
0001b0 66 84 0c bd e6 bb fc 3b 61 75 9b 3d d2 96 70 3d
       -0.034305952 0.007712829 0.075907476 0.058737583
0001c0 31 d3 46 bb af d4 ac bc 83 7d 79 bd 0d 90 60 3d
       -0.0030338282 -0.02109751 -0.060910713 0.054824878
0001d0 cf 41 8c 3c 24 c3 04 3d 4b f7 65 3d b4 b3 27 3c
       0.017121224 0.032412663 0.05614404 0.010235716
0001e0 44 cc 57 3c 3d 76 ae 3d 01 69 cc bc 7a 37 a8 bd
       0.013171259 0.08518646 -0.024952414 -0.08213706
0001f0 bc 3b 8d bd a6 da 12 bd ad 52 0e 3d 3b c7 9a bd
       -0.06896159 -0.03585305 0.034746815 -0.075575314
000200 d1 ab 6f bb 5f be 53 bd 0b 46 91 bb b1 3f ed 3c
       -0.0036570916 -0.051695224 -0.0044333986 0.028961034
000210 f2 e1 ad bd 72 e0 5a bd e2 96 83 3c a8 17 a2 3c
       -0.08490361 -0.053436704 0.016063157 0.01978667
000220 c8 fa a8 bd 28 51 ea bc 54 45 f7 3c 0f 02 60 bd
       -0.08250958 -0.028603151 0.030184425 -0.054689463
000230 07 6a 2d 3d 80 76 11 bd 9b 11 f4 bc d4 33 55 3d
       0.042337444 -0.0355134 -0.029793551 0.05205138
000240 30 c3 56 bc 2c bb 59 3d 76 00 94 bd c1 0d 65 39
       -0.01310806 0.053157017 -0.072266504 0.00021844266
000250 23 d9 4a bd fa bb a2 3d b1 3f 8a bd 88 ef b6 bd
       -0.049523484 0.0794601 -0.067504294 -0.08932406
000260 c6 ec eb 3c 57 c7 77 3d af 9e 8b bd 05 98 88 bd
       0.028799426 0.06049284 -0.06817376 -0.066696204
000270 3e 6b a9 bd f6 64 a6 3d 78 bc 8c 3c ab 8f df bb
       -0.08272408 0.081247255 0.017179713 -0.0068225465
000280 93 58 a7 3d cd 91 a5 3d 37 35 32 3d af 3f 44 bd
       0.08171191 0.0808445 0.04350778 -0.047912296
000290 44 f1 44 3d dc 7d 93 bd f5 12 37 3d 6a eb 05 bc
       0.04808165 -0.0720174 0.044695813 -0.008173803
0002a0 ee fd a0 bd 31 ac 37 bd ae 61 6e 3d 98 f1 ae bd
       -0.07860933 -0.04484195 0.058198623 -0.08542174
0002b0 cf 7d 2f 3c 32 9f ea 3c 7a fd 95 3d 45 c0 99 3b
       0.010711147 0.028640363 0.073237374 0.00469211
0002c0 17 9c b1 3d 2f b5 13 bd 37 5a 7e bd 9f 4d 38 bd
       0.0867235 -0.036061462 -0.062097754 -0.0449959
0002d0 54 c8 e7 3b db 00 40 3d 36 3e af 3d ae 5e a0 bb
       0.0070734415 0.046875816 0.08556788 -0.004894099
0002e0 1e ac 97 3d c6 4a 2c 3d 88 f7 65 bd aa 38 74 3d
       0.074058756 0.042063497 -0.056144267 0.05962435
0002f0 57 00 6f bc 36 c2 7f bd 5f d2 37 bd 31 36 7a bc
       -0.014587483 -0.062441073 -0.04487836 -0.015271709
000300 e7 51 a8 3d f8 70 b3 3c 4f 64 a0 3d 3b 5f 8c 3d
       0.08218747 0.021904454 0.07831632 0.06854101
000310 af e3 d6 bc a6 93 3d 3d f4 a7 da bc f1 dd 5c bd
       -0.026231615 0.046283387 -0.026691414 -0.053922597
000320 79 7c 63 bd 81 f8 12 3c a1 13 ab bc b3 5b aa 3b
       -0.05553863 0.008970381 -0.020883383 0.0051989197
000330 2e fc ca 3c a8 b0 6e 3d f2 92 0f 3d 80 55 22 bb
       0.024778452 0.05827394 0.035052247 -0.00247702
000340 08 2e c6 3b b1 bc 33 bc 9b 10 41 bd 98 7b 91 3d
       0.006047968 -0.0109702805 -0.047134977 0.07103652
000350 5c 71 27 bc 03 4f ae 3d fa 8e 52 3d 81 3e 3a bd
       -0.010219898 0.08511164 0.051405884 -0.045469765
000360 75 8e 19 3c 22 bc 08 bd 09 7e 44 bc 19 0c 2d 3d
       0.009372343 -0.033382542 -0.01199294 0.042247865
000370 e0 71 a4 bd 62 dd 19 3d 18 89 aa bc 3e 27 83 bd
       -0.080295324 0.037564643 -0.020817325 -0.06403969
000380 5c 19 2d 3c e2 7f 39 3d 7e 7b af bb 18 47 a5 3d
       0.010565128 0.045287974 -0.0053552976 0.08070201
000390 f2 d7 a6 3d c8 d9 ab 3d be 3a 83 3c a5 31 75 bd
       0.08146657 0.08391148 0.016019221 -0.059861798
0003a0 79 41 8b 3d 5c fd 33 3d 3d 90 66 bb 12 74 3b 3d
       0.06799597 0.043942794 -0.0035181188 0.04576499
0003b0 fe 71 85 bd 7c 52 94 bd 36 9e 2e bd 98 8e 1b 3d
       -0.06515883 -0.07242295 -0.04263135 0.037977785
0003c0 25 03 a1 bd 17 3d 84 3d 6e 18 a4 3c 44 56 a8 3b
       -0.07861928 0.064569645 0.02003118 0.005137237
0003d0 e5 bf 69 3d 59 09 9d 3d d3 b0 89 3d 3b 74 db bc
       0.05706777 0.076677985 0.0672318 -0.026788821
0003e0 1b 5c 63 3d 45 81 24 3d e9 d1 a0 3c e5 1e f3 3c
       0.05550776 0.040162344 0.019631343 0.029677818
0003f0 c9 ee be 3c 2b ab ba bd fe 1e c8 bc c7 17 41 bd
       0.023307221 -0.09114679 -0.02442884 -0.047141816

model.8.bias f4 [128]
000000 a8 36 80 bd 52 3d 92 3d 7c 3b b7 bc 44 7d 98 3a
       -0.06260425 0.07140602 -0.022367232 0.0011634012
000010 6d b0 ab bc 93 bf 4f bc 8c 12 43 3b 83 0c 2d bc
       -0.02095815 -0.012679952 0.0029765693 -0.010562065
000020 4c 84 97 3d 53 e3 27 bd 75 84 f7 bc e2 82 9a bb
       0.073982805 -0.040988278 -0.030214528 -0.0047153095
000030 ed 50 a3 3d f7 af 8c 3b 3a 9c 16 bc f1 ba 97 3d
       0.0797442 0.0042934376 -0.009192521 0.07408703
000040 d3 63 28 bd aa 24 61 3c bc 48 8a bd e6 41 d9 bc
       -0.041110825 0.013741652 -0.06752154 -0.02652068
000050 25 cc 7c bd e3 5d e4 39 3c 90 6b 3d f8 91 0f bd
       -0.061718125 0.000435575 0.0575106 -0.035051316
000060 6e a5 af bc c2 47 b3 38 ca cf 28 3d 4e bb 45 3d
       -0.021441188 8.548751e-05 0.041213788 0.04827433
000070 e1 f7 50 bd 6a d1 23 3d 28 7b 94 3d 5a 1f 3c bc
       -0.051017646 0.039994635 0.07250053 -0.011482084
000080 7a 14 30 bd 4b 23 c3 bd 32 69 ff bb 20 f6 51 3c
       -0.042988278 -0.09528216 -0.0077945227 0.012815028
000090 aa ac 96 bd e8 5b 9d bd b9 8f e7 3c 9d b8 9b bd
       -0.07357152 -0.07683545 0.028266774 -0.076035716
0000a0 4e fb ab bc 25 9d 91 3a 2d a0 6c 3c 37 68 97 3a
       -0.020993855 0.0011109455 0.014442486 0.0011551444
0000b0 50 f0 3a bd af 0e 2a 3d 0c d9 f9 bc 14 23 87 bc
       -0.045639336 0.04151791 -0.030499004 -0.016496219
0000c0 77 02 7f bd 16 49 99 3d 93 19 bc bc 7f 56 0b bc
       -0.06225821 0.07484643 -0.022961413 -0.008504509
0000d0 96 c3 16 bd a6 a8 2f 3c f1 05 14 3d a3 98 69 3d
       -0.03680762 0.010721361 0.03613848 0.05703033
0000e0 04 0b bb 3c c7 f7 f8 3c a0 0a b1 3c 5d 50 a7 3d
       0.022832401 0.030391587 0.021611512 0.08169625
0000f0 e3 6f 9e 3d 2b 0f f5 3c 43 dd 6a 3d d7 1f 7c bd
       0.077361844 0.02991446 0.057339918 -0.061553802
000100 83 55 d6 bc aa cc 9e 3c e3 10 0a bb b1 ff 70 3d
       -0.026163822 0.0193847 -0.0021067194 0.058837596
000110 c9 ae 88 3d 33 80 fd ba f9 2b 98 3d 7b f2 a3 bd
       0.066739626 -0.0019340575 0.07430262 -0.08005234
000120 85 26 f5 3c 65 00 88 bd cd f9 2d 3d 90 c4 83 3c
       0.029925594 -0.066407 0.042474557 0.01608494
000130 c6 f6 a9 bb 4e 4d f3 3b 48 17 96 bc cb ab 8a 3c
       -0.0051868884 0.007424987 -0.018321648 0.01692762
000140 ba 69 96 bd 66 be 37 3d d1 1b df 3c 33 c2 d3 3c
       -0.073443845 0.044859312 0.027234944 0.025849437
000150 59 f8 10 3c b0 cf a9 3d 55 43 ab 3d 41 2e 1d bd
       0.008848273 0.08291566 0.08362452 -0.03837419
000160 78 c6 53 3d 68 6d 2f bc cb e3 a6 bd d9 87 5f ba
       0.051702946 -0.010707237 -0.08148917 -0.0008527018
000170 c8 28 2b bd bb 86 e1 bc 65 fa 96 3d d9 91 38 3d
       -0.04178694 -0.027530065 0.07371978 0.045060966
000180 e2 56 1c 3d d3 64 a6 3b 70 1a 9d bd e5 98 0f 3d
       0.038168795 0.005077937 -0.07671058 0.03505792
000190 8f f1 6a bc 33 d6 a0 3d 3c 19 3b bd 7c 5a 51 3d
       -0.014339819 0.07853355 -0.045678362 0.051111683
0001a0 b4 0b 87 3b 66 94 9a bd ff 1b 1b bd 67 8a 06 bd
       0.004121268 -0.07547836 -0.037868496 -0.032846835
0001b0 34 32 57 bc d7 69 52 3d 4a 7d 64 3d 4f 94 74 3d
       -0.013134528 0.051370468 0.055783547 0.05971175
0001c0 83 f8 61 3a 73 ec 37 bd 17 72 9e bd c9 06 3a bd
       0.00086201 -0.04490323 -0.07736605 -0.045416627
0001d0 e4 ce 55 3d da 59 6a bd b2 06 9c 3c 35 63 19 bd
       0.05219926 -0.057214595 0.019046161 -0.037448127
0001e0 6e ed 81 3d 62 a7 89 3d 68 91 cf 3c 5b 95 55 bd
       0.06344114 0.06721379 0.02533789 -0.05214439
0001f0 17 b5 66 bd f9 8e 9b 3d b6 5f 79 3d 3d 0b 3c bd
       -0.056325044 0.07595629 0.060882293 -0.045909155
