experiments/dispersion_pinn.pth (torch, 940940 bytes, 35 tensors)

model.0.weight f4 [128, 1]
000000 75 45 5d bf e9 54 48 bf 33 b9 a4 3e b0 4b 9a 3d
       -0.8643411 -0.7825456 0.32172546 0.075339675
000010 4e 52 3e 3f 5a 1e 06 bf af fe c4 bd a5 9e 9c 3e
       0.74344337 -0.5239006 -0.096188895 0.30589786
000020 4c a2 e7 3e 31 03 13 bf 37 89 38 ba 50 0d 97 be
       0.4524101 -0.57426745 -0.00070394896 -0.29502344
000030 a7 71 28 3e 82 37 ad be 11 cd 7c 3f 45 77 0e 3e
       0.16449605 -0.33831412 0.98750407 0.13912685
000040 7c 65 f2 3e 90 ac 3b be 31 c8 15 bf fe 01 03 3f
       0.4734305 -0.18327546 -0.5850859 0.51174915
000050 05 dd 61 3f 5d 04 5e 3f d0 ab 7e 3e b4 a0 65 3f
       0.88227874 0.8672541 0.24870229 0.8969834
000060 52 f5 54 3e a3 e7 fe be 89 d6 62 3f 6f 83 cf be
       0.20796707 -0.497861 0.88608605 -0.40529963
000070 eb 3d ff 3e a5 5a 5a 3f 0e a2 d0 bd f9 08 f5 3e
       0.49851927 0.8529456 -0.101871595 0.47858408
000080 83 d1 39 bf 1b 45 de bd c7 ee 0b bc 98 d2 d4 be
       -0.72585315 -0.108530246 -0.008540816 -0.4156692
000090 4e af 6d bd c6 0f f6 3e a4 b7 9f 3d 51 52 6b bf
       -0.05802851 0.4805891 0.077986985 -0.9192248
0000a0 07 4c 5b bf 8e 04 22 3e 16 f5 bc bd c5 e8 17 be
       -0.85662884 0.1582205 -0.09226434 -0.14834888
0000b0 8c 7a f4 3e 30 04 93 3d f7 20 26 3e 88 68 22 bf
       0.47749746 0.07178533 0.16223513 -0.6344075
0000c0 3b d7 71 3f 46 46 eb 3d a4 a3 f9 bd 24 46 c6 be
       0.9446904 0.11488013 -0.12189415 -0.38725388
0000d0 25 50 ef be be 4a 12 3d f3 47 5c bf 48 1e 25 3c
       -0.46740833 0.03571581 -0.86047286 0.01007802
0000e0 e4 25 00 3f da f6 b1 be bc dd 10 3f 28 37 22 bf
       0.50057817 -0.34758645 0.5658834 -0.6336541
0000f0 41 95 64 3e fe 3f 7d 3f 43 76 76 3f 1a 1f 0b bf
       0.22322561 0.9892577 0.96274203 -0.5434433
000100 c2 49 40 bf 33 b5 51 3f 4e 9c de be 31 69 b2 be
       -0.75112545 0.81917113 -0.43478626 -0.3484588
000110 1a 1c 42 3f 2a de 71 3e 35 ca 68 3f 60 d2 1e 3e
       0.7582413 0.23619905 0.90933543 0.15509939
000120 2e 20 a9 3e 0c 1d 23 3f d3 82 01 bf 46 6c 8c 3d
       0.33032364 0.63716197 -0.50590247 0.06856589
000130 17 71 06 be 2a f3 35 bf 49 01 05 3e 5f 95 11 3f
       -0.13129078 -0.71074164 0.12988771 0.5686855
000140 39 c8 42 bf 3e 9a cb 3e 5d 27 70 bf 80 37 23 3d
       -0.76086766 0.39766115 -0.93810064 0.03984785
000150 81 5b 4d 3f 5e 03 e7 bc 56 94 2f 3f 39 15 05 be
       0.8021775 -0.028199848 0.6858572 -0.12996377
000160 a7 14 c5 3e 5c 3b 7a bf 93 e0 6a be 8b 68 f2 be
       0.3849232 -0.97746825 -0.22937231 -0.47345385
000170 3a 35 24 3f 73 5c 95 be 60 fd 63 be 1a 01 45 be
       0.6414372 -0.29172096 -0.22264624 -0.19238701
000180 8f 8a 77 bf ad 00 3e 3e d4 46 48 3e 80 d7 86 be
       -0.966958 0.18554945 0.19558269 -0.26336288
000190 a8 7e 41 be e0 28 52 3f 04 e3 1f 3f c1 fb 66 3f
       -0.18895972 0.8209362 0.62455773 0.90227896
0001a0 43 08 ff be 44 6e 6e bf 43 90 2f 3f e7 75 4d be
       -0.4981099 -0.93137 0.685795 -0.20064507
0001b0 7f f3 86 be c4 0a 9f bd de 6c 68 3f 5d f8 ef 3e
       -0.26357648 -0.07765725 0.9079112 0.46869174
0001c0 95 ad 7f 3f 6d 57 16 bf 87 49 6d 3f 8e 6d 25 3f
       0.9987424 -0.5872715 0.9269032 0.6462029
0001d0 51 22 1b 3e ac 54 76 3d 54 75 65 3f be ba 00 3f
       0.1514981 0.060139343 0.89632154 0.50284946
0001e0 ff 33 c5 be 3f ce 4f be 6f 6d 9f bd 5f 21 5c 3f
       -0.38516232 -0.2029352 -0.07784545 0.8598842
0001f0 72 b8 46 be 3f 1e 3b 3c 0c 94 80 3e 50 44 d6 3e
       -0.19406298 0.011420785 0.2511295 0.41848993

model.0.bias f4 [128]
000000 16 d8 4f bf 99 3d 35 3f f6 b9 f9 3e 28 2e 5f 3f
       -0.81189096 0.70797116 0.4877469 0.87179804
000010 9e 78 88 3e 2a a2 15 3f 5f 13 4c 3e 23 13 44 bf
       0.26654524 0.5845057 0.19929264 -0.765917
000020 65 85 13 3f c1 9c 78 3f c8 2a 7e 3e a0 3f 33 bf
       0.5762542 0.9711419 0.24821007 -0.7001896
000030 6d 9d d7 3e 7b 05 75 bd dc 9b 1e bf ae 87 ca 3e
       0.42112294 -0.05981968 -0.6195657 0.3955664
000040 6f 4d eb 3e e4 a9 63 3f 25 49 d2 be 3a 26 14 bd
       0.45957515 0.8893111 -0.4107143 -0.03616927
000050 64 60 de be 26 93 75 bf dc 5b b4 be 62 8f d4 3e
       -0.43432915 -0.95927656 -0.35226333 0.41515642
000060 c0 6a d9 3e da 27 34 3f 47 61 10 bf 47 3a 16 bf
       0.42464256 0.7037331 -0.56398433 -0.58682674
000070 8b 87 3d 3f 28 d9 99 be 9f be aa 3e 59 a3 e9 be
       0.7403495 -0.3004849 0.33348557 -0.45632437
000080 de 46 ff be 24 b0 4f 3f 85 b6 fd be 74 0f 19 bf
       -0.49858755 0.81128144 -0.49553314 -0.59789205
000090 b8 93 08 3f 11 1e 65 bf a8 60 1f bf 04 b0 4d 3e
       0.533504 -0.89499 -0.6225686 0.20086676
0000a0 26 99 4f 3f 44 d8 1f 3f 81 f2 90 3d 8f ac 42 bd
       0.8109306 0.6243937 0.07077504 -0.047527846
0000b0 f9 a2 0d be ba e5 9b b9 fc e3 12 3e 68 be 54 3e
       -0.138317 -0.00029735063 0.14344782 0.20775759
0000c0 e0 0e 5e 3c c6 11 57 bf 4c c8 1d be 52 a3 b2 3e
       0.013553351 -0.84011495 -0.15408438 0.3489023
0000d0 c1 82 55 3f f7 6c c1 3e 34 ce 8e 3d 66 86 a4 be
       0.8340264 0.37778446 0.06972924 -0.32133788
0000e0 5a 13 13 be 34 4f c0 be a9 c8 6d 3e 3f bf 04 bf
       -0.14362851 -0.37560427 0.23221077 -0.5185432
0000f0 eb d1 0a 3f 5b 03 cb 3e 7a 2f 64 bf 12 bd ca bc
       0.5422656 0.39650998 -0.89134943 -0.024748359
000100 d8 0b c2 be 9e 77 02 bf 9f 08 1f bf 7c a5 7b bf
       -0.3789966 -0.5096377 -0.6212253 -0.98299384
000110 9b 91 14 bf aa 92 0b 3f ba 5f 5e 3f 39 21 e4 3e
       -0.58034676 0.54520667 0.8686482 0.44556597
000120 e9 f5 1f 3f 32 83 95 be 08 53 5f bf 37 da 0f bf
       0.62484604 -0.29201657 -0.8723607 -0.56192344
000130 8a 0a c2 be a0 52 0f be 94 52 c4 3d 5b 44 0e be
       -0.37898666 -0.13996363 0.09586063 -0.13893263
000140 b1 05 45 3f e5 08 f1 3e b1 48 52 3e 5a bf 61 3f
       0.7696181 0.47077098 0.20535542 0.88182604
000150 92 9c a1 3e e7 12 70 be 1d 87 9b 3e 4e af aa 3e
       0.31564766 -0.2344471 0.3037652 0.33336872
000160 27 11 0e bf e8 2d 2b be a1 d1 bd 3e 9d da 2a 3d
       -0.5549492 -0.1671673 0.37073997 0.041712392
000170 bc 04 72 3e 46 f7 9d 3e b8 06 2e 3f 2f 8d ec 3e
       0.23634619 0.30852717 0.67979 0.46201465
000180 53 36 87 be 4e 89 b1 3e 29 06 06 3f 62 b8 6f bf
       -0.26408634 0.34675068 0.5235315 -0.9364072
000190 99 61 61 3f 08 08 35 3f ed 90 11 3e b7 36 08 3e
       0.8803955 0.7071538 0.14215441 0.13302122
0001a0 66 bd 01 bf 17 04 73 3f ed 42 7a bf e5 70 6d be
       -0.50679624 0.94928116 -0.9775837 -0.23187597
0001b0 d6 06 49 bf 77 aa f6 3e 93 f0 48 3f 79 cd 63 bf
       -0.78526056 0.4817693 0.7849209 -0.889854
0001c0 e8 3b 1f 3f da 12 b6 be 9c 89 fd bd 83 d9 d5 be
       0.62200785 -0.35561258 -0.123797625 -0.4176751
0001d0 b8 c6 ea bd bb 41 b3 3d 68 40 45 bf a7 9e bc be
       -0.11463684 0.087527715 -0.770514 -0.36839792
0001e0 5f 71 1e bf 92 32 3a 3f ae 1e 4f bf e7 a5 31 bf
       -0.6189174 0.72733414 -0.8090619 -0.6939377
0001f0 81 2e f3 3d c1 b8 68 bf 85 f1 6a 3f 9b 88 7a 3f
       0.11874104 -0.9090691 0.9177478 0.97864693

model.2.weight f4 [128, 128]
000000 0c e7 e4 3c 67 84 7e 3d 6a ef b2 3c 1d a7 88 bc
       0.027942203 0.062137987 0.021842677 -0.016681248
000010 87 ea 88 bd a1 6e ad bd 4b 5e 91 3b c8 3e 2f bd
       -0.066853575 -0.084683664 0.0044362894 -0.042784482
000020 44 3b 93 3d 54 6f 8b 3d 04 81 b8 3d 9f ea 51 bd
       0.071890384 0.068083435 0.09008983 -0.051249143
000030 d0 2e ac bd dd 8e a3 bc 66 d6 9b bc 48 2f 92 3d
       -0.08407366 -0.019965583 -0.019023132 0.071379244
000040 1d 5f ba bc ce 69 77 bb 1e c1 9d 3d 11 e4 80 bd
       -0.022750432 -0.0037752273 0.0770285 -0.062935
000050 fd 85 5c bd eb 4c 8a 3d 0a 93 a0 bd 91 a9 46 3d
       -0.05383872 0.06752952 -0.078405455 0.048501555
000060 82 35 a7 3d 20 f0 c7 3c b1 8a 5c bd eb 65 b7 bc
       0.08164503 0.024406493 -0.053843204 -0.022387465
000070 82 a4 00 3d d7 16 fd 3c 4b 5f 2c bc 3e ca a2 3d
       0.031406887 0.03089468 -0.0105207665 0.07948731
000080 b3 24 d1 bc 27 81 5f 3c 14 eb 11 3d 36 4d a8 bd
       -0.025530195 0.013641632 0.03562458 -0.08217852
000090 ae 41 63 bd d8 b6 c4 3c 31 b6 84 bd cc 59 f5 bb
       -0.05548256 0.024012968 -0.06480063 -0.0074875113
0000a0 4f 66 78 3d cf 49 8f 3d 58 09 7e 3d 74 2e a2 3d
       0.060644444 0.069965 0.06202063 0.079190165
0000b0 6a af 91 3d fe 4f b0 3d dc ff 42 bd 7a a6 d6 3a
       0.07113536 0.08609007 -0.047607288 0.0016376518
0000c0 ae 3a 27 3d 58 10 bb 3a d7 37 99 bd f7 aa 02 3b
       0.040827446 0.0014271839 -0.07481354 0.0019938329
0000d0 54 f1 a5 bd 01 a0 86 bc 9f 56 60 bd 7f f6 22 bd
       -0.0810267 -0.016433718 -0.05477011 -0.03978586
0000e0 f9 1e 8c bd 7a f3 6e bc 6d 09 be 39 4b e0 59 bd
       -0.06841845 -0.0145844165 0.00036246647 -0.053192418
0000f0 96 e9 b4 bd 48 c3 ab bc b4 4c 87 bd f7 7d 69 3d
       -0.088336155 -0.02096714 -0.06606427 0.057004895
000100 f3 fd 03 3d ca 20 b1 bc 06 9e ef bb f2 5b 98 bd
       0.032224607 -0.02162208 -0.007312539 -0.07439412
000110 64 07 bd 3b 2f 41 ea 3c 06 f1 1b 3d 71 b7 17 bd
       0.0057687033 0.028595535 0.038071655 -0.037040178
000120 c8 22 00 bd e6 f6 bd bc 0b 46 a3 3d 85 39 a3 bc
       -0.03128317 -0.02318902 0.07972344 -0.019924888
000130 44 cb f0 bc 96 4e dc bc cd 69 e2 3c 13 4e b1 3c
       -0.0293938 -0.026892941 0.02763834 0.021643674
000140 b5 c2 00 bc 2a 63 ad 3d 52 d4 8b bc f8 8c a2 bb
       -0.007858922 0.0846618 -0.017069016 -0.0049606524
000150 c7 d1 03 bd e3 3f 60 3d 8a 88 da bc a6 b6 71 3d
       -0.03218248 0.054748427 -0.026676435 0.059012078
000160 b0 3f a7 bd 2b de 2f bd 67 d5 9b bc fb 34 35 bd
       -0.08166444 -0.042936485 -0.019022657 -0.04423998
000170 d0 ba b0 bd 5f 3d 05 bd 7f c3 df bc e7 4b 9b bd
       -0.08629382 -0.03252923 -0.0273149 -0.075828366
000180 a5 97 94 bc 4a 63 86 bd 5a ef b0 3c 64 85 71 3d
       -0.018138716 -0.06561907 0.021598507 0.0589651
000190 42 ae 71 bd e5 02 3e 3d 5c df 06 bc 15 98 8a 3d
       -0.059004076 0.04638948 -0.008231964 0.067672886
0001a0 28 44 7f bd c3 e0 68 bd 3b cb 87 bd 42 f2 93 3d
       -0.06232086 -0.056854974 -0.0663056 0.072239414
0001b0 10 5e 0f bd d1 3e 99 bd cf a6 f8 bb bf e2 97 3d
       -0.035001814 -0.074826844 -0.0075882445 0.07416295
0001c0 73 85 59 bd 92 c8 b1 bd ee 58 9c bd 67 58 f9 3c
       -0.053105783 -0.08680834 -0.076341495 0.030437661
0001d0 d8 cb 95 bd 6a 8c b0 3d 93 30 82 bc 09 38 cf 3c
       -0.07314271 0.08620532 -0.015892303 0.025295274
0001e0 d2 f9 69 3b 6a 60 bb bc 41 6f 22 bb 5f 85 43 bd
       0.0035701883 -0.022873122 -0.002478555 -0.047734614
0001f0 fc 3e d4 bb c4 34 51 3d 8b 20 ba 3c 38 ab 50 bd
       -0.006477235 0.05107571 0.022720596 -0.050944537
000200 08 2c b7 3d 27 9c 84 3d 7f b2 29 bc ec 03 76 bd
       0.08943945 0.06475096 -0.010357498 -0.060062334
000210 a5 48 44 3d 14 c3 07 3c d8 52 a2 bc 89 68 05 bd
       0.04792084 0.008286256 -0.019814894 -0.032570396
000220 d1 c0 1e 3b 8e 54 38 bd a9 ae 49 3d 1d c4 77 bd
       0.0024223814 -0.045002513 0.049238835 -0.060489763
000230 b3 6d b0 bc 53 66 2a 3d 41 09 9a bc b9 65 a0 bd
       -0.021536684 0.04160149 -0.01880324 -0.07831902
000240 90 54 5b ba 57 e6 13 3c 34 93 41 3d 4f 2e 2d bc
       -0.0008366788 0.009027085 0.047259524 -0.010570123
000250 52 50 38 bd 74 6a 3c 3d ef 67 4f bd fe dc 0d 3c
       -0.044998474 0.04599996 -0.05063623 0.008658646
000260 07 27 84 bc 00 5b a6 b6 31 8c a7 bd 72 00 8e 3b
       -0.016131891 -4.9577793e-06 -0.08181036 0.004333549
000270 f4 1f a7 bd 8e ba a3 bd b1 f9 23 3d cb a5 84 bd
       -0.081603914 -0.07994567 0.040033046 -0.06476935
000280 e4 58 9d bc c9 b5 97 3d 54 b3 64 3d 29 01 22 bd
       -0.019207425 0.0740772 0.055835083 -0.039551888
000290 28 80 a7 3d 7e e5 ab 3c e6 4c 6e bd 67 37 33 3d
       0.08178741 0.020983454 -0.058178805 0.043754008
0002a0 ff 60 2e 3c 3b 47 88 bd fd 52 a9 bd c2 3e 6c bd
       0.010643243 -0.06654211 -0.08267782 -0.057677038
0002b0 43 87 92 3d 58 8c 95 3d 9d ab 5d 3c 07 67 9f 3d
       0.071547054 0.07302159 0.013529685 0.07783323
0002c0 ba d9 0f 3d 8e ed 54 bd 89 5f 96 3d 00 af 42 bd
       0.03511975 -0.051984362 0.07342441 -0.047530174
0002d0 01 61 85 bc 59 36 8a bd b9 63 4c bd cc 4e 95 3c
       -0.016281607 -0.06748647 -0.04989979 0.01822605
0002e0 84 1f d8 3a c1 02 85 bd 84 c3 8e 3c c0 55 a2 bb
       0.0016488885 -0.06494666 0.017427213 -0.00495407
0002f0 d0 10 13 3d 28 94 85 bb fc ae 28 bb 1c 69 fd bc
       0.035904706 -0.0040764995 -0.0025739064 -0.03093391
000300 e6 62 2b bc 46 8f 9b 3d 08 c0 9f 3d 30 28 a4 3d
       -0.010460591 0.075956866 0.07800299 0.08015478
000310 67 23 eb 3c be b0 98 bc 4e a4 67 bd 76 27 b5 3b
       0.028703405 -0.018638965 -0.056553178 0.0055283858
000320 a3 94 3c bd 51 51 68 3d a7 ec 98 bd e3 22 8e bc
       -0.04604019 0.056718174 -0.07467013 -0.01735062
000330 4d 99 1f 3d f1 72 53 3d 91 d0 2a bd ca 2c 8a 3d
       0.03896456 0.05162329 -0.04170281 0.06746824
000340 c3 2b 05 bc 1e b9 80 3d 2d b0 84 bd 97 dd f6 3c
       -0.008128109 0.06285308 -0.06478915 0.03013496
000350 f3 77 06 3b 4d 6c 0c 3d 59 37 aa 3d 3d 1e 0b 3d
       0.0020518273 0.03428297 0.08311338 0.033964384
000360 2b aa 76 bd 04 89 f4 bc a0 d5 9f 3b 43 6e c8 3c
       -0.06022088 -0.02985049 0.004877761 0.02446664
000370 cc 87 3d 3d 67 50 b3 3c ba 25 1f bc e2 de a4 3d
       0.046272084 0.021888925 -0.009713585 0.08050324
000380 6d 4e a3 bd f3 c9 52 bd 62 ed 99 3d 08 9d 53 bd
       -0.07973943 -0.051462125 0.0751598 -0.05166343
000390 85 89 20 3d 80 e0 77 bd 6c dc 6f 3d a2 26 92 bd
       0.03919365 -0.060516834 0.05855982 -0.07136275
0003a0 24 3c 17 3d c8 e0 0c 3c c4 d7 63 3d 87 bf 7f bd
       0.03692259 0.008598514 0.055625692 -0.062438514
0003b0 f3 6b 53 bd b6 02 86 bc c9 59 75 bc fa 0d 95 3d
       -0.05161662 -0.016358715 -0.01497502 0.072780564
0003c0 0a a0 17 3d 1e eb 74 bd 1d 66 2f bd 3a dc a4 bd
       0.03701786 -0.059794538 -0.042821992 -0.080498174
0003d0 47 15 99 bd cd 50 22 3d d5 1a ca 3c fa 8a db bc
       -0.074747615 0.03962784 0.024670998 -0.026799668
0003e0 7a 3a 03 3d 3c 67 59 3d 60 11 49 bd 18 ff 15 3d
       0.03203819 0.053076968 -0.049088836 0.03662023
0003f0 9d dc 41 3d 32 d9 37 bb 34 88 3d bd 4d 79 17 3d
       0.047329534 -0.0028053042 -0.04627247 0.036980916

model.2.bias f4 [128]
000000 05 32 1f bc 4d fe 70 3d 17 59 1b bd 1d be 00 bd
       -0.009716515 0.05883627 -0.03792676 -0.031431306
000010 e9 a0 e4 3c 65 7f ff 3b 32 9c e4 3c 34 7a 01 bd
       0.02790876 0.007797169 0.027906511 -0.031610683
000020 ee 58 5e bc a5 3d 22 bd fd f3 33 bd ac 0f af bd
       -0.013571007 -0.03960957 -0.043933857 -0.08547911
000030 c0 b1 a6 bd 5c 75 f9 38 9d 3e d4 3c fc 07 4b 3d
       -0.08139372 0.00011895105 0.025908763 0.04956816
000040 30 2e 96 3c d8 14 81 3d 12 e3 88 bd 32 b3 9c 3d
       0.01833257 0.06302804 -0.06683935 0.07651366
000050 18 75 14 3d 0e 28 b1 3d 8f 55 af bc 77 03 91 bc
       0.03624448 0.08650218 -0.021403102 -0.017701847
000060 b9 3e a4 3d 91 04 1f 3d b0 a0 62 3d 49 c1 8f bd
       0.08019776 0.038822714 0.055329025 -0.07019288
000070 c7 cf 0d bd 0f 7e 5a 3d d4 59 2d 3d 58 6b 75 3c
       -0.03462198 0.053342875 0.042321995 0.014979206
000080 29 5f 69 3c 72 1d 4e 3d 0c e6 bf 3c 9a db 4a bd
       0.014243879 0.05032105 0.023425125 -0.049525835
000090 9f 44 15 3d 45 65 b2 3c 3c cd be bc 34 1f cc bc
       0.036442395 0.021776805 -0.023291223 -0.024917223
0000a0 1a a5 b9 bb a2 9e 85 3c ba e3 a7 3d 44 aa ea 3c
       -0.0056654336 0.016310994 0.08197732 0.028645642
0000b0 03 ff 84 3d 0a 12 ab 3d d5 f2 15 3d 94 3d 53 b9
       0.06493952 0.0835305 0.036608536 -0.00020145468
0000c0 c6 24 a4 3d 72 a3 68 bd 02 79 9e bb b7 bc fd bc
       0.080148265 -0.0567965 -0.0048362026 -0.030973775
0000d0 5f 12 8b bd 25 6a 19 3c 44 ea 90 bc 1b 39 c9 3a
       -0.067906134 0.009363686 -0.017689832 0.0015352102
0000e0 bb c4 f6 3b 06 80 47 3d d6 44 be 3c a0 b9 9b 3d
       0.0075307763 0.048706077 0.023226183 0.076037645
0000f0 4a 40 0b 3d a2 17 4e 3c 1c 00 7b 3d 18 9c a7 3d
       0.033996858 0.012578877 0.0612794 0.081840694
000100 df 45 8e bc 51 0f 9d bd 5d 91 9d bd df 9f a3 3d
       -0.017367302 -0.07668937 -0.076937415 0.07989477
000110 af a2 0f 3d aa 27 ad bd 87 a2 1b 3c 51 2b ef bc
       0.035067257 -0.08454831 0.009499199 -0.02919546
000120 11 9e 0d 3d fc b4 a3 3d 6f e3 4c bd a5 0b cd 3c
       0.034574572 0.079935044 -0.050021585 0.025029967
000130 bf 6e 27 3d 2c 2c ad 3c 41 a8 5a 3c ff 4d 36 3c
       0.0408771 0.021139227 0.013345779 0.011126994
000140 ab 5a 9a bd 6c f1 95 3c 2a 75 52 3d ac ce ad 3d
       -0.07536825 0.018303595 0.051381268 0.08486685
000150 82 d3 0f 3c c2 09 96 3d 58 37 89 3a 3a 7d 40 bd
       0.008778455 0.0732608 0.0010468764 -0.046994425
000160 32 bf 1d bd 94 5c 9f 3d b7 89 29 bd 28 c8 80 bc
       -0.038512416 0.0778133 -0.0413911 -0.015720442
000170 3a 3c 88 bd 43 bd 9e bd 5e 17 6a 3d db 1b 1d bc
       -0.06652112 -0.077509426 0.05715119 -0.009589161
000180 e5 9a 5f bc 54 0c 1f bc dd 34 12 bc 70 ad ab 3c
       -0.01364777 -0.009707529 -0.008923736 0.020956725
000190 6b df 02 3d d8 cd 4c 3b 72 44 30 bd fe bc 9c 3d
       0.03195135 0.0031250622 -0.043034025 0.07653235
0001a0 eb e3 71 3d b2 14 8d bd 74 72 1d 3d 8c 44 a2 3d
       0.05905525 -0.06888713 0.03843923 0.079232305
0001b0 01 29 1b bd 31 fe 36 3d 61 87 b2 3d 93 57 01 3d
       -0.0378809 0.04467601 0.08717228 0.031577658
0001c0 1c 8f 6b bd 31 79 df bc 2f ab 44 3d 79 45 4b 3d
       -0.057509527 -0.027279468 0.048014816 0.0496268
0001d0 5b e9 85 bd 33 30 6b 3d a5 48 1d 3c 71 b4 73 bc
       -0.0653865 0.057419013 0.009599839 -0.014874564
0001e0 01 40 94 3d c5 6a 0e bd 91 92 41 bd cf 48 27 3c
       0.0723877 -0.034769792 -0.047258917 0.01021023
0001f0 c8 76 60 3b 80 c3 13 3d 68 08 5f 3c 5b 99 66 bd
       0.0034250487 0.036075115 0.013612844 -0.056298595

model.4.weight f4 [128, 128]
000000 da d3 9c b9 c9 bd 9b bd 59 32 9b 3d c3 06 11 3d
       -0.0002991248 -0.07604558 0.075779624 0.03540684
000010 b6 17 7f bd 53 3a 93 bc 64 e3 9b bd 77 be a0 bd
       -0.062278472 -0.017972147 -0.07611731 -0.07848828
000020 a9 7c 80 3d a6 35 47 bd c5 57 9e 3d 4e 1e 72 3c
       0.06273777 -0.048635148 0.077315845 0.014777733
000030 8d b1 62 3d b5 9f 82 3d 50 af a3 3d 94 4d 73 bb
       0.055345107 0.06378118 0.079924226 -0.0037125098
000040 5b 65 67 3c c5 85 26 bd 15 6d 11 bd 1b c4 a4 bd
       0.014123286 -0.040654916 -0.03550442 -0.08045217
000050 36 b0 8e 3d f6 f6 ab bc 46 aa f4 3c 71 53 80 3b
       0.06967203 -0.020991784 0.029866349 0.003916197
000060 bc 79 4e bd e4 d7 a9 3d bc bf db 3a 44 fe a5 bd
       -0.050409064 0.08293131 0.0016765515 -0.08105138
000070 f6 11 50 bd 38 05 d5 3c 1a f0 5b 3d 41 6b 83 bd
       -0.05079838 0.026003465 0.053695776 -0.064169414
000080 6f b6 e5 bc 8c 04 07 ba ee a4 ae 3b 7a a6 43 bd
       -0.028041093 -0.0005150519 0.0053297197 -0.047766186
000090 f7 62 49 3d 30 ae 64 bd 6e 59 a7 3d ae a7 95 bd
       0.049166646 -0.05583018 0.08171354 -0.07307373
0000a0 79 a0 60 3d 66 06 a7 bc 52 02 55 3d 86 04 96 3d
       0.05484054 -0.020388793 0.052004166 0.073250815
0000b0 d1 f4 46 3c ed 81 8e 3d 90 52 a0 bd d5 ef ef bb
       0.01214333 0.06958375 -0.078282475 -0.0073222914
0000c0 d7 bc 67 3d ac 74 17 3d e4 62 9b 3d ef a8 ab 3c
       0.056576576 0.0369765 0.07587221 0.020954577
0000d0 6d 37 a5 bd a8 de f6 bc d8 46 a2 3c 4a 9d 93 bc
       -0.08067212 -0.030135468 0.019809172 -0.018019337
0000e0 ff 7f 5f bd e6 95 7d 3d 5d bf 8f 3d 20 ff 89 bc
       -0.054565426 0.061910532 0.070189215 -0.016845286
0000f0 8d 21 49 bc 5d b7 6a bc 3e dd a8 bd 2a 0a 8d bd
       -0.012276066 -0.014325944 -0.082453236 -0.06886704
000100 0f 35 b1 3d f3 21 5e 3d 43 cf fa 3c 6a e2 e5 bc
       0.08652698 0.054231595 0.030616408 -0.028062064
000110 c7 45 0d 3d af 3b 16 3d b9 e5 94 bd 9b bd 97 3d
       0.034490373 0.036678012 -0.072703786 0.07409211
000120 aa ec 3f 3c 60 3e 07 bd 92 11 7c bd 66 30 15 bd
       0.01171414 -0.03301847 -0.061540194 -0.03642311
000130 66 94 b8 bc 76 77 11 bd b9 f7 19 3c 71 08 56 bd
       -0.0225317 -0.035514317 0.009397441 -0.052254144
000140 d7 a3 a1 3d e5 89 3b bd 12 cc a8 3d 18 c4 f5 bc
       0.07892578 -0.045785803 0.08242048 -0.030000731
000150 5a 2a d5 bc f1 70 8f bd cc 3d f6 3c f1 2d ad 3d
       -0.026021171 -0.07003964 0.030058764 0.08456028
000160 11 f9 9d 3d 12 c3 8b bd c2 14 96 bd 66 85 80 3d
       0.07713521 -0.06824316 -0.07328178 0.06275444
000170 26 e2 5e bd de aa 2b bc bc 0a 35 3d 57 8b 2c bd
       -0.05441489 -0.01047775 0.04419969 -0.042125072
000180 3e 9b 7a 3d b1 0c 9e 3d 9f 6f 9d 3d 09 c6 de 3c
       0.061183207 0.077172644 0.07687306 0.02719404
000190 4f 83 a1 3d 1a 83 55 bd 66 14 ac bd bd 0d a8 3d
       0.07886373 -0.05212698 -0.08402328 0.08205745
0001a0 9d 45 8a 3d 5e 95 96 3d 9e 9a 44 3b 74 41 82 bd
       0.06751559 0.07352708 0.0029999386 -0.063601404
0001b0 a9 08 cf bc 8e 99 7a bc f0 b8 3c 3c ff ed 9f 3d
       -0.025272684 -0.015295399 0.011518702 0.07809066
0001c0 ae 79 52 3d 89 25 aa 3d 4e f1 81 3d 5c 7d 7d bd
       0.051385574 0.083079405 0.06344853 -0.06188713
0001d0 c7 53 90 3d 41 ca 90 bd 83 e2 80 bd d8 61 99 bd
       0.07047229 -0.07069827 -0.06293204 -0.07489365
0001e0 28 81 24 3b 4a 4e 87 bd 17 62 a1 3c 57 c6 71 3a
       0.0025101397 -0.06606729 0.019700093 0.00092229753
0001f0 5d b8 a9 3d 9d 01 23 bd f0 48 8b bd 93 b6 32 3d
       0.08287118 -0.03979646 -0.06801021 0.043631148
000200 c0 08 ae bd f5 60 13 bd b9 b7 a5 bd 67 8e 1b bb
       -0.08497763 -0.035981137 -0.08091683 -0.0023736001
000210 a5 c5 43 bd 37 07 b4 3c f6 7c 89 3c 62 29 d7 3c
       -0.04779591 0.021976097 0.016783219 0.02626485
000220 f5 b9 01 bc 2a 96 a7 bd ce 0d a3 3d 8e 92 54 3d
       -0.007917871 -0.081829384 0.079616174 0.051897578
000230 e9 d8 81 bd 1a bb a7 bd be 38 be 3c 9b ce aa 3d
       -0.063402005 -0.08189984 0.023220416 0.08340188
000240 4b a2 17 3d 02 06 39 bd ba 28 69 bd a6 ea 8e 3c
       0.03702001 -0.045171745 -0.056923606 0.017445873
000250 19 6d fc bc 8f 2f 0c 3c 46 45 38 3d d5 63 b1 bd
       -0.03081374 0.008556261 0.04498794 -0.086616196
000260 66 a1 03 3c e3 93 0e bd e1 35 58 bd 79 f4 90 bd
       0.008034086 -0.034809005 -0.052785758 -0.070778795
000270 6e ad b2 bd 27 e2 02 bd 8b 48 97 bc a8 86 65 bc
       -0.08724485 -0.031953957 -0.018467208 -0.014009155
000280 15 34 d2 3c 58 bf 4c 3d 89 85 91 3b bf 12 a8 bd
       0.0256596 0.049987167 0.0044409675 -0.082067005
000290 82 b5 04 bd cd d4 b0 bd a5 95 ec 3c fd 46 71 3c
       -0.03239966 -0.086343385 0.02887995 0.014726398
0002a0 ba 02 87 3d 84 6e 9c bc da a7 a3 bd 48 b3 a3 bd
       0.06592317 -0.019095667 -0.079909995 -0.079931796
0002b0 e5 31 1b 3d 68 6b 50 bb 71 de 5e bd 0b 15 ad 3d
       0.03788938 -0.00318023 -0.054411355 0.08451279
0002c0 1a 5f 26 bd 1c c6 ae bc e7 d8 ac bc 9f 7c 4e 3c
       -0.04061804 -0.0213347 -0.02109952 0.012602954
0002d0 c8 52 aa bd 9a 89 d3 3c bd 44 ed bc be 6d 0c 3d
       -0.083165705 0.02582245 -0.028963441 0.034284346
0002e0 53 d8 94 3d 8a 16 2e 3d a4 87 9a 3d 7f e1 27 bd
       0.07267823 0.042501964 0.07545403 -0.040986534
0002f0 6a 04 b3 bb d7 cf b8 bc 5f 52 6f bd de 3c 8a 3d
       -0.0054631727 -0.022560043 -0.058428165 0.06749891
000300 24 15 4d 3c 73 fb 84 3b a9 34 d8 bc 67 3e 92 3d
       0.012517247 0.0040582954 -0.026392298 0.071408086
000310 e4 20 1c bd 4e 84 03 3d 45 92 80 bd 6c 1c 75 3d
       -0.038117304 0.032108597 -0.06277899 0.05984156
000320 39 51 59 bd 75 10 8b 3d 1e 0b c1 3c 85 57 e9 3c
       -0.053055976 0.06790248 0.023564871 0.028484115
000330 ca a1 70 bd 9c d7 33 bd 9c 1f a6 3d 87 c3 a3 3b
       -0.058748044 -0.043906793 0.08111498 0.004997674
000340 5f 7f b3 bb be 8b 2e bd e4 94 e5 bc 50 ee 5a 3c
       -0.0054778303 -0.042613737 -0.028025098 0.013362482
000350 9a 70 56 3d 96 fc b2 bd ef 32 01 bc 6e 62 8c bd
       0.05235348 -0.08739583 -0.007885679 -0.068547115
000360 50 60 c9 bc 39 14 6f 3c 6e e3 89 bd 01 12 8f bd
       -0.024582058 0.014592224 -0.06732832 -0.06985856
000370 c4 45 96 3c 12 2a 57 3c 43 75 cf bc 24 3b a2 3d
       0.018343814 0.013132589 -0.02532447 0.079214364
000380 94 c2 5c 3d b9 d9 ec bc 7b b5 87 bd 89 e5 9c 3d
       0.0538965 -0.028912412 -0.066264115 0.07660968
000390 7d c9 c5 3b 00 8f 6d 3d 34 32 16 bd 08 ab ce 3c
       0.006035982 0.057997704 -0.03666897 0.025228038
0003a0 ab 19 f9 3c 48 15 8f 3d f5 f8 9d 3d e0 de 2b bc
       0.030407747 0.06986481 0.077135004 -0.010490149
0003b0 e9 e7 ae bd 15 04 0f 3d 5c 4c 5f bc 12 ee bd 3c
       -0.08540327 0.034916002 -0.013629045 0.02318481
0003c0 3e 71 5e bc 06 1e 0b bc 66 ce c6 3c ae 3f 9c bd
       -0.013576804 -0.008491045 0.02426834 -0.076293334
0003d0 ee 8a 5a 3b cd d9 09 bd 32 ff 07 3d a6 48 22 bd
       0.0033346969 -0.033654977 0.033202358 -0.039620064
0003e0 70 e8 ca 3a 66 51 05 bd 1b 92 31 3d 16 6f 82 bd
       0.0015480649 -0.03254833 0.043352228 -0.06368844
0003f0 bc b2 ad bd f1 8d e9 bc c1 f4 2a bd 90 31 1e bd
       -0.084813565 -0.028510066 -0.04173732 -0.038621485

model.4.bias f4 [128]
000000 e1 25 4d 3d 60 bd e8 3c bb 15 b5 bc 9c d1 ff 3b
       0.050084952 0.028410614 -0.022105088 0.00780697
000010 2e 2f 8d bd 56 ac b1 3d fe 38 1a bd 11 7e 38 bc
       -0.068937644 0.086754486 -0.03765201 -0.011260525
000020 38 21 60 3c 32 89 51 bc bb c2 29 bd 30 a0 b2 bd
       0.013679795 -0.012789058 -0.041445475 -0.087219596
000030 a9 bc 84 bc e5 6c 34 3d 8c db 20 bd 4b 8f 15 3d
       -0.016203241 0.044049162 -0.039271876 0.036513608
000040 e8 d8 19 3d 10 d0 87 bd 93 a6 3e bd fb cf a7 bd
       0.037560374 -0.06631482 -0.046545576 -0.08193966
000050 0d d6 14 3d cf dc 2e bd 8d 7c 9f bd e0 f3 a9 bd
       0.036336947 -0.04269105 -0.07787428 -0.082984686
000060 19 ed 85 3d 98 a5 a9 3d 76 6b 84 bd b9 38 9d bd
       0.065393634 0.082835376 -0.06465809 -0.076768346
000070 2b 16 b0 3c a5 da ad bd ff 19 38 3c f7 50 75 3d
       0.021494946 -0.08488969 0.011236667 0.059891667
000080 e8 d7 8f 3d 7e ad ff 3c 77 ec 5b 3d 12 7c be 3b
       0.07023603 0.031210657 0.053692307 0.00581313
000090 9b 89 7c 3d af f5 03 3c f4 f4 8c bb 20 f0 d4 3c
       0.06165467 0.008054181 -0.0043016616 0.025993407
0000a0 51 ed ae bd c1 11 4b bd 6d 85 69 bd 61 d9 db 3b
       -0.08541358 -0.04957748 -0.05701201 0.006709263
0000b0 14 48 7d bc af f8 4f 3d 47 bb 9d bd 0d 0c 2d 3d
       -0.015459079 0.050774273 -0.07701736 0.04224782
0000c0 51 61 cc 3c 45 0a 6c 3d a7 c0 12 3c 9c f3 55 3d
       0.024948748 0.05762698 0.008957065 0.052234277
0000d0 af f9 a9 3b 76 48 18 bd ac 59 80 3d 94 2d 14 3c
       0.0051872353 -0.03717848 0.062671036 0.00904407
0000e0 f8 2f 5a bd eb 83 96 bd 78 02 8c bd 8e 27 00 3c
       -0.053268403 -0.0734938 -0.068364084 0.007821931
0000f0 c6 25 00 3c 37 48 58 3d 3f c3 ff bc 38 c4 d8 3c
       0.007821506 0.052803244 -0.03122103 0.026460752
000100 0e 41 57 3d fa 75 00 3d 7c 1b 99 bc 35 f0 6d 3c
       0.052552275 0.03136251 -0.018689863 0.014522602
000110 5e 92 25 bd 3f c2 b7 bd eb 6d ac 3d 5e ef 83 bd
       -0.04042279 -0.089725964 0.08419403 -0.0644214
000120 7e 24 98 3d c0 0e 42 bd 25 d6 8b 3c 86 b3 b0 bd
       0.07428835 -0.047377348 0.017069886 -0.086279914
000130 8f 60 20 3d 9a 3f 1e bc 0f 52 00 bc 1b 88 28 bd
       0.039154585 -0.0096587185 -0.007832064 -0.041145425
000140 ce a8 63 bc cb af a1 bc bc e3 a1 bc 8c 66 27 3d
       -0.013895227 -0.019737145 -0.019761913 0.04086928
000150 97 11 0e bd 06 7b a7 bd 25 bb 9c 3d d4 58 8f 3d
       -0.034684744 -0.08177762 0.076528825 0.069993645
000160 09 8d 93 3d bc ad 4a bd 02 88 a3 bd 11 c8 18 bd
       0.07204635 -0.049482092 -0.07984926 -0.037300173
000170 10 f3 e6 b9 f6 97 14 bd ee 77 31 3d 19 de 92 3c
       -0.00044050114 -0.036277734 0.043327264 0.01792817
000180 d1 a8 13 bd d5 98 7d 3d 84 49 5c bc a9 4e 91 bd
       -0.036049668 0.06191333 -0.013445262 -0.07095081
000190 95 c5 3f bd bb 3b 36 bd fd 7f 41 bc ba 8f 58 bd
       -0.04681929 -0.044490557 -0.0118103 -0.052871443
0001a0 7c a8 66 bd 33 be a3 3c 85 9a 44 3d 0d ab af 3d
       -0.056313023 0.019988155 0.047998924 0.08577547
0001b0 19 74 0a 3d 1e ed 0f 3d 85 8f 03 bd a5 37 b4 bd
       0.033802126 0.035138242 -0.032119293 -0.08799676
0001c0 78 5b 97 bc 04 ed 0e bc 31 78 0c 3c 6e 20 a1 3d
       -0.018476233 -0.008723501 0.008573578 0.078675136
0001d0 8c 3a b1 bd 9f a7 6d 3d dd f9 47 3d 06 7d 5e 3c
       -0.08653745 0.058021184 0.048822273 0.013579613
0001e0 5d 63 a2 bc b4 42 85 bd a5 b2 4d bd fc 97 83 3d
       -0.01982277 -0.06506863 -0.050219197 0.06425473
0001f0 69 72 e3 bc 9e e1 28 bd 87 63 3d 3d 52 91 5d bd
       -0.027764516 -0.04123079 0.046237495 -0.054093666

model.6.weight f4 [128, 128]
000000 1c 20 8c 3d 26 30 97 bd 88 4c 76 bc 0e 96 8c 3d
       0.06842062 -0.073822305 -0.015032895 0.06864558
000010 dd 25 4e bd a3 c8 1a 3c 9a c8 b2 3d ac bd 80 3d
       -0.050329078 0.00944725 0.08729668 0.06286177
000020 58 17 2f 3d 77 9b 03 3d e7 d9 52 bb 04 3b 3a 3d
       0.04274687 0.032130685 -0.0032173337 0.045466438
000030 e7 8d 45 bd 1e 57 2f 3d 1d 09 08 bd ba 7e 67 bd
       -0.04823103 0.04280769 -0.033211816 -0.05651734
000040 a1 c1 b3 3a 9b 5b 84 3d db 8b 14 3d 0c c3 a0 bd
       0.0013714322 0.06462785 0.03626619 -0.07849702
000050 46 f5 66 bd 71 78 98 bc f3 12 47 3d 89 7a 68 3c
       -0.056386255 -0.018612118 0.048602056 0.014189371
000060 11 1a e9 bc a5 4c 11 bd 9f 17 b0 3d 30 fe 25 3d
       -0.028454812 -0.035473485 0.08598255 0.040525615
000070 27 0b 54 3d 63 ed 68 bd 65 91 53 3d 97 ab fb 3c
       0.05176845 -0.056867015 0.05165233 0.030721469
000080 5d da e7 bc 77 a6 b7 bd 11 e7 af 3d 91 69 6a bc
       -0.028302366 -0.089672975 0.08588994 -0.014307396
000090 ac b7 2c bc fa b0 a3 bd 19 8c 95 3d e6 7b 7f 3d
       -0.010541838 -0.0799274 0.07302112 0.062374018
0000a0 4b 60 24 3d 68 f9 a1 3d 73 7b 89 3d 18 60 a0 bd
       0.040130895 0.079088986 0.06712999 -0.078308284
0000b0 37 77 23 3d 43 87 4c 3d ed 84 82 3b 92 28 a5 3d
       0.039908614 0.049933683 0.003983131 0.08064379
0000c0 b1 ad 2e bd 69 fe e7 3c 42 ff 39 bd 69 e1 41 3d
       -0.042646114 0.028319554 -0.04540945 0.04733411
0000d0 21 39 ad bd d7 92 8e 3c c6 85 ac 3d ea b9 54 bc
       -0.08458162 0.017404003 0.08423953 -0.0129837785
0000e0 10 8a bd bc b2 97 d0 3c f2 24 80 bd a0 06 4d bd
       -0.023137122 0.025462959 -0.06257047 -0.050055146
0000f0 7f e2 8f ba af 95 8a bd 3a e0 82 3d 11 0e 97 bd
       -0.0010977535 -0.06766831 0.06390424 -0.0737573
000100 61 0f 02 bd c9 7c 94 3b 3e 44 2d 3b 63 cc 70 3d
       -0.031752948 0.004531477 0.002643838 0.05878867
000110 7e c2 2c 3c f4 33 82 bd e4 cf fc bc 64 8c 96 bc
       0.010544417 -0.063575655 -0.030860849 -0.01837749
000120 61 03 80 3d 51 7f c1 bc a5 3b 61 bc e1 76 28 bd
       0.062506445 -0.02362028 -0.0137471305 -0.041128997
000130 57 fc b7 bd a9 8c ad bd 06 11 e4 3c 40 7c 19 3d
       -0.08983677 -0.084740944 0.027840149 0.03747201
000140 68 b9 91 bc d3 5f ed 3c 40 02 95 3d fc de 95 3d
       -0.017788604 0.028976357 0.0727582 0.073179215
000150 2d ac b8 3d 28 79 35 bd b5 7a 9a 3d 8b 3b 88 bd
       0.09017215 -0.044304997 0.07542936 -0.06651982
000160 cb 54 21 3d c4 c8 b6 bc 31 9f 7c 3c 56 66 93 3d
       0.039387506 -0.02231253 0.015418814 0.071972534
000170 5e 22 84 3d 00 b1 81 3d 37 3b d2 3b eb 48 16 bd
       0.064518675 0.06332588 0.0064157504 -0.036690634
000180 de 33 12 ba a2 70 b1 bd b8 e5 58 bc 05 83 b2 bd
       -0.0005577187 -0.08664061 -0.013238363 -0.08716396
000190 66 a1 a4 3d a8 45 87 bb e3 f0 0d bd 01 98 89 3d
       0.08038597 -0.0041281767 -0.034653556 0.067184456
0001a0 51 16 77 bd 1f fb cf bb 46 dc 6d bc 51 79 7c 3d
       -0.060324017 -0.0063470746 -0.014517849 0.061639134
0001b0 09 d0 95 3d 33 01 5c 3c f5 54 59 bd f9 14 e2 bc
       0.0731507 0.01342802 -0.053059537 -0.027597891
0001c0 5f 03 20 bd 60 ab a3 bd 24 0d 94 bd b8 fa af 3d
       -0.039065715 -0.079916716 -0.07229069 0.08592743
0001d0 f0 54 83 3d f7 9a 5d 3d 88 e6 86 bd 81 96 23 3c
       0.06412685 0.054102864 -0.06586939 0.009984613
0001e0 ad 4e 77 bb b2 50 84 3d 0e d1 2c bc 7e 96 2d bd
       -0.0037736103 0.06460704 -0.010547889 -0.04237985
0001f0 69 dd 8c bd 9d 03 1e bd 32 09 8b bd 7c 1f 2f 3c
       -0.06878168 -0.038577665 -0.06788863 0.010688659
000200 fa 8d 47 3d c3 ce 3b bd 5d a9 cc bc 0f c5 82 3d
       0.048719384 -0.04585148 -0.024983102 0.06385242
000210 2a 27 80 3d f7 af ea 3c 2e 1b 8f bd 1f 7c 65 bc
       0.0625747 0.02864836 -0.06987606 -0.014006644
000220 9d 36 27 bd f2 b6 31 3d 09 fc 3e 3c 19 a2 88 3d
       -0.040823568 0.04338736 0.01165677 0.06671543
000230 bf f1 08 bc 9f 5c 99 3d 0c 96 2f 3d 30 61 8f 3d
       -0.008358418 0.07488369 0.042867705 0.07000959
000240 c7 7b 78 bc 0b 9c 9a 3c 4a c9 19 bd 04 76 40 3d
       -0.01516623 0.018873235 -0.03754548 0.04698755
000250 d9 f8 49 3b a0 9d 51 3b 9d 29 7e 3d d4 f6 79 3d
       0.003081849 0.003198482 0.062051404 0.06102641
000260 44 cd a8 3b ef 94 e1 3c de cc 90 bc 6f bb 18 bd
       0.0051514227 0.027536837 -0.017675813 -0.037288126
000270 ee 16 ec b9 b1 f1 63 3c 13 7f 08 bc 95 a9 12 bd
       -0.00045030512 0.013912604 -0.008331078 -0.035806257
000280 99 98 ca bc 6f 3a 45 3d 22 52 23 bd 63 48 87 3d
       -0.024730967 0.04815143 -0.03987325 0.066056035
000290 6c d0 dc bc d0 48 8b 3a 5b 7d a2 bc 40 60 99 3d
       -0.026954852 0.0010626558 -0.019835165 0.07489061
0002a0 bc 4e 11 3d 97 04 a0 bc 6a ad 6c 3c 33 5b 49 3d
       0.035475478 -0.019533439 0.014445642 0.04915924
0002b0 c9 85 d7 bc 13 58 af bd a5 bf 35 3d e7 a4 f6 3c
       -0.02630891 -0.08561721 0.04437222 0.030107928
0002c0 f9 db a3 bd 72 6b 94 3d 7e 60 9f 3d 84 d4 ac bd
       -0.08000941 0.07247056 0.07782076 -0.08438972
0002d0 d0 ae 11 bc 42 30 3b 3d 0f 9e 0d bc 22 e8 0d 3d
       -0.008891776 0.04570032 -0.008643641 0.034645207
0002e0 fe 26 a2 bd b0 6c f1 bc f7 84 43 3d 10 ef 02 bd
       -0.079175934 -0.029470772 0.047734227 -0.03196627
0002f0 92 39 0d bd 36 77 c3 3c 32 12 7e 3d 98 f0 aa 3d
       -0.03447873 0.023860555 0.06202907 0.08346671
000300 94 72 6e 3d 55 f2 84 3d 8b 79 a0 bd 6a f0 c8 3c
       0.05821474 0.06491534 -0.078356825 0.0245287
000310 86 be 9b 3d 01 a1 99 3d 2f a1 80 3d c5 10 32 bd
       0.07604699 0.07501412 0.06280743 -0.043473024
000320 35 5a 86 3d a0 07 8b bc b5 13 51 bd 2e 85 5d 3d
       0.065601744 -0.01697141 -0.051044185 0.05408209
000330 e0 46 57 bd f0 6d 00 3b e6 b6 94 bd a1 9c 1f 3d
       -0.052557826 0.0019596778 -0.072614476 0.038967732
000340 d2 4e 8b 3d e9 fd 89 bd 3b b2 79 3d 78 f7 b2 bb
       0.06802143 -0.06737883 0.06096099 -0.0054616295
000350 61 d3 19 bd f9 ab 5d 3d 30 aa 23 bd 9f 0e 4b bc
       -0.037555102 0.054119084 -0.039957225 -0.012393623
000360 7c c9 69 bd 65 52 c0 3a fe c6 8e 3b b8 65 8e bb
       -0.057076916 0.0014672993 0.004357218 -0.004345622
000370 8d 7c 4e bd c9 25 e4 3c 99 2c 25 bd 0e c0 2b 3d
       -0.05041175 0.027850049 -0.040325735 0.041931204
000380 e2 8c c8 3c 94 6c 9c bd ce 61 89 3d b7 cd 39 3d
       0.02448124 -0.07637897 0.06708108 0.0453622
000390 9d ed de bc f6 63 d1 bb 1c 6f 6c bc e5 d2 8b 3d
       -0.027212912 -0.00639009 -0.014430787 0.06827334
0003a0 32 bc 04 3d 9f 7c 8b bc 19 c7 c1 bc 32 5f 74 3d
       0.03240604 -0.017027197 -0.023654507 0.059661098
0003b0 1d 00 a9 bc 83 b4 a9 bb 33 77 de bc 96 e5 1a bd
       -0.020629937 -0.0051789894 -0.027156448 -0.037816606
0003c0 bf 57 5e bd 23 b4 af 3d e2 83 78 3d 60 92 5c 3d
       -0.0542829 0.0857928 0.06067265 0.05385053
0003d0 b1 b5 86 3c 74 5f a9 bd 6e a1 61 3c 51 73 8b bd
       0.01644406 -0.08270159 0.013771398 -0.06809104
0003e0 5a 6b 93 3d 35 de a1 bd 24 c3 0f 3d 01 6d 2b bd
       0.0719821 -0.07903711 0.03509821 -0.041852
0003f0 06 30 09 3d ab 65 2b bc 5d a9 5e 3d db 5a 0e bd
       0.033493064 -0.010461251 0.054360736 -0.034754615

model.6.bias f4 [128]
000000 7f 04 c0 bc d9 bd 0c 3c cf d1 84 3d 94 0e b1 bb
       -0.023439644 0.008590185 0.0648533 -0.005403349
000010 58 18 88 bd 68 a7 ba 3d 67 1f 8c 3b 70 91 ab bd
       -0.06645268 0.091139615 0.0042762044 -0.083773494
000020 5b c6 92 3d e1 1d 1e 3b f8 81 7c 3d d0 bd 00 38
       0.071667396 0.0024126696 0.061647385 3.0694355e-05
000030 0d 04 63 3d 12 42 a5 3d d4 cd 98 3d c4 22 ad 3c
       0.055423785 0.080692425 0.074611336 0.021134742
000040 cb b0 00 3d fb 9f ad 3d 67 f2 91 bc 38 d3 1d bd
       0.031418603 0.084777795 -0.017815782 -0.038531512
000050 0a ef ab 3c d5 45 0f 3d 8f 37 ec 3c 17 87 b5 bd
       0.020988006 0.034978706 0.028835086 -0.08863657
000060 f0 2d 90 bb ad d8 fd 3c 7a 73 0f 3d 30 1e 3d bd
       -0.0044000074 0.030987108 0.035022236 -0.046171367
000070 3d 22 2a 3d 4c b8 b5 3d d7 ef a6 bd 79 2c 80 bd
       0.04153656 0.088730425 -0.081512146 -0.062584825
000080 7a 48 22 bd d4 ea 8c bd ba 52 08 bd f6 c0 64 3d
       -0.0396199 -0.068807274 -0.03328202 0.055848084
000090 2f 08 b1 bc f2 6e 95 bd 8a dd 8f bd fb 75 43 3d
       -0.021610348 -0.07296552 -0.07024677 0.047719937
0000a0 21 54 a8 3d 60 09 7c 3b 6e 9d 02 3c d4 e2 89 bd
       0.08219171 0.0038457736 0.0079721045 -0.06732717
0000b0 d0 9b 0b 3d f7 a6 88 bd 2c 2c cb bc 0f dd 5b 3c
       0.03408414 -0.06672471 -0.024801336 0.013419404
0000c0 19 b2 6b bc 65 7f ab 3d d7 a6 41 bd 01 60 60 3b
       -0.0143857235 0.08373908 -0.04727825 0.003423691
0000d0 1a ad 20 3d 73 a7 84 bd 1e bf 3f bd 23 b3 9b bd
       0.039227583 -0.06477251 -0.046813123 -0.07602527
0000e0 85 82 c4 3c 54 81 8c 3d cb cf b2 3d c5 34 46 bd
       0.023988018 0.06860605 0.087310396 -0.04839017
0000f0 22 78 94 bd 22 1d 9f 3d f2 48 7a bd 43 b0 e0 bc
       -0.07249476 0.077692285 -0.061104722 -0.027427798
000100 f7 48 8e bd b9 3e 7f bd 52 87 a5 bd 18 56 8b 3b
       -0.06947511 -0.062315676 -0.08082451 0.0042522065
000110 b5 ae 18 3d c1 a5 5d bd d7 36 92 bc c9 b5 ac bd
       0.03727599 -0.054113153 -0.017848415 -0.0843311
000120 14 45 a6 bd b2 21 8f 3c bf 39 4d bd b9 c7 7c bd
       -0.08118644 0.017472122 -0.0501039 -0.061713908
000130 a8 4c 83 bd 6b d6 99 3d 93 ca a3 bd fe f8 52 3d
       -0.064111054 0.075116 -0.07997622 0.05150699
000140 38 62 9a 3c c1 57 90 3d 40 35 85 bd 81 99 b1 bc
       0.018845662 0.07047988 -0.06504297 -0.021679642
000150 e9 99 a5 3c 2c d5 c3 3c 81 4d 93 bd aa e5 9f bc
       0.020214992 0.02390536 -0.07192517 -0.019518692
000160 87 29 2f 3d 8f 87 a9 bd 9e 78 a1 bd 8b 5f 8c 3d
       0.042764213 -0.08277809 -0.07884334 0.06854161
000170 bb a3 07 bc 09 92 98 bd d3 ce 44 bc 6f 9a d4 3b
       -0.0082787825 -0.07449729 -0.012012201 0.0064881365
000180 28 6e 72 bd 94 41 2d bd bb e6 39 bd 9c d6 3f bd
       -0.059187084 -0.04229887 -0.045386057 -0.046835527
000190 f8 11 32 3d 3a 7c 2b bb fb 42 9b 3d 78 d6 1b 3d
       0.043474168 -0.0026166574 0.07581135 0.03804633
0001a0 b9 1b 4f bd b7 53 68 3d 17 ee 4d bd a6 d9 a8 bd
       -0.050563548 0.05672046 -0.05027589 -0.08244638
0001b0 2e d9 b3 bd 9f 2b 45 bd 5c 26 fe bc cc 6f 94 3c
       -0.08781658 -0.048137303 -0.03102415 0.018119715
0001c0 f9 e5 0b 3d 8e 3c 91 bd 4f 15 7c bd 77 f3 cd bc
       0.034154866 -0.07091628 -0.06154376 -0.025140507
0001d0 c8 e2 d3 3c 02 27 f0 bc 10 91 b2 3c c8 50 20 3d
       0.025864974 -0.029315475 0.021797687 0.03913954
0001e0 ba ec 95 3d d7 0f 34 3b 59 1f 70 bd de 1c 8a 3c
       0.07320543 0.0027475262 -0.058623645 0.016859468
0001f0 15 c9 19 3d b7 a0 3b 3d ae f4 36 3d 24 40 6a bd
       0.037545282 0.045807566 0.04466694 -0.057190076

model.8.weight f4 [128, 128]
000000 ff 6f b1 3c b4 ea 55 bd ce e1 9f bd 98 f5 86 bd
       0.02165985 -0.052225783 -0.07806741 -0.06589812
000010 46 6f 45 3d d7 5a 61 bd 26 b6 4f bc 62 ba df 3c
       0.04820182 -0.055018272 -0.012677705 0.027310554
000020 bf ed 2d 3c de 95 69 bd b0 bd 1b bd d2 b5 8c 3d
       0.010615765 -0.05702769 -0.038022697 0.06870617
000030 6e 6f 3f 3d 94 bc 3d bd fb 0f 48 3c a0 7c a3 bc
       0.046737127 -0.04632242 0.012210841 -0.019956887
000040 f9 c6 43 bd c9 6c 8d bd d0 11 22 bd 16 13 0f 3c
       -0.047797177 -0.06905515 -0.03956777 0.008732578
000050 1c 04 fb bc 92 b4 a4 3d 13 3f a5 bd cd 77 20 3d
       -0.030641608 0.080422536 -0.08068671 0.03917675
000060 e1 62 8f bc dc 29 a0 3d 29 a1 02 bb d0 cc 98 3d
       -0.017503204 0.07820484 -0.0019932485 0.0746094
000070 59 39 ae bc 18 d7 5a bd 0c 4b 5d bd d8 93 73 bc
       -0.02126758 -0.053427786 -0.05402665 -0.014866792
000080 b6 71 02 bd 95 83 2c 3d 14 fa 14 bd 6a ee 6c bd
       -0.031846724 0.042117674 -0.036371306 -0.057844557
000090 ea b8 63 bd 6e 6c b1 3d bf 88 d3 3c 5a e8 a5 3d
       -0.05559627 0.086632594 0.025822042 0.08100958
0000a0 49 ef 87 bd ef 8d a3 bd c2 f8 20 bc 90 cf 06 3d
       -0.06637437 -0.07986056 -0.0098249335 0.03291279
0000b0 32 ea a1 3d 6d f8 d9 3c 25 89 25 3d 68 5e d6 bc
       0.07905997 0.026607716 0.040413994 -0.026168063
0000c0 ad 2b d5 bc 05 54 3e 3b b3 59 07 bd 64 74 1d 3c
       -0.026021803 0.0029041779 -0.03304453 0.009610269
0000d0 7c eb 3f 3d cc 71 9c 3a 2f f9 27 bd 7a ec c3 bc
       0.046855435 0.001193577 -0.041009124 -0.023916472
0000e0 e1 e0 a2 3c fb f3 79 3d 79 28 85 bd 01 ef e8 ba
       0.019882621 0.061023694 -0.0650186 -0.0017771424
0000f0 00 a3 c8 bc e9 d9 af 3d 3c 71 93 bc ee fe 89 bd
       -0.024491787 0.08586485 -0.01799833 -0.06738077
000100 0e b2 a9 3d bc 3d 32 3d 58 d4 25 3d 9e a9 a4 bd
       0.08285914 0.043515906 0.04048571 -0.080401644
000110 2e 02 f0 bc 7d 21 ef 3b d9 2a 71 bd b8 02 10 3d
       -0.029297914 0.0072976933 -0.058878753 0.035158843
000120 dc 97 17 3d 41 d0 84 3d 80 63 a3 3a b8 6b 4f bd
       0.03701006 0.06485034 0.0012465566 -0.050639838
000130 be 93 ac bc a2 4e 1e bd 34 43 f9 bc ee ad 5d 3d
       -0.021066543 -0.03864921 -0.030427553 0.05412095
000140 5a 65 51 3d 16 f0 5d 3d 11 8a 89 3c a7 2b 9c 3c
       0.051122047 0.054184042 0.016789468 0.019063784
000150 3f f8 d0 bc 07 fd 75 3d 35 fd 8b bd c5 63 b9 3b
       -0.025508998 0.06005576 -0.06835405 0.0056576454
000160 b6 c9 06 3b d4 df 50 3d e1 a8 7d bd 1b 0f fe bc
       0.0020567006 0.05099471 -0.061928634 -0.031013062
000170 f0 2e 27 3d 4f 6a fc 3c 5b 34 8d 3d 5a c7 62 bd
       0.040816247 0.03081241 0.06894752 -0.055365898
000180 75 d3 2a bd a0 f7 a8 bc 6e 80 17 bd fe 1f 95 3c
       -0.041705567 -0.02062589 -0.036987714 0.018203732
000190 f6 99 3d bc f8 7d 33 3d 6b 78 f4 bb 87 c5 87 bd
       -0.011572352 0.043821305 -0.007460644 -0.06629472
0001a0 5b 93 29 3b 33 ae 2f bd ce 5f b9 bc 32 44 5a bd
       0.0025875184 -0.04289074 -0.022628691 -0.053287692
0001b0 ae 75 23 3d e4 76 8f bd 80 44 e7 b8 53 14 a6 bd
       0.03990715 -0.070050985 -0.000110276975 -0.08109345
0001c0 49 72 4c bd 5e 91 6b bd 75 cd 43 3c 49 dc 95 3b
       -0.04991368 -0.05751168 0.01195084 0.004573379
0001d0 75 61 84 bd e2 3e ec bc c8 66 82 bd bd 2f ab 3d
       -0.06463901 -0.028838579 -0.0636726 0.08358715
0001e0 88 65 6d bd 95 bf 10 3c 10 8a 8a 3d 59 52 b6 bd
       -0.057958156 0.008834739 0.067646146 -0.08902425
0001f0 ab c5 0e bc a4 b4 4f bd fc f7 4f 3d 74 20 aa 3d
       -0.00871412 -0.05070938 0.050773606 0.08306971
000200 f6 2f ad bd 80 20 25 3d 9d d8 b2 3a a3 46 6f 3d
       -0.084564134 0.040314198 0.0013644878 0.058416974
000210 61 d5 b5 bd 2c 79 05 3d 49 30 a4 3d 7c c8 a9 3d
       -0.088785894 0.03258626 0.08017022 0.082901925
000220 ea dc 21 bd 5c af 84 3d 24 4f 3b 3d db 03 ac bd
       -0.03951732 0.0647876 0.04572977 -0.08399173
000230 6d 14 06 3d 40 b0 3f 3d 5b 9b 73 3d ae 6f a8 3d
       0.032734323 0.046798944 0.05947433 0.08224426
000240 b8 a5 79 bd 87 a0 a7 3d 12 fd 30 bd d5 57 97 bd
       -0.060949057 0.08184915 -0.043210097 -0.073897995
000250 3c 15 c3 3c bf 06 ea bc c1 24 60 bd b2 35 bc 3c
       0.023813836 -0.02856767 -0.05472255 0.022974823
000260 05 1c ae bd b8 3d b5 bd 28 0d ce 3b e3 d1 9a bd
       -0.08501438 -0.088496625 0.0062881894 -0.07559564
000270 2e 45 ac bd b2 a6 a6 3d 3c 7f b3 3d 67 d9 82 3d
       -0.084116325 0.08137263 0.087645024 0.063891225
000280 11 0c 52 3c 80 73 b4 3c 70 66 28 bb ce ec 95 3d
       0.01282026 0.022027731 -0.0025695823 0.073205575
000290 f9 b0 89 bd 3e 8d ab bd 62 eb 76 3d 45 61 44 bd
       -0.06723208 -0.08376549 0.060283072 -0.047944326
0002a0 97 69 3c bd c7 de 97 bd 56 1b 52 3d 48 a7 da bb
       -0.045999136 -0.07415538 0.0512956 -0.0066727735
0002b0 7e 59 12 bd 98 b6 2f 3c 3c 95 c2 bb 2f 32 96 bd
       -0.035729878 0.010724686 -0.0059382003 -0.073337905
0002c0 1f 8d d9 bc 30 8c b3 bc 24 c4 84 3c 83 a6 69 3d
       -0.02655655 -0.021917433 0.016206808 0.057043564
0002d0 f9 01 75 bc 55 b0 09 3d a4 55 94 bd 6c a3 76 3d
       -0.014954084 0.03361543 -0.07242897 0.060214445
0002e0 f7 a1 27 bc ab 92 98 bc a5 5e a7 bd 82 62 45 3d
       -0.0102314865 -0.018624624 -0.08172349 0.048189647
0002f0 71 8f d5 ba df 30 8b 3c 88 b2 2c 3d f4 fc 98 3d
       -0.0016293359 0.016991077 0.04216245 0.07470122
000300 c5 c1 a9 3d f0 2d 91 3d 8e 5f 56 3b 7a 99 8e 3c
       0.08288912 0.0708884 0.0032710764 0.017407168
000310 c5 81 75 bd ed 56 21 bd 87 b7 65 3d 21 e3 ab 3d
       -0.05993821 -0.03938954 0.05608323 0.08392931
000320 65 3a 2c bd ae 22 83 bd 83 df 61 3d 97 a7 8b 3d
       -0.042047877 -0.06403099 0.055144798 0.068190746
000330 96 18 9f 3d 27 03 83 3d 0f ce a6 bc 02 1b a0 bd
       0.07768361 0.06397086 -0.020361928 -0.07817651
000340 19 63 22 bd 68 50 f7 3c eb 70 8d 3d e8 1c c4 bc
       -0.03964529 0.030189708 0.06906303 -0.023939565
000350 62 0f ab 3b be 9f 1f 3d f9 7c de 3c 89 5b 9a bd
       0.0052203396 0.0389707 0.027159201 -0.0753699
000360 7c 1c a9 bd 04 b8 ac bc 3e c0 4b bc 1c 4d ad bc
       -0.08257386 -0.02108384 -0.012435971 -0.021154933
000370 e1 8d 13 bd e6 99 c1 ba 35 75 77 bd ef aa f5 3b
       -0.03602398 -0.0014770597 -0.06041451 0.0074971835
000380 36 4b d5 bc a4 ec bb bc bd c3 86 3d 9c 6f 99 bd
       -0.02603684 -0.022939987 0.06580303 -0.07491991
000390 ae 7c 26 bd ed ae 4e bd b7 8f 43 3d ba dc ae bd
       -0.040646248 -0.05045979 0.04774448 -0.08538194
0003a0 97 fd b5 3c bb 03 40 3c ee 80 b3 bc e5 49 60 bd
       0.022215648 0.011719639 -0.021912064 -0.05475797
0003b0 08 27 95 3c f5 28 4a bd 0b 72 8f bd de d6 b1 bd
       0.018207088 -0.049355466 -0.07004174 -0.08683561
0003c0 d9 62 a9 3d f7 79 89 bc 53 34 18 3d cf 6f 01 bd
       0.08270807 -0.01678179 0.037159275 -0.03160077
0003d0 6e bb a8 bd 2c d9 88 3d 25 95 f1 3c ea 9c cb bc
       -0.082388744 0.06682047 0.029490063 -0.024855096
0003e0 02 99 13 3d b7 39 c1 3c 4e 24 01 3c 14 d7 94 3b
       0.03603459 0.02358709 0.007882191 0.004542241
0003f0 20 42 fd 3c 47 87 70 bd e5 46 a4 3d 74 a8 83 3d
       0.03091532 -0.05872276 0.080213346 0.06428614

model.8.bias f4 [128]
000000 ef af a4 3d b2 fc 1c bd 71 45 17 bd 44 99 91 bb
       0.08041369 -0.038326927 -0.03693146 -0.0044433195
000010 a0 22 7a 3d 29 1f 81 bd dc f3 05 3d e8 4f 86 3c
       0.061068177 -0.063047715 0.032703266 0.016395524
000020 c1 30 7f bd a6 a0 21 3c 4c 69 b1 bd 40 10 3c 3d
       -0.062302355 0.009864962 -0.08662662 0.045913935
000030 62 d8 9c bc b5 93 17 3d e8 9a 22 3d 87 f0 a2 bd
       -0.019146148 0.0370061 0.03969851 -0.07956033
000040 5d 90 72 3d 59 34 2f 3c 41 75 8c bd 6a c4 ab bc
       0.059219707 0.010693633 -0.06858302 -0.020967681
000050 b5 8f 7a 3d e2 fe 06 bc 38 fa 9b bd 82 ef e5 3c
       0.061172206 -0.00823948 -0.07616085 0.028068308
000060 2b a2 53 3c 97 ea bd 3b e4 20 a3 bd 22 c0 a1 3d
       0.012917082 0.0057957876 -0.07965258 0.078979746
000070 cf ab 13 3d 55 e2 14 bd 89 61 a4 3d b5 1a a3 bd
       0.03605252 -0.03634866 0.08026416 -0.07964078
000080 6f ae a1 bd ae d1 8c 3d 74 5e 2c 3d 7e 13 24 3d
       -0.07894599 0.06875931 0.042082265 0.04005765
000090 66 64 64 3d ba c3 80 3d 89 89 a3 3c c1 6a 8f 3d
       0.05575981 0.06287332 0.019963043 0.070027836
0000a0 8b e9 3d 3d 33 82 79 3c b1 24 28 bc 8b 44 43 3d
       0.046365302 0.015228796 -0.010262654 0.04767279
0000b0 1e 31 49 3d 3e c4 d3 bc 8c 46 57 3d 96 37 49 bd
       0.049119107 -0.025850412 0.052557513 -0.049125277
0000c0 03 7b 45 3d c6 e2 f6 3c ae 05 93 3d 64 f1 a2 3d
       0.048213016 0.03013743 0.07178818 0.07956198
0000d0 3c 63 97 3d a0 a3 14 3d 2b e5 11 bd 13 ba bf 3c
       0.07391974 0.036288857 -0.035618942 0.023404157
0000e0 34 b8 9e bd ab ba b4 3d 89 a4 8b 3c 20 37 af bd
       -0.07749978 0.088246666 0.01704623 -0.08555436
0000f0 78 d1 17 bc 05 f4 9e bc 10 71 7b bd ed d1 8e bd
       -0.00926625 -0.019403467 -0.06138712 -0.06973634
000100 83 a3 27 3d c9 6e a6 bc c8 5c 24 bc 1e ba 09 3d
       0.04092742 -0.020316498 -0.010031886 0.03362476
000110 24 02 63 3d c6 e6 29 3d 80 7f 8d bd bd b1 5b 3c
       0.055421963 0.04147985 -0.06909084 0.013409075
000120 f3 3c a4 bb 25 21 aa bd 97 27 26 3d fa 60 a3 bd
       -0.0050121485 -0.08307103 0.0405651 -0.07977481
000130 a7 ee aa bd c9 1e 35 3d d5 a7 7e 3d de 5e 2a 3c
       -0.083463006 0.044218812 0.062171776 0.010398595
000140 f7 e9 ad bc 31 32 b6 bc e2 72 82 bb 71 41 9f 3d
       -0.021229727 -0.02224073 -0.0039809803 0.07776154
000150 d2 c6 ad bd cd 8f b9 3d 34 19 6f 3d 88 fe 93 3d
       -0.084851876 0.09060631 0.058373645 0.07226282
000160 ce e1 81 bd 2e a6 05 3d a8 73 a7 bd 83 37 aa 3d
       -0.06341897 0.032629184 -0.081763566 0.08311369
000170 e5 ef 6a bc 76 93 98 3d c7 41 9b bd 19 28 a9 3d
       -0.014339422 0.07450001 -0.075809054 0.08259601
000180 c6 15 df bc 8b f6 d0 bc 98 bf 03 3d 6c 8d b5 3d
       -0.027232062 -0.025508186 0.03216514 0.08864865
000190 89 2c 48 bc 6f ec 85 bd aa 4a 5f bd a1 06 3a 3d
       -0.012217649 -0.06539237 -0.054514565 0.045416478
0001a0 8e 92 66 3c 8b 0f 01 3d a7 1e f4 3b e6 45 95 bc
       0.014073027 0.031508964 0.007449943 -0.018221807
0001b0 85 60 46 3d e6 49 a1 bd 61 fa 38 3c 1c 72 43 3d
       0.048431892 -0.07875423 0.011290164 0.047716245
0001c0 f0 99 4a 3d 7e 4a 42 bd 32 de 91 3d 4e 8e 80 3c
       0.049463212 -0.047434323 0.071224585 0.015692856
0001d0 18 db 71 3d b8 f6 29 bd ef 26 ae bd fc 07 79 3c
       0.059046835 -0.041495055 -0.0850352 0.0151996575
0001e0 8d 74 f7 ba e4 13 27 bd 24 08 0d 3d a3 bd 6a bd
       -0.0018879339 -0.040790454 0.03443159 -0.057309758
0001f0 2f 58 c3 3c 8c 6d 2a 3c 68 e6 56 bd 28 ec 3c 3c
       0.02384576 0.010402095 -0.052465826 0.011530913
